code/vi_bnn_weights_checkpoint.pth (torch, 85400 bytes, 7 tensors)

0.weight f4 [100, 1]
0	0x3d2aa160	0.041657805
1	0x3d58ebc0	0.052959204
2	0xbe3f52c7	-0.18683921
3	0x3e118df9	0.14214315
4	0x3b7dd201	0.0038729908
5	0xbc18b14c	-0.009319615
6	0x3d0cd3d8	0.034381717
7	0xbe311318	-0.1729244
8	0xbc3c9c0a	-0.011511812
9	0x3ddcb886	0.107773826
10	0xbbc39334	-0.0059684757
11	0x3ab3835c	0.0013695764
12	0x3c940808	0.018070236
13	0x3c83a9ac	0.016072117
14	0xbea206ef	-0.31645915
15	0xbceebb83	-0.029142147
16	0x3e65787b	0.22409241
17	0xbaf652f9	-0.0018793038
18	0x3aab4035	0.00130654
19	0x3dd90b4b	0.10597857
20	0xbe87c640	-0.2651844
21	0x3d7b6673	0.061377
22	0xbdced147	-0.1009851
23	0xbca878a2	-0.020565335
24	0x3d10b920	0.0353328
25	0xbbcdad83	-0.0062767877
26	0x3a8f0a42	0.0010913091
27	0x3dd13c33	0.1021656
28	0xbe2a4544	-0.16627985
29	0x3e46990f	0.19394325
30	0x3c4a8de9	0.012362936
31	0xbdcbb6b0	-0.09946954
32	0x3dca7e9d	0.09887431
33	0xbe24b8b6	-0.16086087
34	0x3d835427	0.06412535
35	0x3e697fa1	0.22802593
36	0x3d1482a5	0.036257405
37	0xbc8edb75	-0.01743863
38	0x3e1cd754	0.15316516
39	0xbbf90b92	-0.0076002562
40	0xbe6e179d	-0.23251195
41	0xbd2e5ecd	-0.042570878
42	0x3e2250cc	0.15851134
43	0x3c138052	0.009002762
44	0xba274e05	-0.000638217
45	0xbe39b33d	-0.1813478
46	0xbe8debb4	-0.2771889
47	0xbe4467c0	-0.19180202
48	0xbb830cf6	-0.003999348
49	0xbe1acd1f	-0.1511731
50	0xbca9b29c	-0.02071505
51	0x3bcc7589	0.006239597
52	0xbe90f37e	-0.2831077
53	0x3c2d4825	0.010576283
54	0xbe2e0651	-0.16994597
55	0x3eb55ab7	0.35420772
56	0xbe44c9e5	-0.19217642
57	0x3ded477f	0.115859024
58	0x3e3c6669	0.18398441
59	0xbbac8432	-0.0052647823
60	0x3e9ea75d	0.30987063
61	0xbe6f9d94	-0.23399955
62	0x3ed100ae	0.4082083
63	0x3e553084	0.20819288
64	0x3f6c4461	0.9229184
65	0x3dbb6180	0.09149456
66	0xbd31a780	-0.04337263
67	0x3e8b1125	0.27161518
68	0xbe3d0403	-0.18458562
69	0xbf490981	-0.78530127
70	0x3e86aaeb	0.26302275
71	0x3c63041d	0.013855961
72	0xbd1c4947	-0.03815582
73	0xbcd5e047	-0.02610792
74	0xbd84cad1	-0.06483997
75	0x3d7d6fa4	0.061874047
76	0xbe666ae7	-0.22501718
77	0x3f0bde74	0.5463631
78	0xbe5be2c3	-0.21473221
79	0x3e59578e	0.21224806
80	0x3c3377a5	0.010953818
81	0x3e0ad35c	0.1355719
82	0xbe080d2b	-0.13286273
83	0xbe7541f0	-0.23950934
84	0x3e26a093	0.16272192
85	0xbe492650	-0.19643521
86	0x3eb7ded7	0.359122
87	0x3d152490	0.03641182
88	0xbd9bfb0a	-0.07616241
89	0x3e04ea5d	0.12980027
90	0x3db46ca0	0.08809781
91	0xbe9b9a38	-0.30391097
92	0xbea9e3dd	-0.33181658
93	0x3e5041d4	0.20337611
94	0xbe5161a6	-0.20447406
95	0x3ea794a1	0.32730582
96	0xbbda86a1	-0.006668881
97	0x3ef5789f	0.4794359
98	0x3d930b90	0.0717994
99	0x3ce378dd	0.027767593

0.bias f4 [100]
0	0xbe8c6aa0	-0.27425098
1	0xbe7f75b0	-0.24947238
2	0xbf5fb06a	-0.8737856
3	0xbf1982a9	-0.59964997
4	0xbdcc6610	-0.099804044
5	0xbd99d15c	-0.07510635
6	0xbe199e4b	-0.1500179
7	0xbf430068	-0.76172495
8	0xbdf108fd	-0.117692925
9	0xbf00fc25	-0.5038474
10	0xbdc0bb96	-0.09410779
11	0xbd3405a6	-0.0439507
12	0xbe5e053c	-0.21681684
13	0xbd8c9cae	-0.06865822
14	0xbf9fcaf5	-1.2483813
15	0xbe4d4d55	-0.20049031
16	0xbf8d09ce	-1.1018617
17	0xbe39da81	-0.18149759
18	0xbca65263	-0.020302957
19	0xbeefca12	-0.46833855
20	0xbf94dc2c	-1.1629691
21	0xbe7e36f1	-0.24825646
22	0xbed88f69	-0.42296913
23	0xbdf05a34	-0.11735955
24	0xbe9b3bb8	-0.30319
25	0xbdd55fdd	-0.10418675
26	0xbd6d48f3	-0.057930898
27	0xbf1e8202	-0.61917126
28	0xbf4d998e	-0.8031243
29	0xbf4cfee9	-0.8007646
30	0xbdbfea0d	-0.093708135
31	0xbef1bf28	-0.47216153
32	0xbee49c4a	-0.4465049
33	0x3cf2b8d5	0.02962915
34	0xbe92e0a8	-0.28687024
35	0xbf6b3c2a	-0.9188868
36	0xbe7f6d90	-0.24944139
37	0xbd91fc71	-0.071282275
38	0xbf3c44f5	-0.7354272
39	0xbd96bfd3	-0.07360806
40	0xbf853ed6	-1.0409801
41	0xbe5be5a7	-0.21474324
42	0xbf2de2cf	-0.6792421
43	0xbdc03537	-0.0938515
44	0xbe0dda30	-0.13852763
45	0x3e5c86d0	0.21535802
46	0xbf9e55fb	-1.2369989
47	0xbf935094	-1.1508965
48	0xbde0f622	-0.10984446
49	0xbf1db108	-0.61598253
50	0xbdff8659	-0.12476797
51	0xbdb0055f	-0.085947745
52	0xbf8ed0a2	-1.115742
53	0xbd4cac9a	-0.049969293
54	0xbf3fd8f1	-0.749404
55	0xbfc3a544	-1.528481
56	0xbf572c2a	-0.84051764
57	0xbf41ddcc	-0.7572906
58	0xbf4136f3	-0.7547447
59	0xbd0f9dd3	-0.035062622
60	0xbfb36709	-1.4015819
61	0xbf6dca5f	-0.9288692
62	0xbfd30902	-1.6487124
63	0xbf5e44ed	-0.8682392
64	0xc021f39d	-2.530494
65	0xbf244fb6	-0.6418413
66	0xbf6d9cfa	-0.9281765
67	0xbf8efaac	-1.1170249
68	0xbf45724b	-0.7712752
69	0xc002058e	-2.031589
70	0xbfa0193f	-1.2507704
71	0xbd6bb7ea	-0.05754844
72	0xbe4947df	-0.19656323
73	0xbe286e29	-0.16448273
74	0xbeea7172	-0.45789677
75	0xbedc04f6	-0.42972535
76	0xbf677d7a	-0.9042584
77	0xc00e5b09	-2.2243063
78	0xbf5c3423	-0.86017054
79	0xbf7ca463	-0.98688334
80	0xbd8f9c76	-0.070122644
81	0xbf13e5fe	-0.57772815
82	0xbf26b4bb	-0.6511952
83	0xbfb6115e	-1.422405
84	0xbf383276	-0.71952
85	0xbf4e7a48	-0.80655336
86	0xbfbcd70a	-1.4753125
87	0xbed39b3e	-0.41329378
88	0xbed39bf5	-0.41329923
89	0xbf47174c	-0.77769923
90	0xbefab688	-0.48967385
91	0xbfa9ea97	-1.3274716
92	0xbfc30664	-1.5236325
93	0xbf87c732	-1.0607665
94	0xbf55de44	-0.83542275
95	0xbfb27257	-1.3941144
96	0xbecf5c18	-0.4049995
97	0xc00457a2	-2.0678487
98	0xbf520bc0	-0.8204918
99	0xbee6c1fa	-0.45069867

2.weight_mu f4 [100, 100]
0	0x00cc46c0	1.8759822e-38
1	0x0157adbc	3.9613912e-38
2	0x819d4226	-5.776761e-38
3	0x808b9d30	-1.2821522e-38
4	0x817d7646	-4.6553618e-38
5	0x80104ac6	-1.496192e-39
6	0x81623911	-4.1550587e-38
7	0x01be2f64	6.986298e-38
8	0x010f54c8	2.632578e-38
9	0x81b36baa	-6.5908706e-38
10	0x80299670	-3.819222e-39
11	0x0190c3a1	5.317796e-38
12	0x017e7295	4.673464e-38
13	0x01a55680	6.073555e-38
14	0x81338b7c	-3.2977183e-38
15	0x012cb8b4	3.172393e-38
16	0x811ceb38	-2.8821436e-38
17	0x051cef3c	7.379025e-36
18	0x80243570	-3.325248e-39
19	0x00147cc0	1.881462e-39
20	0x008c7416	1.2898613e-38
21	0x0120f628	2.9563967e-38
22	0x012fdc04	3.2300277e-38
23	0x8131aa3c	-3.2631903e-38
24	0x01a3bff0	6.015216e-38
25	0x814d2964	-3.768225e-38
26	0x018735b2	4.9668217e-38
27	0x019703a0	5.547384e-38
28	0x81161d26	-2.7571562e-38
29	0x81bc1032	-6.908353e-38
30	0x84fed8aa	-5.9914088e-36
31	0x018288be	4.7950673e-38
32	0x817500d6	-4.4999993e-38
33	0xbf0a410d	-0.5400551
34	0x812bf8d0	-3.1586254e-38
35	0x0131bcc6	3.2645204e-38
36	0x8697fcd2	-5.7171373e-35
37	0x0119551c	2.8162725e-38
38	0x8143fc12	-3.5996695e-38
39	0x810fd824	-2.6420025e-38
40	0x00753f0a	1.0767367e-38
41	0x00cb1e70	1.8653525e-38
42	0x81b0c622	-6.4936496e-38
43	0x8129e710	-3.1206177e-38
44	0x81b971d4	-6.81216e-38
45	0xbefaa19c	-0.48951423
46	0x016d171c	4.3546605e-38
47	0x813d32a8	-3.4750162e-38
48	0x802b5a30	-3.98128e-39
49	0x81976126	-5.560804e-38
50	0x012a3ec6	3.1269106e-38
51	0x8197d842	-5.5778954e-38
52	0x016df23c	4.370382e-38
53	0x007750bc	1.0957386e-38
54	0x80ad7ba0	-1.5931889e-38
55	0x01a18dc6	5.9345494e-38
56	0x01bde322	6.9753555e-38
57	0x01b769c0	6.7375327e-38
58	0x80cdece8	-1.8911263e-38
59	0x01b57044	6.664999e-38
60	0x011a5dce	2.8352634e-38
61	0x0183bac4	4.8389796e-38
62	0x80e0ec48	-2.0655913e-38
63	0x0003a254	3.33739e-40
64	0xbebe30f3	-0.3714672
65	0x01903c92	5.298416e-38
66	0x804175b8	-6.011537e-39
67	0x008044c0	1.1779606e-38
68	0x8084b3d8	-1.2186801e-38
69	0xbe1709da	-0.14749852
70	0x81b0b7f0	-6.4916127e-38
71	0x017c20b0	4.6308542e-38
72	0x0022e19c	3.20334e-39
73	0x0116087e	2.7556742e-38
74	0x01102e82	2.648199e-38
75	0x00dc3350	2.0222217e-38
76	0x810ea1a4	-2.6197252e-38
77	0x03d1f63f	1.2340451e-36
78	0x8097ec12	-1.3951846e-38
79	0x80d52298	-1.957337e-38
80	0x81502424	-3.8229496e-38
81	0x013f70f8	3.516221e-38
82	0x01b01d6e	6.469442e-38
83	0x8180bd77	-4.729164e-38
84	0x812e65f2	-3.2031895e-38
85	0x010e43a0	2.61298e-38
86	0x819f9b2b	-5.863003e-38
87	0x01a786fc	6.1539805e-38
88	0x81969982	-5.532157e-38
89	0x80eca3d0	-2.1731942e-38
90	0x008958b8	1.2613289e-38
91	0x81ba0570	-6.833341e-38
92	0x80090f50	-8.32013e-40
93	0x80328d30	-4.642423e-39
94	0x8107a519	-2.4914036e-38
95	0x0032d408	4.667837e-39
96	0x80c68a64	-1.8233073e-38
97	0x839f759c	-9.372182e-37
98	0x00d6a190	1.9710754e-38
99	0x8019d2d0	-2.371513e-39
100	0x00bcb9c0	1.7331708e-38
101	0x8021c4b8	-3.101141e-39
102	0x00a084e0	1.4741346e-38
103	0x81830796	-4.8132685e-38
104	0x01681b5a	4.2631294e-38
105	0x8037ffdc	-5.142737e-39
106	0x00a59350	1.5205703e-38
107	0x01b2c932	6.5675574e-38
108	0x8112308e	-2.68508e-38
109	0x80bb7b88	-1.7217552e-38
110	0x8173cc4a	-4.477862e-38
111	0x002bd434	4.02505e-39
112	0x818a0ef8	-5.0714673e-38
113	0x001aab90	2.449268e-39
114	0x007bc678	1.1366963e-38
115	0x802d5598	-4.163303e-39
116	0x816f6e24	-4.397639e-38
117	0x0502a607	6.143065e-36
118	0x8199bb18	-5.647179e-38
119	0x00786ee8	1.1060045e-38
120	0x80841018	-1.2128059e-38
121	0x81869fea	-4.945329e-38
122	0x01321426	3.2707892e-38
123	0x000a39f8	9.3915e-40
124	0x015f8788	4.105587e-38
125	0x80ecbc99	-2.1740833e-38
126	0x003d4d24	5.629638e-39
127	0x00e9a228	2.1455841e-38
128	0x0182cfaa	4.805244e-38
129	0x00bca3a8	1.7323782e-38
130	0x016d8ee2	4.3632539e-38
131	0x81a8ddbe	-6.203164e-38
132	0x8189de4e	-5.0644843e-38
133	0xbf1c78bc	-0.61121726
134	0x00bf5438	1.7570792e-38
135	0x803e49d0	-5.72028e-39
136	0x051d3979	7.3926606e-36
137	0x0140d7b4	3.541959e-38
138	0x01afdf9c	6.460571e-38
139	0x0166581b	4.230754e-38
140	0x014c5e64	3.7536604e-38
141	0x80919c50	-1.3372221e-38
142	0x80e450b0	-2.0967438e-38
143	0x013cad66	3.4654554e-38
144	0x01bd983c	6.964608e-38
145	0xbf68afef	-0.90893453
146	0x81b79fe0	-6.745299e-38
147	0x813cba34	-3.466374e-38
148	0x819fb7dc	-5.86712e-38
149	0x8196afee	-5.5353744e-38
150	0x811646da	-2.7601482e-38
151	0x81a15170	-5.9258917e-38
152	0x014b99fc	3.739569e-38
153	0x0109d158	2.5313123e-38
154	0x80ba6218	-1.7116592e-38
155	0x81bdd395	-6.973124e-38
156	0x8189ca0a	-5.0615764e-38
157	0x80c3ae38	-1.797042e-38
158	0x00767230	1.0877551e-38
159	0x01ac9fb1	6.341197e-38
160	0x001e7160	2.795736e-39
161	0x00f85390	2.280518e-38
162	0x00f72278	2.2695733e-38
163	0x008f268c	1.3146304e-38
164	0xbf14de8b	-0.58152074
165	0x80666878	-9.404697e-39
166	0x8121f01c	-2.97433e-38
167	0x8061c488	-8.978545e-39
168	0x80530948	-7.625676e-39
169	0xbdd40323	-0.10352161
170	0x80e08380	-2.0618324e-38
171	0x0029d12c	3.840292e-39
172	0x81713010	-4.4299192e-38
173	0x8118cd94	-2.8065486e-38
174	0x80822110	-1.1950475e-38
175	0x007e97b8	1.1625699e-38
176	0x81abb55f	-6.3075734e-38
177	0x029304ac	2.160239e-37
178	0x81b9b1f2	-6.8213606e-38
179	0x8148bff4	-3.6871918e-38
180	0x8145413c	-3.622999e-38
181	0x818b42be	-5.1156306e-38
182	0x80676ef0	-9.498853e-39
183	0x0000511c	2.9097e-41
184	0x814b6053	-3.735432e-38
185	0x8103d1f0	-2.4211523e-38
186	0x81915d95	-5.339887e-38
187	0x0052b230	7.594432e-39
188	0x01331f2c	3.2899472e-38
189	0x813c8079	-3.462232e-38
190	0x01184c68	2.797281e-38
191	0x00fdb698	2.3299883e-38
192	0x019ac367	5.6851054e-38
193	0x00c7f750	1.8363983e-38
194	0x810a0e30	-2.5356776e-38
195	0x0140adf2	3.538963e-38
196	0x818910bd	-5.034987e-38
197	0x83699e4c	-6.865426e-37
198	0x00870388	1.2399059e-38
199	0x016193d8	4.1432046e-38
200	0x81b36d0c	-6.591069e-38
201	0x01828ed0	4.7959384e-38
202	0x818f5366	-5.2649575e-38
203	0x0173f820	4.4810072e-38
204	0x81257b6a	-3.039426e-38
205	0x81a5c182	-6.08891e-38
206	0x80ca5358	-1.8580668e-38
207	0x80f65338	-2.2621385e-38
208	0x80859cc6	-1.2270361e-38
209	0x01afb8d2	6.455005e-38
210	0x80fb6a60	-2.308887e-38
211	0x808ff499	-1.3220221e-38
212	0x01a5fef8	6.097729e-38
213	0x80fc12a4	-2.3149232e-38
214	0x01b88b62	6.779093e-38
215	0x807bc860	-1.1367647e-38
216	0x808813a0	-1.2496668e-38
217	0x04a08e03	3.7746236e-36
218	0x00b6a310	1.6772556e-38
219	0x016d1e08	4.3551572e-38
220	0x81294288	-3.1088132e-38
221	0x80f2ca58	-2.2296777e-38
222	0x0181844c	4.757695e-38
223	0x00a0bdd8	1.4761782e-38
224	0x00adf8c0	1.5976776e-38
225	0x8142319a	-3.566776e-38
226	0x00fd69f0	2.3272384e-38
227	0x8093f8fc	-1.3589137e-38
228	0x01a94f20	6.2194334e-38
229	0x00042d88	3.83676e-40
230	0x0378deea	7.3136543e-37
231	0x0132a574	3.2812143e-38
232	0x002e7484	4.266231e-39
233	0xbe7b17b7	-0.24520765
234	0x010f3de4	2.6309356e-38
235	0x8165ebd0	-4.2229844e-38
236	0x021e9780	1.1651485e-37
237	0x013998e8	3.4088838e-38
238	0x8073cbf8	-1.0634252e-38
239	0x819d50ce	-5.778864e-38
240	0x01af2e3a	6.435118e-38
241	0x818ce17c	-5.175143e-38
242	0x81533bf8	-3.8797605e-38
243	0x80a6d688	-1.5321652e-38
244	0x00b086dc	1.6211426e-38
245	0xbe7cd71f	-0.24691437
246	0x0122e710	2.992048e-38
247	0x803283bc	-4.639032e-39
248	0x81986571	-5.5981543e-38
249	0x8118d554	-2.8071046e-38
250	0x80f62562	-2.2604942e-38
251	0x8143ddc0	-3.597494e-38
252	0x014c7510	3.755287e-38
253	0x8088fee8	-1.258107e-38
254	0x81517ff0	-3.8479028e-38
255	0x818d4474	-5.1893445e-38

2.weight_log_sigma f4 [100, 100]
0	0x00000000	0.0
1	0x00000000	0.0
2	0x3371d9f4	5.6310412e-08
3	0x31c5a29d	5.7519416e-09
4	0x333168e1	4.130641e-08
5	0xb229db99	-9.887025e-09
6	0xb2a1f94e	-1.8856237e-08
7	0x00000000	0.0
8	0x32302278	1.0252386e-08
9	0x322185b9	9.401838e-09
10	0x33612ecf	5.2429467e-08
11	0x332d4f79	4.035198e-08
12	0x3332c3ec	4.1622044e-08
13	0x3349a66b	4.6950316e-08
14	0x323a497d	1.0843334e-08
15	0x33291d3d	3.937497e-08
16	0x336f2b90	5.5686144e-08
17	0x331ada80	3.6054644e-08
18	0x3309176d	3.1919104e-08
19	0x33331990	4.1699934e-08
20	0x333a27e8	4.3342794e-08
21	0x337d3d20	5.8961746e-08
22	0xb295763a	-1.7399646e-08
23	0x33442d92	4.5676252e-08
24	0x00000000	0.0
25	0xb2b96d65	-2.1586581e-08
26	0x33341849	4.1931603e-08
27	0xb2e38a66	-2.6489214e-08
28	0x335954fd	5.0601546e-08
29	0x329d7048	1.8328265e-08
30	0xb2d8ca27	-2.5237638e-08
31	0xb1f4b78e	-7.1222024e-09
32	0xb0fe1ddd	-1.848942e-09
33	0xbe61d0ea	-0.2205235
34	0x336ca32d	5.509644e-08
35	0xb2968fd3	-1.7527702e-08
36	0xb089b31d	-1.0018969e-09
37	0xb26f1cc4	-1.39181715e-08
38	0xb1e1c0c4	-6.5702768e-09
39	0x32acc630	2.011356e-08
40	0x31b468fa	5.250624e-09
41	0x32dc57c6	2.5651286e-08
42	0x332fa463	4.089487e-08
43	0x3176fd96	3.5941858e-09
44	0x333d0989	4.4013664e-08
45	0xbe9cecda	-0.30649453
46	0x333300de	4.1677474e-08
47	0x322180ca	9.400717e-09
48	0x2eeba063	1.0715053e-10
49	0x31aa88e7	4.963215e-09
50	0x330e8684	3.3184293e-08
51	0xb1c6fb1d	-5.7911067e-09
52	0x33167358	3.50295e-08
53	0x33044cd6	3.0803527e-08
54	0x32d1ae72	2.441013e-08
55	0x3325594b	3.8498268e-08
56	0x31db69a6	6.3857497e-09
57	0x32e109fe	2.6197991e-08
58	0xb2dec194	-2.593223e-08
59	0xb237b356	-1.0692778e-08
60	0x3228aa82	9.817656e-09
61	0x31091f76	1.9954007e-09
62	0x32ae3645	2.0280945e-08
63	0x31b7cb9e	5.3491496e-09
64	0xbe743f9e	-0.23852393
65	0x00000000	0.0
66	0x00000000	0.0
67	0x325ea86b	1.29603945e-08
68	0xb26c8ef5	-1.3769513e-08
69	0x3e8abd98	0.27097774
70	0x31a3f829	4.772137e-09
71	0x3344ce56	4.5822468e-08
72	0xb041c3c2	-7.049118e-10
73	0x33415d19	4.5020986e-08
74	0x31f74e2f	7.1975346e-09
75	0x318c7241	4.0875254e-09
76	0x336e5206	5.5488293e-08
77	0x336e9107	5.5545595e-08
78	0x32e04b5e	2.6111305e-08
79	0x334c3ba8	4.755171e-08
80	0x3342c8a6	4.5351634e-08
81	0x33074197	3.149179e-08
82	0xb1d8c759	-6.3090906e-09
83	0x3298a4c5	1.7770057e-08
84	0xb20e672b	-8.2889455e-09
85	0x00000000	0.0
86	0x327849c5	1.4452273e-08
87	0xb2985110	-1.7731992e-08
88	0xb2e79555	-2.6959848e-08
89	0x31d933b0	6.3214074e-09
90	0x00000000	0.0
91	0xb2b7460e	-2.1335861e-08
92	0xb25f4a7b	-1.2997243e-08
93	0x3320bc00	3.7423888e-08
94	0xb2a735e0	-1.9465858e-08
95	0x30e413cd	1.6594811e-09
96	0xb2efcaa0	-2.7915405e-08
97	0x324b2e67	1.1826706e-08
98	0x00000000	0.0
99	0x3320ec3e	3.7467764e-08
100	0x00000000	0.0
101	0x00000000	0.0
102	0xb2274b58	-9.737811e-09
103	0xb2af131a	-2.0381368e-08
104	0x31253f3f	2.4046611e-09
105	0x325beaea	1.2800891e-08
106	0xb05543c0	-7.7585227e-10
107	0x00000000	0.0
108	0xb197fb13	-4.4232222e-09
109	0x3249f4be	1.1755388e-08
110	0xb299f0af	-1.7920994e-08
111	0x33672c2b	5.382405e-08
112	0xb220a10f	-9.349846e-09
113	0x32c42adf	2.2836899e-08
114	0x33347b90	4.2021895e-08
115	0x3353337b	4.9174087e-08
116	0x32b12a40	2.0624725e-08
117	0x33084d19	3.1735087e-08
118	0x32a524d2	1.9225272e-08
119	0x3365cf4d	5.3506756e-08
120	0x334ee626	4.817243e-08
121	0x332e2b50	4.0551924e-08
122	0x3332a542	4.1594156e-08
123	0x3306dcd7	3.140016e-08
124	0x00000000	0.0
125	0xb2804891	-1.493416e-08
126	0xb26b5ee6	-1.3700378e-08
127	0xb0785390	-9.0340624e-10
128	0xb1a79261	-4.876981e-09
129	0x33175b2f	3.5240358e-08
130	0x31a5c02d	4.82398e-09
131	0xb2f34274	-2.8319143e-08
132	0x337402d7	5.681326e-08
133	0x3de77f7b	0.11303612
134	0x31768942	3.5875733e-09
135	0x32ed4be2	2.7624939e-08
136	0x31f5bc6f	7.151861e-09
137	0x32f38446	2.8349074e-08
138	0xb29c392d	-1.818679e-08
139	0x33083250	3.1710726e-08
140	0xb2755949	-1.4281178e-08
141	0x3320f11f	3.74722e-08
142	0x322bcfdf	1.0000774e-08
143	0xb1fbacd3	-7.3247093e-09
144	0x33401d67	4.4730225e-08
145	0x3dd733ee	0.10507952
146	0x33450d47	4.5879712e-08
147	0x332d49ac	4.0346706e-08
148	0x3207f8c4	7.914597e-09
149	0x3345c712	4.604869e-08
150	0xb29367a1	-1.7160177e-08
151	0x33442619	4.5669456e-08
152	0xb1dedcce	-6.486153e-09
153	0xb0d49c79	-1.5469502e-09
154	0x30d61a2d	1.5577989e-09
155	0x3302d5ab	3.0462314e-08
156	0x32d15502	2.436946e-08
157	0xb136fc62	-2.6627949e-09
158	0xb1afb883	-5.114147e-09
159	0x3313cc5b	3.4411965e-08
160	0x3331369a	4.1260684e-08
161	0x3337ae09	4.2766292e-08
162	0x336ad64a	5.4677265e-08
163	0xb2206235	-9.335555e-09
164	0x3d1fca0f	0.039011057
165	0x00000000	0.0
166	0x00000000	0.0
167	0x3288dac0	1.593196e-08
168	0x32bb4bf3	2.1804203e-08
169	0xbe83d2ba	-0.2574671
170	0x33184e89	3.5461685e-08
171	0x32e5751d	2.6712366e-08
172	0x2fd70fbf	3.911946e-10
173	0x3295c297	1.7434372e-08
174	0x32833027	1.5272304e-08
175	0x332873eb	3.9220975e-08
176	0x32ee6286	2.775165e-08
177	0x32a172b3	1.8795026e-08
178	0x32326fa2	1.0386346e-08
179	0x337a6cee	5.8306732e-08
180	0xb2186740	-8.871041e-09
181	0x32a84d69	1.9592976e-08
182	0xb2a5c988	-1.9300174e-08
183	0x32e5d32b	2.6755137e-08
184	0xb193a036	-4.296477e-09
185	0x00000000	0.0
186	0x32c1f05c	2.257746e-08
187	0x00000000	0.0
188	0xb2ed81fb	-2.764954e-08
189	0x32cbabec	2.3710491e-08
190	0x00000000	0.0
191	0x32ae6580	2.0302423e-08
192	0x33721323	5.636242e-08
193	0x00000000	0.0
194	0x328f30ab	1.6669523e-08
195	0xb207f075	-7.912708e-09
196	0x322bd112	1.0001047e-08
197	0x33313872	4.126236e-08
198	0x00000000	0.0
199	0xb2452092	-1.1474315e-08
200	0x00000000	0.0
201	0x00000000	0.0
202	0x3274a5af	1.4240341e-08
203	0x3308e779	3.187549e-08
204	0xb1980e56	-4.425412e-09
205	0x3317f400	3.5379344e-08
206	0xb20cb9a5	-8.191283e-09
207	0x00000000	0.0
208	0xb27e95a8	-1.4818774e-08
209	0xb2c30130	-2.2701528e-08
210	0x325c7d61	1.2834193e-08
211	0x32376cbc	1.0676725e-08
212	0x330d2e2c	3.2871114e-08
213	0x3335d08e	4.2332026e-08
214	0x32a30b8d	1.898095e-08
215	0x33167559	3.5031324e-08
216	0xb2c7b2fa	-2.3248038e-08
217	0x330e97af	3.3199907e-08
218	0x336836f2	5.4066682e-08
219	0xb2bb7c38	-2.1826153e-08
220	0x310b9396	2.0311055e-09
221	0xb2ae8c64	-2.0320108e-08
222	0x3345e459	4.6075318e-08
223	0x331a83cd	3.597579e-08
224	0x00000000	0.0
225	0xb254fd6b	-1.2397645e-08
226	0x32d631e7	2.4935572e-08
227	0x328c0628	1.6300945e-08
228	0x3348d282	4.6757584e-08
229	0x32b21e57	2.0735724e-08
230	0xb21ba190	-9.0589225e-09
231	0xb2bf46e2	-2.226756e-08
232	0x32bfff98	2.2351557e-08
233	0xbe8c5acd	-0.27413025
234	0xb2012aa8	-7.518487e-09
235	0x318f36eb	4.168091e-09
236	0xb0cf4d13	-1.5083138e-09
237	0xb18e8c90	-4.148724e-09
238	0x3331d47a	4.140427e-08
239	0xb267cac5	-1.3492074e-08
240	0x33270a9f	3.8892377e-08
241	0x3334bd1f	4.208152e-08
242	0xb0150a40	-5.422045e-10
243	0xb2a26bc5	-1.890829e-08
244	0x33730cfe	5.6589663e-08
245	0xbf12e0c4	-0.57374215
246	0xb20bfe5a	-8.148698e-09
247	0x318b2b64	4.0503654e-09
248	0x31f6f295	7.1871207e-09
249	0x32da69ea	2.5426704e-08
250	0x3303abd5	3.0657095e-08
251	0x32c90801	2.340312e-08
252	0xb26ff60d	-1.3967576e-08
253	0x336586eb	5.3440925e-08
254	0x3300b4d5	2.9966788e-08
255	0x323e42f7	1.1074682e-08

2.bias_mu f4 [100]
0	0xbfa32a46	-1.2747276
1	0xbf555f3d	-0.8334845
2	0xbfa6f290	-1.3042774
3	0xbf907e70	-1.1288586
4	0xbfa17efe	-1.261688
5	0xbfebc130	-1.8418331
6	0xbfe4d9d7	-1.787898
7	0xbfc0aeef	-1.5053385
8	0xbfd87659	-1.6911117
9	0xbfbc4f7d	-1.4711758
10	0xbfee77fb	-1.8630365
11	0xbfb70369	-1.4297916
12	0xbfc43593	-1.532885
13	0xbfd38606	-1.6525276
14	0xbf8133af	-1.0093898
15	0xbfa6521c	-1.2993808
16	0xbfbf2668	-1.4933596
17	0xbefea08a	-0.49731857
18	0xbff78842	-1.9338458
19	0xbfc35bce	-1.5262392
20	0xbfd374f1	-1.6520063
21	0xbf340a24	-0.70327973
22	0xbf5cbd37	-0.8622622
23	0xbfaa1b04	-1.3289495
24	0xbfd325d8	-1.6495924
25	0xbfaa2894	-1.3293633
26	0xbfd214a9	-1.6412555
27	0xbfd84c88	-1.6898355
28	0xbf9a6b79	-1.2064048
29	0xbfb35528	-1.4010363
30	0xbf8187f0	-1.011961
31	0xbfc15682	-1.5104525
32	0xbfb8c24d	-1.4434296
33	0xbfc184af	-1.5118617
34	0xbfc66ebf	-1.5502547
35	0x3fe4f8a2	1.7888377
36	0xbfadea24	-1.3587079
37	0xbfb0be46	-1.3808067
38	0xbfd33ada	-1.6502335
39	0xbfc70812	-1.5549338
40	0xbf109342	-0.564747
41	0xbf85298a	-1.0403302
42	0xbfa0aa4c	-1.255197
43	0xbfd1fc77	-1.6405171
44	0xbfad6e02	-1.3549197
45	0xbff2e975	-1.8977495
46	0xbec9f883	-0.39447412
47	0xbfc17099	-1.5112487
48	0xbfe683e2	-1.8008997
49	0xbfbbbede	-1.4667623
50	0xbfc46fbd	-1.53466
51	0xbf8afda1	-1.0858651
52	0xbf8e3504	-1.1109929
53	0xbfe980a8	-1.8242388
54	0xbfd1e295	-1.6397272
55	0xbf86e6e8	-1.0539217
56	0xbfcd6fcd	-1.6049744
57	0xbf1f5226	-0.62234724
58	0xbfa8aed7	-1.3178357
59	0xbfa778f1	-1.3083783
60	0xbf559dae	-0.83443725
61	0xbf98cb45	-1.1937033
62	0xbf9940b1	-1.1972867
63	0xbfbe64a5	-1.4874464
64	0xbfc69894	-1.5515313
65	0xbfb6b4b4	-1.4273896
66	0xbfe64ec9	-1.7992793
67	0xbf225712	-0.6341411
68	0xbf8c7842	-1.09742
69	0xbfd0ee4e	-1.6322725
70	0xbfa91d12	-1.3211997
71	0xbf8de3e8	-1.1085176
72	0xbfc03f05	-1.5019232
73	0xbfb13223	-1.3843426
74	0xbfcfce88	-1.6234903
75	0xbf93637e	-1.1514738
76	0xbfafb7e1	-1.372799
77	0xbfa6bde1	-1.3026696
78	0xbfb47d50	-1.4100742
79	0xbfe0bba0	-1.7557259
80	0xbfb2072a	-1.3908436
81	0xbfae868a	-1.3634808
82	0xbf99338a	-1.1968853
83	0xbfbc1873	-1.4694961
84	0xbf9c6ac0	-1.2220078
85	0xbf9bb604	-1.2164922
86	0xbfc19cf5	-1.5126024
87	0xbf8b829c	-1.0899234
88	0xbf806e54	-1.003367
89	0xbfa52718	-1.2902555
90	0xbfc2307b	-1.5171045
91	0xbfb3a7f5	-1.4035631
92	0xbf9b3eb5	-1.2128512
93	0xbfb6a9e7	-1.42706
94	0xbfacd10d	-1.3501297
95	0xbfd469d9	-1.6594802
96	0x3ed76b8a	0.42074233
97	0xbfafcfc3	-1.3735279
98	0xbfdd34c3	-1.7281727
99	0xbfd05519	-1.627597

2.bias_log_sigma f4 [100]
0	0xbf3de4c5	-0.741772
1	0xbf2b6060	-0.6694393
2	0xbf858cc7	-1.0433587
3	0xbf3e4f21	-0.7433949
4	0xc0439cfc	-3.0564566
5	0xbf25ea6e	-0.64810836
6	0xbf8d6ce3	-1.1048855
7	0xbfbe7515	-1.4879481
8	0xbf81489b	-1.0100282
9	0xbea36898	-0.31915736
10	0xbeed5216	-0.4635169
11	0xbf458bb1	-0.7716628
12	0xbf2ec38a	-0.6826712
13	0xbe8bcffa	-0.2730711
14	0xbed51f22	-0.41625315
15	0xbf68ae00	-0.908905
16	0xbf30c936	-0.69057024
17	0xbf852708	-1.0402536
18	0xbe8f301e	-0.27966398
19	0xbf6c57d5	-0.9232152
20	0xbf3405fb	-0.70321625
21	0xbf61c90b	-0.8819739
22	0xbf59837e	-0.84966266
23	0xbf56965d	-0.83823186
24	0xbeec114d	-0.4610695
25	0xbe96a1b8	-0.29420257
26	0xbf07c7cd	-0.53039247
27	0xbf0d72e3	-0.5525343
28	0xbf44dd32	-0.7690002
29	0xbf99cfab	-1.20165
30	0xbf137a55	-0.5760854
31	0xbf7690c1	-0.96314627
32	0xbfda6493	-1.7061943
33	0xbf0df1cc	-0.5544708
34	0xbefa51ad	-0.4889044
35	0xc081582c	-4.042013
36	0xbf9ee7ca	-1.2414486
37	0xbfc8fb40	-1.5701675
38	0xbf582845	-0.84436446
39	0xbf992914	-1.1965661
40	0xbf4e4564	-0.8057463
41	0xbf586616	-0.8453077
42	0xbf9df52b	-1.2340444
43	0xbf539a51	-0.82657343
44	0xbf1dde9b	-0.61667794
45	0xbf5dd5ac	-0.8665416
46	0xbf9455af	-1.1588649
47	0xbf3ecde1	-0.74532896
48	0xbfa00043	-1.250008
49	0xbf25ebd2	-0.6481296
50	0xbf4f202d	-0.8090847
51	0xbfaf8879	-1.3713523
52	0xbeab6178	-0.334728
53	0xbfb227df	-1.3918418
54	0xbfaf476c	-1.3693671
55	0xbf44ef0a	-0.76927245
56	0xbf60911f	-0.8772144
57	0xc075b3fa	-3.83911
58	0xbf5c857d	-0.86141187
59	0xbf59db09	-0.85099846
60	0xbf8df272	-1.1089613
61	0xbf47d1a8	-0.78054285
62	0xbf331c37	-0.6996493
63	0xbfa68de5	-1.3012053
64	0xbed5c171	-0.41749147
65	0xbf5415c3	-0.82845706
66	0xbf011cb7	-0.5043444
67	0xbf5a4c7c	-0.85272956
68	0xbf7a8794	-0.97863126
69	0xbf820df4	-1.0160508
70	0xbf763a20	-0.9618244
71	0xbf4fe481	-0.81208044
72	0xbf377a48	-0.7167096
73	0xbf1246d3	-0.5713932
74	0xbf16129c	-0.58622146
75	0xbf89fff7	-1.0781239
76	0xbf61e976	-0.8824686
77	0xbf876849	-1.05787
78	0xbf9830b4	-1.1889863
79	0xbf81cb48	-1.0140162
80	0xbf392cbd	-0.7233389
81	0xbf40458c	-0.7510612
82	0xbf5d29eb	-0.86392087
83	0xbf242795	-0.641229
84	0xbf2e913b	-0.68190354
85	0xbf22aa63	-0.6354124
86	0xbf3e657c	-0.743736
87	0xbf971a89	-1.1804973
88	0xbf8c5b6f	-1.0965403
89	0xbf630d42	-0.88692105
90	0xbf026e31	-0.5094939
91	0xbf89924e	-1.0747774
92	0xbf507998	-0.8143554
93	0xbf88cade	-1.068691
94	0xbf4d266b	-0.80136746
95	0xbf3668ec	-0.7125385
96	0xc060a485	-3.5100415
97	0xbf4a290d	-0.7896889
98	0xbefa2524	-0.4885646
99	0xbfc030d6	-1.5014904

4.weight f4 [1, 100]
0	0x3d1dc81a	0.03852091
1	0xbd87389c	-0.06602594
2	0x3e4eea31	0.20206524
3	0xbce61014	-0.028083839
4	0x3f0534ea	0.52033865
5	0xbd4ddbcd	-0.050258446
6	0x3e0c586c	0.13705605
7	0x3db45d6f	0.088068835
8	0xbe015055	-0.126283
9	0xbd1f899d	-0.038949598
10	0xbbd5bf6d	-0.006523064
11	0x3dd603ea	0.10449965
12	0xbd6c48f1	-0.05768675
13	0x3e715f9d	0.2357163
14	0x3e3e7de2	0.18602708
15	0xbce8e502	-0.028429512
16	0x3c68dca3	0.01421276
17	0xbc67490b	-0.014116536
18	0xbcf3e82d	-0.029773796
19	0xbe2e625e	-0.17029712
20	0x3db9bb33	0.090689085
21	0xbd06e1c0	-0.032930136
22	0xbd1adeb0	-0.037810028
23	0xbda0f8b4	-0.07859936
24	0xbbb5f0cd	-0.0055523873
25	0x3d8a7818	0.06761187
26	0x3c5ad274	0.01335584
27	0x3db2c63d	0.08729217
28	0xbca83d7c	-0.02053713
29	0xbaa780fb	-0.0012779528
30	0xbdbd2d60	-0.0923717
31	0x3e1c46e3	0.15261416
32	0x3c6fd449	0.014638015
33	0xbbf3a2a4	-0.0074351598
34	0xbcbea60b	-0.023272535
35	0xbf8854e9	-1.0650913
36	0xbdf38fb0	-0.118926406
37	0xbd87bb3b	-0.06627508
38	0xbdde35ee	-0.1085013
39	0x3e5bff36	0.21484074
40	0xbd81d8fa	-0.06340213
41	0x3e171900	0.1475563
42	0x3d0241b2	0.031800933
43	0xbe4b9d4b	-0.19884221
44	0xbada1f30	-0.0016641375
45	0xbd634d10	-0.055493414
46	0xbc33d6aa	-0.010976473
47	0xbd1b8c68	-0.0379757
48	0x3e1be60f	0.15224479
49	0xbd04f3bd	-0.03245901
50	0xbc0d9638	-0.008641772
51	0x3d477c90	0.048702776
52	0x3e3313e6	0.1748806
53	0x3ab4f958	0.001380722
54	0x3dda0b77	0.10646718
55	0x3d3d7e09	0.046262775
56	0xbe3367ab	-0.17520015
57	0xbf41698d	-0.7555168
58	0x3daa5320	0.08316636
59	0xbdce283f	-0.1006627
60	0xbdcf17e1	-0.101119764
61	0xbdd77106	-0.105196044
62	0xbcf2c7a5	-0.029636214
63	0x3e264f62	0.1624122
64	0x3e129fbd	0.14318748
65	0x3c9b1650	0.018931538
66	0x3e226062	0.1585708
67	0xbd4a2001	-0.049346928
68	0x3e52bdd1	0.20580222
69	0xbd9ead88	-0.07747942
70	0x3e12ef43	0.14349084
71	0xbdcf6d41	-0.101282604
72	0xbdb32205	-0.08746723
73	0x3d774c7d	0.06037568
74	0xbdd05c06	-0.10173802
75	0x3d9d6810	0.07685864
76	0xbe357762	-0.17721322
77	0x3e290ece	0.16509554
78	0x3a958231	0.0011406598
79	0x3d643b2d	0.055720497
80	0xbdbc6ff0	-0.09201038
81	0xbe23187e	-0.15927312
82	0x3dd2cf63	0.10293462
83	0xbd2dce6f	-0.0424332
84	0x3e414bb7	0.18876539
85	0xbe137b98	-0.14402616
86	0x3d1e9c08	0.03872302
87	0xbc82aa29	-0.01595028
88	0xbc82000f	-0.015869169
89	0xbd75bf09	-0.05999664
90	0xbcf2c54b	-0.029635092
91	0xbd5c4855	-0.05377992
92	0x3cf92e9e	0.030417737
93	0xbd29bcb7	-0.041439738
94	0x3dfd318e	0.123629674
95	0xbde606de	-0.112317786
96	0xbf5f5693	-0.87241477
97	0x3d619e9e	0.05508291
98	0x3dc75c9d	0.097344615
99	0x3d0dd814	0.034629896
