code/storage/vi_bnn--problem_D--weights.pth (torch, 85412 bytes, 7 tensors)

0.weight f4 [100, 1]
00000000: 514e 043f da9c 86bf d31b 653f 7c26 573f
00000010: f17b 4f3f db1f 8fbf 82b5 92bf 9a8b 61bf
00000020: 3468 e83e 2feb 4dbf f407 253e 3d50 fe3e
00000030: d4be efbe 00a5 cdbc d0f4 e13e 316a ce3e
00000040: bde5 8bbf 6ecd ab3e 376a 083f 197b 2f3f
00000050: 3110 f93e cbe8 8bbf 5b03 30bf 9f46 e83e
00000060: 1a7b 8dbf 023f 553f 0d2a 233f 47c1 0e3f
00000070: 1220 2b3f d3b1 5abf 42a8 c73e a142 163f
00000080: 0d09 52bf 8d53 743e 242c f4be 6546 63bf
00000090: c0c1 93bf 54c7 fd3e 7c87 413f b0d5 af3e
000000a0: 82a0 433f 532d 5bbf 32d1 743f f13b 32bf
000000b0: e02a 573f d1e0 25bf eaca a73e 40b7 fe3e
000000c0: a3e6 4bbf 1046 9cbf c042 0b3f 6246 2c3f
000000d0: f9c1 443f c277 93bf 829b 213f b75c 433f
000000e0: e7d7 343f b5a5 013f f3c5 eebe 76b2 043f
000000f0: ca40 193f 07a9 92bf be1b 7fbf ebe0 29bf
00000100: 2903 3b3f 90b5 1f3f 59d0 1fbf bd3b 04bf
00000110: 7d0e a8bf 3500 9abf 4f1b ffbe b936 23bf
00000120: 433c 2b3f becf d6be f43a 6dbf a90f 453f
00000130: b297 373f 11f2 e23e 8600 66bf f4cc 6abf
00000140: 79c4 1bbf 8002 95bf 01ec 8dbf a502 2d3f
00000150: ffab 393f 23fe 073f f8d9 e23e 1971 15bf
00000160: 4f7c 12bf 206a 69bf 53e0 013f 136b 58bf
00000170: 826e c73e 246a 353f 0478 0fbf 675d 293f
00000180: a4cf 8bbf 37d6 493f b10c 443f 51db c43e
0.51682 -1.0516617 0.8949558 0.840431 0.81048495 -1.1181597 -1.1461642 -0.8810364
0.45392 -0.80436987 0.16116315 0.49670592 -0.46825278 -0.025103092 0.4413209 0.40315393
-1.0929486 0.33555168 0.5328707 0.6854721 0.48645166 -1.0930418 -0.6875512 0.4536638
-1.1053193 0.8329927 0.6373604 0.5576367 0.6684581 -0.8542759 0.38995558 0.5869542
-0.8204506 0.23859997 -0.47689927 -0.8877929 -1.1543503 0.49566138 0.7559736 0.34342718
0.7641679 -0.85616034 0.95631707 -0.69622713 0.840498 -0.6479617 0.32772 0.49749184
-0.796488 -1.2208881 0.5439873 0.67294896 0.7685848 -1.1520922 0.6312791 0.76313347
0.7064194 0.50643474 -0.46635398 0.5183481 0.59864485 -1.1457833 -0.99651706 -0.6635882
0.73051697 0.6238642 -0.6242729 -0.51653653 -1.3129421 -1.2031313 -0.49825522 -0.63755375
0.6688883 -0.4195537 -0.9266808 0.7697702 0.71715844 0.44325307 -0.8984455 -0.91718984
-0.6084667 -1.1641388 -1.1087648 0.6758216 0.7252807 0.53122157 0.44306922 -0.583757
-0.5722093 -0.9117756 0.50732917 -0.8453838 0.38951498 0.7086508 -0.56042504 0.66158146
-1.0922742 0.7884249 0.76581866 0.38448575

0.bias f4 [100]
00000000: ffcd e73e 69a9 23bc 1a13 89bf 0f18 61bf
00000010: 3f2c ccbf d7ff d1be 0f68 b93f fac8 803f
00000020: 8423 be3d 2a52 593e 58ad 40bf 467b 193e
00000030: 84cb f03d 1edd 3ebf 4f35 fa3c 2920 86ba
00000040: 35b5 873c 747e 723e 80cb 1dbf 1c95 1b3e
00000050: 2c0b 3cbe 40c0 c73f 516e 843f f76c 83bf
00000060: c85b bd3f 0d04 88bf 880b ba3d 0d8f cabd
00000070: 4c7c 2c3e 8555 5b3f 96c3 1ebf d665 23bf
00000080: 24a4 bf3f df2b cebe c9a6 b13f b940 a93e
00000090: 4dfc a1be 7b4b fe3e 2a66 a0bf bdb9 0f3f
000000a0: f275 a1be 9810 cd3e 602b afbf 9d10 d73e
000000b0: d6ff 3bbf 876a d03f 76a5 e5be 8426 383d
000000c0: d4b3 b73e e7f4 dd3e e5c7 9bbf 01f2 2bbf
000000d0: cf96 e3be 0dd2 1c3f d54b 163e a130 6dbf
000000e0: ebf3 4dbf 1c3d 17bf a1a1 003f 95ee 89bf
000000f0: 9174 a2be 08bc 813e 0132 0d3f af6e a03f
00000100: 2e6f 88bf 7d07 3bbf 89e3 273f 9327 c83f
00000110: 3fdc 6a3e f6af 183f 8113 9b3e 7859 213f
00000120: 4542 16bf f68c 6b3f 84f6 c63f f952 56bd
00000130: d8ad 3bbf 0db0 b13e 683f 53be 67c9 323f
00000140: 4b36 a43f 7396 b73e cdcf 073f adfd dbbe
00000150: d34a 22bf aa4d 82bf 30b3 50bf cdf8 c73e
00000160: 718c 2a3f 0b60 573f f342 a0bf 8ae6 17bf
00000170: b569 9e3e 82b0 49bf bc18 cf3f 87ad 8bbf
00000180: bf4f 0b3f bef2 86be 452b d8be 0e8b 14bf
0.4527435 -0.009989121 -1.0708954 -0.87927336 -1.5951003 -0.41015503 1.4484881 1.0061333
0.09284118 0.2122275 -0.752645 0.14988431 0.117575675 -0.7455615 0.030542998 -0.0010232973
0.016565898 0.2368105 -0.6163864 0.151936 -0.18363637 1.5605545 1.0346166 -1.0267628
1.4793634 -1.0626236 0.09084231 -0.09890566 0.1684429 0.8567737 -0.6201719 -0.63827264
1.4971967 -0.40267846 1.3879024 0.33057192 -0.31637803 0.49666962 -1.2531178 0.5614279
-0.31535298 0.40051723 -1.3685112 0.42004862 -0.7343725 1.628251 -0.448528 0.044958606
0.35879385 0.43350908 -1.2170378 -0.67166144 -0.44450995 0.6125801 0.14677365 -0.92652327
-0.80450314 -0.5907762 0.50246626 -1.0775934 -0.31729558 0.2533877 0.55154425 1.2533778
-1.0658929 -0.730583 0.65581566 1.5637077 0.2293558 0.59643495 0.30288318 0.63027143
-0.5869487 0.92011964 1.5543981 -0.052325223 -0.7331214 0.3470463 -0.20629656 0.69838566
1.2829069 0.3585697 0.53051454 -0.42966977 -0.6339542 -1.0179951 -0.8152342 0.39057007
0.66620547 0.84130925 -1.2520431 -0.5933615 0.30940023 -0.78784955 1.6179423 -1.0912331
0.5441856 -0.26357073 -0.42220512 -0.5802468

2.weight_mu f4 [100, 100]
00000000: d0c2 bebd 31c6 4ebe 041a 28bd 44ab e03c
00000010: d296 e7bc 6d78 32be a1d5 12be a00b 46be
00000020: 555f b2bd 69fa 5fbe 29de c8bd ac45 15be
00000030: 21b7 05be c497 2001 751c 46bd 258e ebbd
00000040: 29a6 38be c7d1 ccbd 530b ffbd 9030 cfbd
00000050: 963f 04be a2bb 50bd a629 42be fcca ce3d
00000060: c3b3 3fbe 52fd 87bd b1e6 b7bd 2d74 adbd
00000070: d278 d4bc 2c14 07be 618e aabd a726 90bd
00000080: 2fef 00bd c968 5b3d fb68 1abe 4494 21bd
00000090: 5ac9 8ebd 6cdb 13bd ec3b 87bd c605 49bc
000000a0: 202c 9fbd 1a03 63be bd6b eebc 55df b5bd
000000b0: 3f33 bfbd c0f1 82bd 3ab3 12bd 7668 adbd
000000c0: 5947 24be 3076 13be 4903 fcbb a53b 34bd
000000d0: 1436 18bc dc7d afbd f571 71bd 535d aabd
000000e0: c5a6 533c 3c0e b2bd ab1e 3ebe d56c d6bc
000000f0: f971 a4bd bf02 94bd 1215 bbbd 144a 11bd
00000100: c52b 1fbd 30da 33bd 5659 f1bd 529d 43be
00000110: 807e eabc fc1d 56bd 1b62 04be a204 5ebe
00000120: 001e 09be 140f 35be 31a9 b6bd 1107 ecbd
00000130: 3cb8 abbd 2382 bebd 9649 fabd 9f03 43be
00000140: 89ee 99bd 81f3 e9bc 1963 0bbe 7dd7 71bd
00000150: 0803 8abd e3c2 083e 0de7 203d 4ca8 47be
00000160: 0eda 37be 3c78 ebbd a92e e93d 7866 f4bd
00000170: d999 92bd 53d5 d4bd 6aa2 26be c2e7 c3bd
00000180: 2f29 61bd c606 95bd 0242 aabd 7d6a 31be
00000190: 2a3e 48be 5cb4 0b3f 4d48 99be a35e 8cbe
000001a0: 5411 5dbe 96a5 cd3e e270 ee3e 6eb4 0c3f
000001b0: 97bf 76be 6492 0e3f 6ca4 9cbe 0eee 93be
000001c0: 2c3b f53e 3416 2381 827e 75be c083 89be
000001d0: c2ee 0b3f ed06 a9be ef4e 9bbe 42c8 6cbe
000001e0: 35b0 82be ef2f 083f 8313 163f 69c8 b4be
000001f0: 0e6a 1a3f 6352 8bbe 37b3 9cbe 004d 80be
00000200: 0fa5 9bbe 71c8 f33e b9ab 89be c373 97be
00000210: 8966 f23e 83a1 aebe 1043 013f c50f 013f
00000220: c105 093f 40c3 68be 05b7 2fbe 3ba3 c5be
00000230: 02b3 94be 3644 d73e 1659 68be 43dc ca3e
00000240: b8b2 27be d981 093f c8d0 71be 3aa6 5cbe
00000250: 659c 0f3f 0689 ef3e efe4 37be ce16 53be
00000260: 75c0 88be 008d 163f 065e a0be c269 84be
00000270: fd20 47be 2e25 fabd 0be5 033f 987b 67be
00000280: 0f69 a0be 83fb 0e3f d4b7 dc3e 689a 073f
00000290: 715e 7ebe 73b2 4cbe f400 013f 8a47 0e3f
000002a0: 2b7a 053f c507 023f 4d47 fa3e 6ba4 fc3e
000002b0: 7baa 49be 1db4 da3e 1370 103f 94d6 11be
000002c0: 2ef5 96be a713 98be 497c 0d3f 01b0 e53e
000002d0: b71a 043f 816f 023f af2f 193f dd7d a9be
000002e0: ea7f 4bbe c867 71be d58f 50be e2a9 073f
000002f0: 889b ec3e cbb5 083f 9a42 60be 33c5 023f
00000300: daf6 7dbe 2dc3 77be a20f de3e 7252 45be
00000310: b6db 033f 58ac 26be 967d 53be 5a7a 5cbe
00000320: 921d 183f d14c 4a3f dac0 293f b8fe 3c3f
00000330: 5f52 383f 2837 3c3f daad 3d3f e8d9 4a3f
00000340: f03b 1f3f a4ef 383f 943a c43e ce82 0c3f
00000350: b647 2e3f d46c 0b01 51c9 333f 7143 083f
00000360: 8952 403f c520 103f 8d2d 103f ed71 243f
00000370: 2bfc 143f 58b9 503f 22a2 5f3f 7a83 283f
00000380: 5195 3d3f 5d2e 4c3f e660 3c3f 4da8 1e3f
00000390: d96e 2c3f 2b65 4c3f 00e1 123f f177 3a3f
000003a0: ed88 433f ead6 013f 3222 3c3f dbbe 333f
000003b0: 9288 2a3f 3e29 343f edd4 403f ff18 093f
000003c0: 65d8 3d3f 1b37 2c3f d177 573f b364 453f
000003d0: f291 423f 744d 453f 3b92 193f a4fe 0e3f
000003e0: ad24 423f a312 433f 67f6 3b3f dc60 193f
000003f0: 934e 453f 3196 223f f579 1b3f e59c 303f
-0.09314501 -0.20192792 -0.041040435 0.027425416 -0.028270159 -0.17428751 -0.14339305 -0.19340372
-0.087095894 -0.21872868 -0.09807999 -0.14577359 -0.1305814 2.9496245e-38 -0.048366982 -0.11501721
-0.18032135 -0.10000949 -0.12453332 -0.101166844 -0.12914881 -0.05096019 -0.189612 0.1009731
-0.18720917 -0.06640114 -0.08979548 -0.084694244 -0.025936518 -0.13191289 -0.08327938 -0.07038622
-0.031478103 0.053566728 -0.1507911 -0.039448038 -0.069719985 -0.03609793 -0.06603226 -0.012269443
-0.07772088 -0.22169152 -0.029104108 -0.08880488 -0.09335946 -0.063937664 -0.035815455 -0.0846719
-0.16042842 -0.14400554 -0.0076908213 -0.044002194 -0.009290237 -0.08568928 -0.05894657 -0.083185814
0.012918179 -0.08694121 -0.18566386 -0.026174942 -0.08029551 -0.07227086 -0.09134878 -0.035471037
-0.0388601 -0.04390925 -0.117846176 -0.19102982 -0.028624773 -0.05227469 -0.1292805 -0.21681455
-0.1339035 -0.17681533 -0.089189894 -0.11524785 -0.08384749 -0.09302165 -0.12221067 -0.1904435
-0.075162 -0.028558495 -0.13612022 -0.059043396 -0.067388594 0.13355593 0.039282847 -0.19497794
-0.17954275 -0.11497542 0.11385853 -0.11933607 -0.0715825 -0.10392251 -0.16272894 -0.09565689
-0.054970916 -0.072766826 -0.08313371 -0.17325778 -0.19554964 0.5457208 -0.29937974 -0.27415952
-0.21588641 0.40165395 0.46570498 0.54962814 -0.24096523 0.55692124 -0.30594194 -0.2889256
0.47896707 -2.9954302e-38 -0.2397404 -0.2685833 0.5466119 -0.33013096 -0.3033366 -0.23123267
-0.2552506 0.5319814 0.5862352 -0.3530915 0.60318077 -0.27211294 -0.3060548 -0.25058746
-0.30399367 0.47613862 -0.26888826 -0.29580507 0.47343853 -0.341076 0.50492954 0.5041469
0.53524405 -0.22730732 -0.1715966 -0.38601097 -0.29042822 0.42044228 -0.22690234 0.3962117
-0.1637677 0.53713757 -0.236148 -0.21547785 0.56098014 0.46784228 -0.17958425 -0.20614168
-0.26709333 0.588089 -0.31321734 -0.25861937 -0.19446178 -0.12214123 0.51521367 -0.22605741
-0.31330153 0.55852526 0.43109 0.5296998 -0.24840714 -0.19989948 0.5039208 0.5557791
0.5213954 0.50793105 0.48882523 0.4934419 -0.1969394 0.4271554 0.5642101 -0.14242011
-0.29483932 -0.29702494 0.5526777 0.44860843 0.51603264 0.5095139 0.59838384 -0.3310384
-0.19873014 -0.23574746 -0.20367368 0.52993596 0.4621241 0.53402394 -0.21900406 0.5108215
-0.24801198 -0.24195547 0.43371302 -0.19269732 0.5150713 -0.16276681 -0.20653376 -0.21531048
0.5942012 0.7902346 0.66309893 0.7382617 0.7200069 0.7352166 0.740934 0.7923875
0.6220083 0.7224066 0.38325942 0.5488709 0.6807817 2.5608348e-38 0.7022906 0.5322791
0.7512594 0.563 0.56319505 0.64236337 0.5819728 0.8153281 0.8735677 0.6582562
0.74055964 0.79758245 0.73585355 0.61975557 0.6735664 0.7984187 0.5737457 0.72839266
0.7638081 0.5071856 0.7348968 0.702131 0.6661464 0.7037543 0.753249 0.53553766
0.74158317 0.67271584 0.841672 0.7710678 0.76003945 0.7707131 0.59988755 0.558573
0.7583721 0.7620031 0.73422855 0.5991342 0.7707302 0.63510424 0.60732967 0.689894

2.weight_log_sigma f4 [100, 100]
00000000: b330 20bd bf5d 64be 2ee2 a83d 95fa ba3e
00000010: f5df 953f 48b3 af3f 1771 50bd 0a1c c03f
00000020: b925 4a3f a945 8fbd e215 dcbd 28d5 99be
00000030: 7f37 983f 0000 0000 ad60 debd 9d3c cbbe
00000040: 7382 e8be 4b87 98be 54ba 9fbe 69a6 f6be
00000050: 7e9a 9dbd 24f2 083d 0f94 ea3e 06b9 35be
00000060: dd37 a33f 78da e2be f438 293e 59a7 73bf
00000070: 9a01 d6bd 41c8 2a3f 3516 bebe 7081 94be
00000080: 0937 833e 402e 4b3e bc5d 0c3f 9e22 bcbe
00000090: e9c0 94be 1d04 083e cd4d 4dbf dd6e 37bf
000000a0: d5ab 713f d67e 2a3e 23aa ba3e b46e e4be
000000b0: be61 4ebe d859 643f ba3d 08bf c176 de3d
000000c0: 17db 713e 7c81 833e 2387 5f3f 88dd c23d
000000d0: 7b39 813f 3c3d e8be 9d65 2b3e fc70 593f
000000e0: a1bb 003f 42f7 08bf b3f7 533f af6f b43e
000000f0: a273 e83e 4048 9abe 25f8 d03e 0439 fc3d
00000100: 401d 743e 8f28 25bf 6f34 603e 8faf aebe
00000110: c5be d6be b2ca 23bf 73d9 fbbd 1077 7cbf
00000120: cbca c6be 6eb3 0dbe 73bf 7cbe 0fea bdbd
00000130: a18f 1e3f e587 cbbe 645c 90be 7e16 fa3e
00000140: b2c4 93bf 239c 613d 5644 f33e 3bad 28be
00000150: 1155 3fbe 4b0d 1fbd 6df6 f5be 0d86 37bf
00000160: 8e69 b8be 9f5f 28bf f152 38be 7299 383e
00000170: 93a6 55be 82a8 a73e 8b02 81bf 1730 853e
00000180: 9b09 243e 542c b63e c5cc aabd 1b59 16bf
00000190: 6eae 4f3e 9b20 59bd 2c7a 0f3f 2138 b6be
000001a0: e544 43be 6d4f cdbd 463e b5be 101f 9bbe
000001b0: 3c8e febe 83ed 403d 989a 1e3e 183e d83e
000001c0: 843f 68be 0000 0000 21ec cb3e d709 0ebe
000001d0: e771 d7be 0ec6 02bf e628 18bf 826c d1be
000001e0: 08ab 713f bc08 35be 7648 91be e704 6d3c
000001f0: 4fcd acbc 1de0 8cbd 6f3f 79bd d8a7 f3be
00000200: 343d 673e 4f62 0ebe 76b4 cd3e 3250 743f
00000210: 1a25 f9bd f0ac b3bd 5c7c 11bf c9b1 353e
00000220: e1fb ea3e a27d b5be 522b 33be 5aa3 54be
00000230: f091 debd 96a2 20bf 21e7 953f 3d78 0cbf
00000240: 071a 04be 661c f93d 0797 8e3e ed52 d13e
00000250: b344 36bf 567f f73e 8461 173f 2b09 e6be
00000260: 23e5 0f3f 1df5 47be 901e f0be 1647 a53e
00000270: c85e 3dbd 5795 09bd 3571 25bf 7840 2dbf
00000280: d974 83be 870e 1fbe b03c 1ebe 88ec 893d
00000290: 7aab 313e 2c93 74be c064 ae3f 127a 7fbe
000002a0: 7a72 19be 21a2 2d3e 52e9 32bf 7ae1 31bf
000002b0: 4591 103e 1877 673f f82e 243e 3d20 803c
000002c0: 3d4d d03e 0a39 94be a79e efbe 113a dcbd
000002d0: 9eb8 933d 9a6f 5fbf 2376 04be c241 b4be
000002e0: f49a 2ebe 7e2c 653e ed15 14bf 1c6d b5bc
000002f0: 040b 0fbd db8a 603d 3c9e 2ebf 3517 513f
00000300: 0acf febe 2a80 a9bc 2874 c73f 5ae8 a8be
00000310: 5ef3 b7be 1adc 28bd 7479 0f3f 54c2 8b3e
00000320: e755 89bc 2406 aabe b2e4 e3be 75f2 d6be
00000330: 2c90 05be d4b3 91bc 49a6 8ebb ffb2 0dbe
00000340: 2008 233f f2e8 acbd 9160 f63e 1f27 68be
00000350: c8e1 82be 0000 0000 9957 f4bd f5d1 4dbd
00000360: 8e28 e3be 4919 db3e ec55 d8bd 3068 cbbd
00000370: 77bb a5be 5b28 be3e 71c4 98bd a291 d2be
00000380: 5066 ad3b 458e 9bbd c0c1 89be af3f e8be
00000390: 2672 2abf 954b eebe 600e dd3e dfaa 13bd
000003a0: 2e21 c9be 3d6c 04bf 8da6 9fbe fe3a 78be
000003b0: 9a90 3e3e 2733 c4be ac39 febc b282 b8be
000003c0: e0f9 76bf e1ca b2be 56c7 f3be cef2 c8bd
000003d0: ef16 38be 71fb 253e 7bee 44be a527 e2be
000003e0: 0c4d 8a3d 97fe 093f a07e 5c3e 0ab0 0ebf
000003f0: eb7d 1fbf 7afc b4be ee74 23bc 2bf2 a1be
-0.039108943 -0.22301386 0.08246265 0.36519304 1.1708971 1.3726587 -0.0508891 1.5008557
0.7896381 -0.069957085 -0.10746361 -0.30045438 1.1891936 0.0 -0.10858283 -0.39694682
-0.45412025 -0.2979072 -0.31196845 -0.48173836 -0.07695483 0.03343405 0.45816085 -0.17746362
1.2751423 -0.44307303 0.16525632 -0.9517723 -0.10449524 0.66711813 -0.37126318 -0.29005003
0.25627926 0.19841862 0.5483053 -0.3674516 -0.2905343 0.13282819 -0.8019684 -0.7165354
0.9440282 0.16649947 0.3645793 -0.4461571 -0.20154473 0.8919959 -0.5321919 0.10862494
0.23618732 0.25684726 0.8731558 0.0951491 1.0095667 -0.45359218 0.16737981 0.84938025
0.502863 -0.53502285 0.82799834 0.35241458 0.4540072 -0.30133247 0.4081432 0.12315562
0.23839283 -0.6451501 0.21895002 -0.34118316 -0.4194242 -0.63981164 -0.122973345 -0.98619175
-0.38826594 -0.13837978 -0.24682407 -0.09273159 0.6193791 -0.39752117 -0.28195488 0.48845285
-1.1544402 0.055080544 0.47513074 -0.16472332 -0.18684794 -0.038831037 -0.4803957 -0.7168892
-0.36018032 -0.65770906 -0.1800039 0.18027285 -0.20864324 0.3274575 -1.0078901 0.26013252
0.16019289 0.35580695 -0.08339838 -0.58729714 0.20281383 -0.05300961 0.56045794 -0.35589698
-0.1906925 -0.10024915 -0.35399073 -0.30297136 -0.4971789 0.04710151 0.1548866 0.42234874
-0.2268048 0.0 0.3982859 -0.13870941 -0.42079088 -0.5108346 -0.59437406 -0.40903097
0.944016 -0.17679113 -0.28375596 0.014466501 -0.021093993 -0.06878684 -0.06085151 -0.47588992
0.22581941 -0.13904689 0.40176743 0.9543487 -0.1216528 -0.087732196 -0.5683038 0.17743601
0.45895293 -0.35447413 -0.17496994 -0.20765439 -0.10867679 -0.62748086 1.171116 -0.5487097
-0.12900554 0.1216362 0.278496 0.4088358 -0.71198577 0.48339337 0.5913317 -0.4492887
0.5620901 -0.19527097 -0.46898317 0.32280797 -0.04623297 -0.033589687 -0.64625865 -0.67676497
-0.25675085 -0.15532885 -0.15452838 0.06734568 0.1735057 -0.23884267 1.3624496 -0.2494891
-0.14985076 0.16956379 -0.6988727 -0.69484675 0.14117916 0.904161 0.16033542 0.015640372
0.40683928 -0.28949767 -0.4680073 -0.10753263 0.07212947 -0.87279665 -0.1293569 -0.3520642
-0.17051297 0.22380254 -0.57845956 -0.022146754 -0.034922615 0.054819923 -0.68210196 0.81676036
-0.49767333 -0.020690996 1.5582323 -0.3298977 -0.35927862 -0.04122553 0.560447 0.27296698
-0.016764594 -0.3320781 -0.44510418 -0.41981855 -0.13043278 -0.017785944 -0.004353319 -0.13837813
0.6368427 -0.08442868 0.4812055 -0.22671174 -0.25562882 0.0 -0.119307704 -0.05024906
-0.44366878 0.4279273 -0.10563263 -0.099319816 -0.32369587 0.37140164 -0.07459343 -0.41126734
0.0052917376 -0.07595495 -0.26905632 -0.45361087 -0.66580427 -0.4654204 0.4317503 -0.036051627
-0.39283127 -0.5172766 -0.31181756 -0.24241254 0.18609849 -0.38320276 -0.03103336 -0.36037213
-0.9647503 -0.3492041 -0.4761302 -0.09811936 -0.17977498 0.16209199 -0.19231598 -0.4417087
0.06752977 0.539041 0.21532679 -0.55737364 -0.6230151 -0.35348874 -0.009976609 -0.31630072

2.bias_mu f4 [100]
00000000: 1b42 e5bd 3db4 093e 1e7d 623f 2f2b 5a3f
00000010: 0642 5b3f dc18 5b3f 0cd8 90be 2a30 3f3d
00000020: 4021 603f 64c6 733f 7a07 7b3e 63c7 673f
00000030: 6954 393f 9c4a c33e 5d2c f4be 008d 3e3f
00000040: a1fa 91be 43a5 3f3f 3003 623f 63f4 1e3f
00000050: 5fbb cfbc 69d3 1f3e c9fd 3d3f 3ec4 563f
00000060: 24bb d53b 1c6f 593f a9c6 263f 474c 363f
00000070: 9d43 85be c057 a9be 0352 343f 6e1c 693f
00000080: a1fd 3f3f 45eb c53e 902d 2b3f a462 733e
00000090: 935e 3f3f 801d 293f d1cf 693f b43a 2c3f
000000a0: b38a 373f d0d7 a63e 9c68 083f ba5a 443f
000000b0: 6c28 053f f6cb 693f e9fd aabe 7d0f 453f
000000c0: 3260 ba3e 479e a43c 7440 8cbe 5871 4e3f
000000d0: 4ef8 91be 5eb5 6a3f 8076 343f 8551 a2be
000000e0: c430 543f 9298 293d 4fc4 413f 4970 aabe
000000f0: 4a41 a23e 284f 5b3f 3ad7 3a3f 1218 dd3e
00000100: 778a a33d a3bf 4b3f e09b 853d 4fdb 543f
00000110: 12ff 113c 3429 8f3e 92b0 b13e c1fc 1c3f
00000120: d125 473f 90a7 6abd 26fa 3f3f c931 483f
00000130: 19a8 2d3f 99b7 393f 0b50 bebd 23fd c9be
00000140: 6ff7 563f 9b9f c0be 7a69 673f 3115 5b3f
00000150: 5543 263f 566e a53e 1dca 183f 1397 3a3e
00000160: 00e3 713f 2bb6 a23e c37b 553f edea 333f
00000170: 2c5b 403f 8110 0c3d 2101 a23e 050a 2a3f
00000180: 4331 21bd da2e 5f3f 23e2 403f fd48 463f
-0.11194249 0.13447662 0.88472164 0.8522214 0.8564762 0.8558481 -0.2828983 0.046676792
0.87550735 0.95224595 0.24514571 0.90538615 0.72394425 0.3814286 -0.47690096 0.744339
-0.28511527 0.74861544 0.88286114 0.62091655 -0.0253579 0.1560799 0.7421537 0.8389319
0.006522553 0.84935164 0.6514688 0.7121014 -0.26028147 -0.3307476 0.7043764 0.91059005
0.7499638 0.3865606 0.668664 0.23768097 0.74753684 0.6606064 0.9133273 0.67277074
0.71696013 0.32586527 0.5328462 0.7670094 0.52014804 0.91326845 -0.33396843 0.7697676
0.36401516 0.020095004 -0.27392924 0.806417 -0.28509754 0.91682994 0.70493317 -0.3170282
0.8288691 0.041405268 0.7569017 -0.33288792 0.31690437 0.8566766 0.7298466 0.43182427
0.079853944 0.7958929 0.065238714 0.8314714 0.008910911 0.27961123 0.34705025 0.6132317
0.7779208 -0.057288706 0.7499107 0.78200966 0.6783462 0.7254577 -0.09292611 -0.3945094
0.83971304 -0.3762177 0.9039532 0.8557921 0.6494649 0.32310742 0.596834 0.18221693
0.94487 0.31779608 0.8339197 0.70280343 0.7513912 0.034195427 0.31641486 0.6642154
-0.03935362 0.87180865 0.7534506 0.7745512

2.bias_log_sigma f4 [100]
00000000: 184b 8abf 5e24 e5be 8187 963e e28f 58bd
00000010: 0765 3ebe e15c 1ebd a1a9 c63e e6a5 193d
00000020: f287 183f ba72 fa3c 495d 6dbe 97c5 993e
00000030: 0c7c 013e b28c 79be a19c e8be 500b 13bf
00000040: 4821 a8bc b50b 9a3e de8d 17bf 5318 4cbe
00000050: 7d17 583e 7f03 efbd d470 b9be 130b 4f3e
00000060: 5800 36be d669 60be 5e8a 4fbf d623 db3c
00000070: 6481 abbe 7bc6 f6bd 2b7b 8bbe e2ae 63bc
00000080: cf53 303d 6a0b 873e 2a1a 36bf 24b8 f139
00000090: 4648 6fbe 2fd1 f23d 0b0d 193e 6d6b c43e
000000a0: 30f2 17bd f213 55be 66b8 90be 738d a43e
000000b0: 30b2 be3e c07c b1be ac34 4fbe 51c2 cfbd
000000c0: 4f65 18be 32c9 42be 5186 aebe ec8d 02bf
000000d0: 59e6 6f3e 9dad 41bf 5fab 64be 2b2d 78bc
000000e0: 77f3 343f 0861 d9bd 6414 903f 9534 a33d
000000f0: 5f4b fe3e 73ec f8be 9e35 243d 145e 623f
00000100: fa96 c2bd 7faf 9cbb 40d1 c2bd 33dd 55bf
00000110: 844e 1fbf e42a 0cbe 8b91 6b3d b034 d0bd
00000120: 00ec 97be 3177 fabe 7720 e63c d6c8 a7be
00000130: 9257 593e 7191 4c3d 04ea 26bd 17f2 2a3f
00000140: f9de dabd 215d 1abf 5d7f a8bd 6849 42bd
00000150: 42e7 f3be f100 7abd 5736 ff3e b572 a23e
00000160: 30e4 87be 179f e8be 27b3 3abe 89a5 a13e
00000170: 9e93 bfbe 1531 48be a3fd fe3d 73c4 893e
00000180: d955 90be 157d 58be d24b 9b3e 637f 12bf
-1.0804167 -0.44754308 0.29400256 -0.052871592 -0.18593226 -0.038662795 0.38801292 0.03751173
0.59582436 0.030572284 -0.23180117 0.30033562 0.12644976 -0.24370077 -0.45431998 -0.57439137
-0.020523682 0.30087057 -0.5920085 -0.19931154 0.2110271 -0.11670589 -0.36218894 0.20219068
-0.17773569 -0.21915373 -0.81070507 0.026750486 -0.33497155 -0.12049576 -0.27242407 -0.013896676
0.043048676 0.26375896 -0.71133673 0.00046104298 -0.23367414 0.11856305 0.14946382 0.3836321
-0.037096202 -0.2080839 -0.28265685 0.32139167 0.3724532 -0.3466549 -0.20234936 -0.10144485
-0.14882396 -0.19022062 -0.3408685 -0.50997806 0.23427714 -0.7565554 -0.22330998 -0.015147488
0.70684 -0.1061421 1.1256223 0.079690136 0.4966688 -0.48617896 0.040090196 0.884248
-0.09501453 -0.004781663 -0.095125675 -0.8354065 -0.6222918 -0.13688236 0.057511847 -0.10166299
-0.2967224 -0.4891906 0.028091652 -0.32770413 0.21224812 0.04994339 -0.04075052 0.6677565
-0.1068706 -0.60298353 -0.082274176 -0.047433287 -0.47637373 -0.061036054 0.49846146 0.3172814
-0.2654128 -0.45433876 -0.18232404 0.31571606 -0.3741731 -0.19549973 0.12450721 0.2690769
-0.28190497 -0.21141465 0.30331284 -0.57225627

4.weight f4 [1, 100]
00000000: 924e 85bd e43f 5cbe fd57 9cbe 9bd4 a9be
00000010: 9ad6 9bbe 81bb dfbe dd45 d1bd 1dc7 c9bc
00000020: 737a 9fbe 57dc b2be 8b1c bbbd 1af4 c9be
00000030: 0d53 8ebe 628d 33be 4650 05bd 7d34 55be
00000040: 3dcd 223d c5dc a9be 8297 b8be 1041 48be
00000050: ba89 2d3e 2799 0bbe bbf3 97be 3bd9 91be
00000060: 7cdd 6fbd 57d4 cabe 0e3f 4dbe 227a abbe
00000070: b628 463b cd62 71bb 9289 c3be a491 a6be
00000080: 3f9f 39be d357 33be 9543 80be 6642 e4bd
00000090: 2a09 adbe 3ed3 9abe 14b6 ddbe 0912 94be
000000a0: 570c 90be 533c 03be 15c7 84be 398f 7bbe
000000b0: cf50 0ebe c2d5 c3be 7322 1e3c a14b 93be
000000c0: 1e34 92bd c464 30bd 7d76 13bc 2a89 c0be
000000d0: 4ada 96bc 76a8 98be a313 86be 80e9 abbb
000000e0: 8c78 afbe 1540 3f3d 1181 88be b40d 13bd
000000f0: 7054 73be 253a 82be b57f b8be bbf0 2ebe
00000100: 9c19 92bd e00c 7ebe fa20 d93c ff0f 99be
00000110: 6e26 20be 1799 01bd 4e18 eabd 89ed 35be
00000120: a53d 76be 3c3c 7abd fbb3 88be a30c b8be
00000130: 784b 60be c3a6 75be 92d0 443d fa65 953c
00000140: 0138 acbe 1baf 72bd a545 9fbe 428f a3be
00000150: f632 6dbe 5634 12be 633b 6fbe 7085 61be
00000160: db70 e7be 06fc 10bc c7ef c9be 0c87 93be
00000170: 795c adbe b700 1f3c cc05 dabd 9141 55be
00000180: ff91 0dbe 279b a1be 6fe0 52be b164 8ebe
-0.06509127 -0.21508747 -0.3053588 -0.33170018 -0.30437165 -0.43697742 -0.102184035 -0.024631077
-0.3114811 -0.3493373 -0.091363035 -0.39444047 -0.27797738 -0.17534402 -0.032547258 -0.20820804
0.03974651 -0.33176246 -0.3605309 -0.1955607 0.1694707 -0.13632642 -0.2967814 -0.28486046
-0.058560833 -0.39615127 -0.20043585 -0.33491617 0.0030236668 -0.0036832571 -0.38190895 -0.3253299
-0.18127154 -0.17513971 -0.2505156 -0.11145477 -0.33796054 -0.3023929 -0.43302977 -0.2892001
-0.28134415 -0.1281598 -0.25933138 -0.24566354 -0.13898014 -0.38249022 0.009651768 -0.28768638
-0.07138847 -0.043064848 -0.009000418 -0.37604648 -0.018414635 -0.29816025 -0.26186857 -0.005246341
-0.34271657 0.046691973 -0.2666097 -0.03590174 -0.23762679 -0.25434986 -0.36034933 -0.17084019
-0.07133791 -0.24809599 0.026504982 -0.29895017 -0.1563966 -0.03164014 -0.11430417 -0.17766394
-0.24046953 -0.0610926 -0.26699814 -0.3594714 -0.21903789 -0.23989396 0.04805047 0.018237103
-0.33636478 -0.059249025 -0.31107822 -0.31945235 -0.23163971 -0.14277777 -0.23362498 -0.22023559
-0.4520329 -0.00884915 -0.39440748 -0.2881397 -0.33859614 0.00970476 -0.10645637 -0.20825793
-0.13825224 -0.31563684 -0.20593427 -0.27811196
