code/storage/vi_bnn--problem_C--weights.pth (torch, 24420 bytes, 7 tensors)

0.weight f4 [50, 1]
0	0x3b0bad2c	0.0021312935
1	0x3d5cd8c6	0.05391767
2	0xbcadde92	-0.021224294
3	0xbc5f0b17	-0.013613484
4	0x3f0d0be4	0.5509627
5	0x3cc22b42	0.023702268
6	0xbe892c8e	-0.26791805
7	0x3ec78f89	0.38976696
8	0x3cd7a848	0.02632536
9	0xbd9b7320	-0.07590318
10	0x3f126d0a	0.5719763
11	0x3edcc487	0.43118688
12	0x3e84aea4	0.2591449
13	0xbcd48240	-0.025941014
14	0xbe55e32a	-0.20887437
15	0x3e8ccd35	0.2750031
16	0x3d0601c9	0.032716546
17	0x3bb91ef5	0.0056494423
18	0x3e9a6104	0.30152142
19	0xbec717c4	-0.3888532
20	0xbbb5072f	-0.005524538
21	0x3d4d7456	0.050159775
22	0x3e8ffc7b	0.28122315
23	0xbadc7ef6	-0.0016822505
24	0xbee55410	-0.44790697
25	0xbe0b6002	-0.13610843
26	0x3e2f948f	0.17146514
27	0xbea85870	-0.32879972
28	0xbeeb825d	-0.45997897
29	0x3ec7dc36	0.39035195
30	0x3dea92f4	0.1145381
31	0x3e42a7f4	0.19009382
32	0xbeb51410	-0.3536687
33	0xbbc8babe	-0.006125777
34	0xbda6ab00	-0.081380844
35	0xbd184ea0	-0.037184358
36	0xbecb07f2	-0.396545
37	0xbe947d41	-0.2900181
38	0xbb5277bc	-0.0032114824
39	0xbecb0389	-0.39651135
40	0x3eed64ef	0.4636607
41	0xbddbd5a0	-0.10734105
42	0xbf312e55	-0.6921132
43	0xbe256c86	-0.1615468
44	0xbc14d0fb	-0.009083028
45	0xbb14df82	-0.002271623
46	0xbd539cfe	-0.05166339
47	0xbe3a1e11	-0.18175532
48	0xbec4535b	-0.38344845
49	0xbe86438f	-0.26223418

0.bias f4 [50]
0	0xbe01e6be	-0.12685677
1	0x3d19ef1c	0.037581548
2	0xbe5556be	-0.20833871
3	0xbe01c63f	-0.12673281
4	0xc01f1f4f	-2.486286
5	0x3da8eb2f	0.08247983
6	0x3f5b15d0	0.8558016
7	0xbfbdc6d3	-1.4826301
8	0xbe474c04	-0.19462591
9	0x3dd41522	0.10355593
10	0xc0233b11	-2.5504801
11	0xbf3dc151	-0.741231
12	0xbfb2e0cb	-1.3974851
13	0xbe4ad09d	-0.19806142
14	0xbed60fcd	-0.4180893
15	0x3e63c7c1	0.22244169
16	0xbe93b497	-0.28848717
17	0xbddf6e23	-0.10909679
18	0xbf19959b	-0.59993905
19	0x3fb5091e	1.4143407
20	0xbe65a23b	-0.22425167
21	0xbecf59f0	-0.40498304
22	0xbfd57933	-1.6677612
23	0xbd9fb148	-0.077974856
24	0xbfa28021	-1.2695352
25	0xbebda5a9	-0.3704045
26	0xbf83d635	-1.0299746
27	0xbfd8e14c	-1.6943755
28	0xbf737075	-0.9509347
29	0xbf243cfe	-0.64155567
30	0xbf5e8cb7	-0.86933464
31	0xbf917c97	-1.1366147
32	0xbf3908b7	-0.7227892
33	0xbe375383	-0.17902951
34	0xbf48e24c	-0.784703
35	0xbf6a0ba0	-0.9142399
36	0xbfdfdebe	-1.748985
37	0xbf529d05	-0.8227084
38	0xbdd20f78	-0.10256857
39	0xbf92c625	-1.1466719
40	0xc01a0ad3	-2.4069107
41	0xbf41ab73	-0.75652236
42	0xc037633c	-2.8654318
43	0x3efead12	0.49741417
44	0xbdc97881	-0.098374374
45	0xbf0397ad	-0.51403314
46	0xbea5bf8b	-0.32372698
47	0xbf060752	-0.5235492
48	0xbf31686c	-0.6929996
49	0xbf39efb1	-0.72631365

2.weight_mu f4 [50, 50]
0	0xbd4c5c39	-0.049892638
1	0xbdd76334	-0.10516968
2	0xbea85368	-0.32876134
3	0xbba218b6	-0.0049467934
4	0xbffaef3d	-1.960426
5	0xbd1ad73e	-0.037802927
6	0xbec8c24d	-0.3921074
7	0xbececd21	-0.40390876
8	0xbdc31d26	-0.09527044
9	0xbeb3e73d	-0.35137358
10	0xc0072762	-2.1117787
11	0xbdd5355c	-0.10410568
12	0xbe2e7b6a	-0.17039266
13	0xbe10cd59	-0.14140834
14	0xbec0c196	-0.37647694
15	0xbdbf5c01	-0.0934372
16	0xbdef4876	-0.11683743
17	0xbdf65726	-0.12028341
18	0xbe62bd09	-0.22142424
19	0xbf33c4ff	-0.7022247
20	0x3d956034	0.0729374
21	0xbe7057d1	-0.23471
22	0xbee3c65b	-0.4448727
23	0xbe89036d	-0.26760426
24	0xbe402500	-0.18764114
25	0xbeaa70aa	-0.3328908
26	0xbc637844	-0.013883654
27	0xbe81a722	-0.25322825
28	0xbe8205d9	-0.25395086
29	0xbdaa3a02	-0.08311845
30	0xbe378e36	-0.17925343
31	0xbe262a4a	-0.1622707
32	0xbe97582a	-0.2955945
33	0xbe6c5190	-0.23077989
34	0x805acf0c	-8.339469e-39
35	0x009ade18	1.4222339e-38
36	0xbee61765	-0.44939724
37	0xbe8fd962	-0.28095537
38	0xbe099f40	-0.13439655
39	0xbea03ec7	-0.31297895
40	0xbf87c93b	-1.0608286
41	0xbd02ab82	-0.031901844
42	0xbf1923da	-0.5982033
43	0xbec99ac4	-0.3937589
44	0xbe5916f9	-0.2120017
45	0xbe928270	-0.2861514
46	0xbe1726ee	-0.14760944
47	0xbe5a129f	-0.21296166
48	0xbe78f83a	-0.24313441
49	0xbe146878	-0.14492977
50	0xbe13f4c5	-0.14448841
51	0xbe1779e4	-0.14792591
52	0xbeeab84c	-0.45843732
53	0x3c9e5f85	0.019332657
54	0xbe6ac2a3	-0.2292581
55	0xbda62412	-0.081123486
56	0xbeae46e9	-0.34038475
57	0x3c8f5bbc	0.017499797
58	0x3d3b7202	0.045763023
59	0xbdec715a	-0.115450576
60	0xbcaed705	-0.021342764
61	0xbdb4ced1	-0.088285096
62	0xbe245d99	-0.1605133
63	0xbd73f86f	-0.059563097
64	0xbe818376	-0.2529561
65	0xbd9c2901	-0.076250084
66	0xbde4417d	-0.111453034
67	0xbcdb8000	-0.026794434
68	0xbde1dffd	-0.110290505
69	0xbf0d3897	-0.55164474
70	0xbdc6a7ed	-0.09699998
71	0xbe060f48	-0.13091767
72	0x3d02d74a	0.031943597
73	0xbd41aa76	-0.047281705
74	0xbe485f87	-0.19567691
75	0xbdf755a3	-0.12076881
76	0xbd5d652d	-0.054051567
77	0x3d9d3343	0.07675793
78	0xbe35fb45	-0.17771633
79	0xbdd99d90	-0.10625756
80	0x3d1893bb	0.03725026
81	0xbd683c70	-0.056698263
82	0xbde8a0df	-0.11358809
83	0xbdd1de29	-0.10247452
84	0x00adcb28	1.596042e-38
85	0x00b232fc	1.6365008e-38
86	0x3e100040	0.14062595
87	0xbe3937f1	-0.18087746
88	0xbd99d7e4	-0.07511881
89	0xbddecc7c	-0.10878846
90	0x3e45a75a	0.19302121
91	0xbd4fc553	-0.050725292
92	0x3efbe8cd	0.4920105
93	0xbd8375dd	-0.06418965
94	0xbe36f03b	-0.17865078
95	0xbe345790	-0.17611527
96	0xbe00f21b	-0.12592356
97	0xbe6878f9	-0.22702397
98	0xbe7e8f56	-0.24859366
99	0xbe49cfd5	-0.19708188
100	0xbc904386	-0.017610323
101	0x3d5bfa21	0.05370534
102	0xb89250e5	-6.97689e-05
103	0x3d52e76d	0.051490236
104	0xbf76a8c1	-0.9635125
105	0xbc3de4bc	-0.011590179
106	0xbe4ec37a	-0.20191756
107	0xbe8a755f	-0.27042672
108	0x3ca20409	0.019777315
109	0x3d36958b	0.04457621
110	0xbfb0d6b4	-1.3815522
111	0xbe4d9083	-0.20074658
112	0xbd659ae6	-0.056055926
113	0xbe14f48b	-0.1454641
114	0xbea2d4ec	-0.31803071
115	0x3c916fa2	0.017753426
116	0xbdfaeab0	-0.12251794
117	0x3d1d5ce4	0.038418666
118	0x3c59d8ac	0.0132962875
119	0xbed0cc63	-0.40780935
120	0xbe114905	-0.14188011
121	0xbc620543	-0.0137952
122	0xbe48091b	-0.19534723
123	0xbbe065fc	-0.006848095
124	0xbe58f45d	-0.21186967
125	0xbe46f66d	-0.19429941
126	0xbe4d7ae8	-0.20066416
127	0xbe268e51	-0.16265227
128	0xbe50b3e1	-0.20381118
129	0xbe410ed9	-0.1885332
130	0xbd50cc84	-0.05097629
131	0xbe14faf5	-0.14548858
132	0xbd38abc9	-0.045085702
133	0x3c8268d7	0.015919132
134	0x811c71b4	-2.8734253e-38
135	0x801458e8	-1.868603e-39
136	0xbe74d67f	-0.23909949
137	0xbe38cbb3	-0.18046455
138	0xbbd4ced0	-0.0064943805
139	0x3b83f77f	0.0040273066
140	0xbed82575	-0.42216077
141	0x3c5be18a	0.013420472
142	0xbe76f594	-0.24117118
143	0xbe2a07f4	-0.16604596
144	0xbd2113ac	-0.0393254
145	0x3d10473b	0.03522418
146	0x3b6fe094	0.0036602365
147	0xbe5b1efb	-0.21398537
148	0xbe25f10b	-0.16205232
149	0xbe4816dc	-0.1953997
150	0xb7852e6f	-1.5876458e-05
151	0xbd4782cb	-0.04870872
152	0xbe78f42e	-0.24311897
153	0xbdc6de4b	-0.09710368
154	0xbef1765f	-0.47160622
155	0xbe13258f	-0.14369796
156	0xbdc8a509	-0.09797103
157	0xbdd866d2	-0.105664864
158	0xbc876212	-0.016526256
159	0xbe7a1824	-0.24423271
160	0xbf3e0339	-0.7422367
161	0xbe6ae35c	-0.22938293
162	0xbd8e7ffa	-0.06958003
163	0xbe303e06	-0.1721116
164	0xbea16c7e	-0.31528085
165	0xbdac9b02	-0.08428003
166	0xbdadc65a	-0.08485098
167	0xbcac9411	-0.021066697
168	0xbe0a01e4	-0.13477284
169	0xbf1586e1	-0.58408934
170	0xbdbf3b82	-0.09337522
171	0xbdc43ea7	-0.095822625
172	0xbd1222f9	-0.035677884
173	0xbe361df2	-0.1778486
174	0xbe72de5c	-0.23717636
175	0xbe4cb752	-0.19991806
176	0xbc97df56	-0.018539112
177	0xbdd055bd	-0.10172603
178	0xbda76590	-0.081736684
179	0x3baaa252	0.0052073384
180	0xbe7416bc	-0.23836797
181	0xbd935265	-0.0719345
182	0xbe8ab0ed	-0.2708811
183	0xbd8fe23e	-0.07025574
184	0x80688304	-9.597891e-39
185	0x01c0e0cd	7.0852234e-38
186	0xbd5436ae	-0.05180996
187	0xbe2889e9	-0.16458859
188	0xbcd731e0	-0.0262689
189	0xbdef75ea	-0.11692412
190	0xbec144d0	-0.37747812
191	0xbe25b625	-0.16182764
192	0x3d4be8f9	0.049782727
193	0xbe4ee02e	-0.20202705
194	0xbe1111ae	-0.141669
195	0xbde390e2	-0.111116186
196	0xbe636280	-0.22205544
197	0xbe21f147	-0.15814696
198	0xbe35d361	-0.17756416
199	0xbe304814	-0.17214996
200	0x3d0aa755	0.033850987
201	0xbe7db6b1	-0.24776722
202	0xbe0c7f2b	-0.13720386
203	0xbd907bec	-0.07054886
204	0xbe94ff63	-0.29101095
205	0xbe010065	-0.12597807
206	0xbe85becc	-0.2612213
207	0xbe3edca4	-0.18638855
208	0xbd86ee9b	-0.06588479
209	0xbd596ac8	-0.05308035
210	0xbef70130	-0.48243093
211	0xbe5bd94f	-0.21469615
212	0xbe0473e0	-0.12934828
213	0x3dabf5d7	0.083964996
214	0xbe56c0d9	-0.20972003
215	0xbe48d567	-0.19612657
216	0xbe068856	-0.13137946
217	0xbd6e2ea1	-0.058149938
218	0xbe2d78a9	-0.1694056
219	0xbf4cabf4	-0.7994988
220	0xbe8908c2	-0.26764494
221	0xbe02b8cc	-0.12765807
222	0xbe4448c8	-0.19168389
223	0xbe09b428	-0.1344763
224	0xbe33c751	-0.17556502
225	0xbe5dda83	-0.21665387
226	0xbe0529df	-0.13004254
227	0xbbd96b92	-0.006635138
228	0xbd8c0f9f	-0.06838917
229	0xbdfc5874	-0.123215586
230	0xbdb35dfc	-0.087581605
231	0xbdf48ea3	-0.11941268
232	0xbe02f0bb	-0.12787144
233	0xbdf97f3c	-0.12182471
234	0x81d66e5c	-7.876954e-38
235	0x8067fde8	-9.55014e-39
236	0xbe1c5dcb	-0.15270154
237	0xbe846a01	-0.25862125
238	0xbd90ce75	-0.070706286
239	0xbe7b54ba	-0.2454404
240	0xbe371fb1	-0.17883183
241	0xbd517409	-0.05113605
242	0x3da85904	0.082201034
243	0xbe70ed45	-0.23528011
244	0x3d7d0f88	0.06178239
245	0x3db03193	0.086032055
246	0xbd3fc38b	-0.046817344
247	0xbd0fbb27	-0.03509059
248	0xbdc56d46	-0.09639983
249	0xbcc6919f	-0.02423936
250	0xbeb2965e	-0.34880346
251	0x3dbc7cf9	0.09203524
252	0xbf84f27e	-1.0386503
253	0xbd186bae	-0.037212066
254	0xbf09d9bf	-0.5384788
255	0x3edc9dcc	0.4308914

2.weight_log_sigma f4 [50, 50]
0	0x3de80eab	0.11330923
1	0xbe041528	-0.12898695
2	0x3b9f2941	0.004857213
3	0xbce20811	-0.027591737
4	0x3d0a2931	0.03373069
5	0xbd140260	-0.036135077
6	0xbdb0dba8	-0.08635646
7	0xbdcaa0ef	-0.09893977
8	0x3d5848b5	0.052803714
9	0xbe0b85dd	-0.13625284
10	0x3e2cfb26	0.1689268
11	0xbca204fa	-0.019777764
12	0xbdfd8afa	-0.12380023
13	0x3deb6a8f	0.11494934
14	0xbe59fa0f	-0.21286796
15	0xbe93096a	-0.2871812
16	0x3db459a0	0.08806157
17	0xbc3255f7	-0.010884753
18	0xbe576a78	-0.21036708
19	0xbf16a60f	-0.58847135
20	0xbd8c26d4	-0.068433434
21	0x3ee28495	0.44241777
22	0xbe8055fa	-0.25065595
23	0xbe8a860d	-0.27055398
24	0xbd252994	-0.040322855
25	0xbcbe3833	-0.023220157
26	0xbd275466	-0.040851973
27	0xbdadd614	-0.08488098
28	0xbe19e0e4	-0.15027195
29	0xbe026d60	-0.12737036
30	0xbe0ae1c9	-0.13562693
31	0xbe011cfa	-0.1260871
32	0x3d85a739	0.06526036
33	0xbe52d9ab	-0.20590846
34	0x00000000	0.0
35	0x00000000	0.0
36	0x3e243412	0.16035488
37	0xbd2f8b12	-0.042857237
38	0xbe5b5ceb	-0.21422164
39	0xbef6b4f4	-0.4818493
40	0x3c41a954	0.011820156
41	0x3abf9fb1	0.0014619735
42	0xbe03eb4c	-0.12882727
43	0xbe27d8d0	-0.16391301
44	0x3d8f76c8	0.070050776
45	0x3e0b52ea	0.13605848
46	0x3c16ddc8	0.00920815
47	0x3d837cd9	0.06420297
48	0xbd9f4904	-0.077775985
49	0xbe212fcd	-0.15740891
50	0xbd885458	-0.06656712
51	0xbdcd11ab	-0.100131355
52	0x3d87322b	0.06601366
53	0x3cb4d5c4	0.022074588
54	0x3c6f60a8	0.014610447
55	0xb969c2e4	-0.00022293214
56	0xbe2505ab	-0.16115443
57	0x3d6fb48f	0.058521803
58	0x3c5fb9c2	0.013655128
59	0xbd9a2db1	-0.07528246
60	0x3d3549ff	0.04426002
61	0xbdb7422b	-0.089481674
62	0x3ddfff2c	0.10937342
63	0xbca17d51	-0.019713076
64	0xbcbae0fa	-0.022812355
65	0xbe73943c	-0.23787016
66	0xbd8717c1	-0.065963276
67	0xbd14c058	-0.036316246
68	0x3ce15ffa	0.027511586
69	0xbf249c42	-0.6430093
70	0x3ce60c2f	0.028081981
71	0x3d4894c5	0.048970003
72	0x3d5c5477	0.05379149
73	0xbd054849	-0.03253964
74	0xbc53e66b	-0.012933354
75	0xbcc7f9cf	-0.02441111
76	0xbc3402c4	-0.0109869875
77	0xbba2e6cb	-0.0049713603
78	0x3c90eb27	0.017690254
79	0xbd54225e	-0.051790588
80	0x3c1daf24	0.009624276
81	0xbd0a5912	-0.03377635
82	0xbddd347e	-0.10801028
83	0x3d8a44bf	0.067513935
84	0x00000000	0.0
85	0x00000000	0.0
86	0xbcc7c573	-0.024386143
87	0xbd9d3c4d	-0.07677517
88	0xbce27bcb	-0.02764692
89	0xbe11ae4c	-0.14226645
90	0x3c4c35c5	0.0124639915
91	0x3d0a2431	0.03372592
92	0x3d697345	0.056994695
93	0x3dd0744a	0.101784304
94	0x3c8b9216	0.017037433
95	0xbdb723f9	-0.08942408
96	0xbd0e645e	-0.034763686
97	0x3dfa7c31	0.12230719
98	0x3c5f50d4	0.013630111
99	0xbddc6768	-0.10761911
100	0xbe3bc463	-0.18336634
101	0x3c975ba2	0.018476311
102	0xbd88014b	-0.066408716
103	0xbd64b474	-0.055836156
104	0xbe879171	-0.2647815
105	0xbdf812d1	-0.12112964
106	0xbe73fb2c	-0.23826283
107	0xbd6300c2	-0.055420645
108	0x3d7b8e7b	0.061415177
109	0xbe147edb	-0.14501517
110	0x3eff5839	0.49871996
111	0x3c7bfffc	0.015380856
112	0xbd22cc15	-0.03974541
113	0xb9b35f1d	-0.00034212405
114	0xbd4c4126	-0.049866818
115	0xbd310852	-0.043220825
116	0xbc29a3f6	-0.010354033
117	0xbbeebe37	-0.007285859
118	0xbd0e1511	-0.03468806
119	0xbf08554e	-0.53255165
120	0xbc3af8c4	-0.011411849
121	0xbe45c265	-0.19312437
122	0x3cd206fe	0.0256381
123	0x3d40cef6	0.047072373
124	0x3d565bc1	0.052333597
125	0x3d498496	0.04919871
126	0xbdfc527b	-0.123204194
127	0xbdd21bd9	-0.10259218
128	0x3d63e1b7	0.05563518
129	0x3d58d111	0.052933756
130	0x3d9e320f	0.07724392
131	0xbd2be644	-0.041967645
132	0x3d57b6ab	0.05266444
133	0xbe0ae70e	-0.13564703
134	0x00000000	0.0
135	0x00000000	0.0
136	0xbe518674	-0.20461446
137	0x3beded5e	0.0072609624
138	0x3dd793d3	0.10526242
139	0xbd9d70f7	-0.07687562
140	0xbe183bd1	-0.14866568
141	0xbd15ce54	-0.036573723
142	0x3dd9aeeb	0.10629066
143	0x3ca57b8f	0.020200519
144	0x3d4d91a8	0.050187737
145	0xbe280fe2	-0.16412309
146	0xbd5bbaf5	-0.053645093
147	0xbdd2bdcc	-0.10290107
148	0xbda5703d	-0.080780484
149	0x3dc0ae58	0.094082534
150	0xbcad9f37	-0.021194084
151	0xbd251d0a	-0.040310897
152	0x3dfe7520	0.124246836
153	0x3d8314df	0.06400465
154	0xbd04be94	-0.032408312
155	0xbdd92285	-0.10602287
156	0xbd84309b	-0.06454583
157	0xbdc5d980	-0.096606255
158	0xbcb30e06	-0.021857273
159	0xbd4ef010	-0.05052191
160	0x3eaa0c30	0.33212423
161	0xbd0f7c44	-0.03503062
162	0xbd1640ae	-0.036682777
163	0xbd8f4df7	-0.069972925
164	0xbd98f372	-0.074683085
165	0xbe9cb8db	-0.30609784
166	0xbe3d712d	-0.18500204
167	0x3d73fbdd	0.059566367
168	0x3d8966e5	0.06709079
169	0xbdd3b1d8	-0.103366554
170	0x3b11f4c6	0.002227114
171	0x3d322809	0.04349521
172	0x3e0d5945	0.13803585
173	0xbd1b3a22	-0.037897237
174	0xbc18eebc	-0.009334262
175	0xbb7c6bce	-0.0038516405
176	0x3bfc4241	0.007698328
177	0xbd713eff	-0.05889797
178	0x3d8d1bf4	0.06890097
179	0xbdd16aec	-0.10225472
180	0x3cdf1e3b	0.027236095
181	0x3d54ddb5	0.05196925
182	0x3d6399a5	0.05556645
183	0xbde2214f	-0.11041509
184	0x00000000	0.0
185	0x00000000	0.0
186	0x3c27e396	0.010247132
187	0x3dc57027	0.09640532
188	0xbe208677	-0.15676294
189	0xbe35db45	-0.17759426
190	0x3c2d0db6	0.010562351
191	0xbdd2cd38	-0.102930486
192	0xbd181e16	-0.037138067
193	0xbe35f7a1	-0.17770244
194	0xbdcc4447	-0.0997396
195	0xbd271381	-0.040790085
196	0xbe0e7463	-0.13911586
197	0xbd8a1a78	-0.0674333
198	0xbdf67b05	-0.12035183
199	0x3a3124ef	0.00067575177
200	0xbdb1badb	-0.08678218
201	0x3cb36859	0.021900343
202	0x3cd69e8a	0.026198644
203	0x3b19aa07	0.0023447291
204	0x3c0db3ef	0.008648857
205	0xbd099483	-0.033588897
206	0xbe059afb	-0.13047402
207	0xbdd7977a	-0.10526939
208	0x3cbf436a	0.023347575
209	0xbd78d1c4	-0.060746923
210	0xbde4de42	-0.11175205
211	0x3cb0a0c2	0.02156103
212	0x3bc99562	0.006151841
213	0x3c6e0656	0.014527878
214	0xbce21e62	-0.027602378
215	0xbe0bbf26	-0.13647136
216	0x3d8d9516	0.069132015
217	0xbc89e3e5	-0.016832301
218	0xbdad2dc8	-0.08455998
219	0xbf1ad41b	-0.604799
220	0x3d124bc2	0.03571678
221	0x3c4f564c	0.012654852
222	0xbda46138	-0.080263555
223	0x3d40c3d4	0.047061756
224	0x3db77609	0.0895806
225	0x3cfab8fc	0.030605786
226	0xbcea480e	-0.028598811
227	0x3d55a2a7	0.05215707
228	0xbd2aad90	-0.04166943
229	0xbe0318ef	-0.1280248
230	0x3d64561a	0.055746175
231	0x3d90fc71	0.070793994
232	0xbba22633	-0.0049484014
233	0xbd63d9f7	-0.05562779
234	0x00000000	0.0
235	0x00000000	0.0
236	0xbdf670e0	-0.12033248
237	0xbd932f63	-0.07186773
238	0xbdc0e466	-0.094185635
239	0xbcfc1a92	-0.030774388
240	0xbe08048c	-0.13282984
241	0x3cf01db4	0.029311039
242	0xbb966121	-0.0045892154
243	0xbe2901ae	-0.16504547
244	0xbd9facf7	-0.07796662
245	0xbcac8680	-0.021060228
246	0xbd4cd242	-0.050005205
247	0xbe8cba6c	-0.2748598
248	0xbcb60130	-0.022217363
249	0xbd1858d2	-0.03719408
250	0xbd3fac92	-0.046795435
251	0xbefbacda	-0.49155313
252	0x3e0d47c5	0.13796909
253	0xbd65fd06	-0.056149505
254	0xbf37fc13	-0.7186901
255	0xbe945985	-0.28974548

2.bias_mu f4 [50]
0	0xbead89e7	-0.33894274
1	0xbdd57de4	-0.10424402
2	0xbe4c7dcf	-0.19969867
3	0xbe608746	-0.21926603
4	0xbf07c22d	-0.53030664
5	0x4018173b	2.3764179
6	0x3f05c439	0.52252537
7	0xbe9dd32c	-0.30825174
8	0xbd8824ad	-0.0664762
9	0x3f880654	1.0626931
10	0xbef3f9ef	-0.47651622
11	0xbeb37723	-0.35051832
12	0x3c67f790	0.014158145
13	0xbed98d9b	-0.4249085
14	0xbe2a900c	-0.16656512
15	0xbee0d3ca	-0.43911582
16	0xbed20a06	-0.41023272
17	0xbf38c0e5	-0.72169334
18	0xbe6f7036	-0.23382649
19	0xbf25a2a0	-0.6470127
20	0xbe48a286	-0.19593248
21	0xbee980aa	-0.45605975
22	0xbea56ea5	-0.32310978
23	0xbdf1dd50	-0.1180979
24	0xbfa5fbcc	-1.2967467
25	0xbe8bcb72	-0.27303654
26	0xbf404d4f	-0.75117964
27	0x40057115	2.085027
28	0xbeca5804	-0.39520276
29	0xbe80e72b	-0.25176367
30	0xbe64911f	-0.22320984
31	0xbec57c8f	-0.38571593
32	0xbe8029a1	-0.2503176
33	0x3dfd6e88	0.12374598
34	0xbf2061ae	-0.6264905
35	0xbef60a1d	-0.4805459
36	0xbdd5f44d	-0.10446987
37	0xbeeb5e47	-0.45970365
38	0xbe87b165	-0.2650253
39	0xbf3929d7	-0.7232947
40	0xbead910c	-0.33899724
41	0xbf05d366	-0.52275693
42	0xbe79573f	-0.24349688
43	0xbf2f9144	-0.6858103
44	0xbef2121f	-0.4727945
45	0xbeb025dd	-0.34403887
46	0xbf0d724a	-0.55252516
47	0xbe9a62a4	-0.30153382
48	0x3d040da2	0.032239564
49	0xbedaef91	-0.427609

2.bias_log_sigma f4 [50]
0	0xbe9e99a6	-0.309766
1	0x3e2f66f5	0.17129119
2	0xbd069647	-0.03285816
3	0x3cba77d8	0.022762224
4	0x3cd3e9e2	0.02586836
5	0xbfa4a7cd	-1.2863709
6	0xbfdbf0e5	-1.718289
7	0xbeb8f739	-0.36126116
8	0xbde6e458	-0.11274022
9	0xbfa36fce	-1.2768495
10	0xbbc577af	-0.0060262303
11	0xbe319bef	-0.1734464
12	0xbd28a0e9	-0.04116908
13	0xbded5a94	-0.11589542
14	0xbe1efaa3	-0.15525298
15	0xbe8da24f	-0.27662894
16	0xbeed010a	-0.46289855
17	0xbe7aab9c	-0.24479526
18	0xbe03726b	-0.12836616
19	0xc023b6ca	-2.5580316
20	0xbdee3bb8	-0.11632484
21	0x3da7857f	0.08179759
22	0xbd9cfff1	-0.076660044
23	0xbe144ce0	-0.1448245
24	0xbfb1ae02	-1.3881228
25	0xbe8a224e	-0.26979297
26	0xbf0fd216	-0.5617994
27	0xc033d0e6	-2.8096251
28	0xbf033fca	-0.5126921
29	0x3da25b25	0.07927541
30	0xbcb698de	-0.02228969
31	0xbece2760	-0.40264416
32	0xbb396182	-0.002828688
33	0x3e88c6ac	0.26714075
34	0xbf1df9d6	-0.61709344
35	0xbf074df0	-0.528533
36	0xbf5a699f	-0.85317415
37	0xbdf44f35	-0.1192917
38	0xbd6d647a	-0.05795715
39	0x3b784c8d	0.0037887425
40	0xbe4cd083	-0.20001416
41	0xbea45065	-0.32092586
42	0xbea1fdba	-0.3163889
43	0xbf22ad3d	-0.6354559
44	0xbe95f58d	-0.29288903
45	0x3f180ab7	0.5939135
46	0xbf2e7126	-0.681414
47	0xbe2b2274	-0.16712362
48	0x3e53e9cb	0.20694654
49	0xbe01e6a7	-0.12685643

4.weight f4 [1, 50]
0	0xbc0a145d	-0.008427707
1	0xbbc8590b	-0.0061141304
2	0xbc1f8e16	-0.009738466
3	0xbba307f9	-0.0049753156
4	0xbad7b94a	-0.0016458419
5	0x3e6396a4	0.22225434
6	0xbdeaf2bc	-0.11472079
7	0xbc428a56	-0.011873802
8	0x3beb6f2c	0.0071848836
9	0x3dc58f0d	0.096464254
10	0x3c98991b	0.018627694
11	0x3ca2137c	0.019784681
12	0x3c56abcf	0.013102486
13	0x3b55660f	0.0032562052
14	0x3bff2139	0.007785943
15	0xbb21f17c	-0.0024710586
16	0x3ba875a0	0.005140975
17	0x3cb3d37f	0.021951435
18	0x3b42b656	0.0029710731
19	0xbedac5f7	-0.4272916
20	0x399a57e4	0.00029438653
21	0x3bda67eb	0.00666522
22	0x3cb4e173	0.022080159
23	0xbc0c16ff	-0.008550405
24	0x3e0fafb2	0.14031866
25	0x3b9abf63	0.004722522
26	0xbc6e669f	-0.014550834
27	0xbf30bec7	-0.69041103
28	0x3cc4e981	0.024037125
29	0xbc4c8d76	-0.012484899
30	0x3bcf9b78	0.006335672
31	0xbc527a8e	-0.012846602
32	0xbbc9e205	-0.006160977
33	0x3cdb142f	0.026743023
34	0x3c8254c4	0.01590956
35	0xbc080167	-0.008301116
36	0xbbc89a46	-0.0061219065
37	0xbc6f42e7	-0.014603353
38	0xbc967d7d	-0.018370384
39	0x3b880f29	0.004152198
40	0xbc6b50c7	-0.014362521
41	0xbb823188	-0.0039731897
42	0xbc749f55	-0.014930566
43	0x3c826477	0.015917046
44	0x3c4ec7b9	0.01262086
45	0xbc672c7a	-0.014109725
46	0x3ba0fce7	0.004912961
47	0x3b19b0c0	0.0023451298
48	0x3c7df0ea	0.015499333
49	0xbbea1e66	-0.007144737
