code/storage/vi_bnn--problem_B--weights.pth (torch, 85412 bytes, 7 tensors)

0.weight f4 [100, 1]
00000000: 202f 2f3e 81f9 723b 62ea 103f 02a2 ebbc
00000010: 8de0 f33e 9e39 cdbc 76de 123d bc72 e83e
00000020: 0aba 3a3e 6186 883b 7c54 393e 688b c7bc
00000030: e770 0d3f d226 f53e 69b1 d73e d1b0 363d
00000040: ddc4 67be b90d 793e 82eb 4f3b e055 3d3e
00000050: ff86 a83e 191a 443c 2786 23bb f799 633c
00000060: de8e bfbe 6bc6 24bc 776a febe bea9 e0bb
00000070: b956 9fbd 027e 943b 557b 993c 9265 14bc
00000080: 9959 3bbe 4e7e 07be 0014 efbb c79b febe
00000090: 030f 153e 7c04 e9bd 494a 03bf 6c2e b83e
000000a0: 801f 17be 1b69 d33e d2ad 88bd c201 22bb
000000b0: 699d 783d 7039 3cbe 17c6 86be 2625 55ba
000000c0: 338a 043b 3d51 2dbe 113a 1d3b b3df bebd
000000d0: 9a54 f6be 14b5 043e b4a9 32bd b851 c3bd
000000e0: 75c9 9a3a 2721 07bf fcd1 1e3e 9a8f 083e
000000f0: 575a abbd fa27 a3bc e6f8 5e3c eba9 99be
00000100: 12b4 9f3e ca56 3e3e d432 09be 1338 f5bd
00000110: a079 0fbd 19b6 bbbe ae88 81be 01cc 63be
00000120: b149 9cbe f7c2 6cbe 18bc 953d 559e 0abf
00000130: 4a36 c03d fc33 723e a8db 29bb 90e0 86ba
00000140: 605a 053d 9171 8bbe 2b71 a5bd c74e 4abe
00000150: 2c43 56bf f9bb 0cbf 0b85 183e 424d 42be
00000160: 604a d03e 2ac4 77bb 0607 c23d 4f11 10be
00000170: 6b4b 02be ea6d aabd 40d3 073d 6625 bbbb
00000180: 1742 9239 40e7 f3bc b8ad 2f3e c7ed f43c
0.1710782 0.0037074985 0.5660764 -0.028763775 0.47632256 -0.025051888 0.035856687 0.45400035
0.18235031 0.00416641 0.18098634 -0.024358466 0.552504 0.4788118 0.4212754 0.04460222
-0.22633691 0.24321641 0.0031726067 0.1848979 0.32915494 0.011969113 -0.0024951787 0.013891689
-0.37413687 -0.010057072 -0.496906 -0.0068561723 -0.07780213 0.004531623 0.018735567 -0.009057419
-0.18295898 -0.13231775 -0.0072960854 -0.49728224 0.14556508 -0.113778085 -0.51285225 0.35972917
-0.1475811 0.41291127 -0.066737786 -0.0024720286 0.060696993 -0.18381286 -0.26323006 -0.0008130841
0.0020223975 -0.16925521 0.002399091 -0.09320011 -0.4811142 0.12959701 -0.043618873 -0.09537071
0.0011809306 -0.5278496 0.1550979 0.1333603 -0.0836684 -0.019916523 0.013609147 -0.3001245
0.3119207 0.18587795 -0.13398296 -0.11973586 -0.0350281 -0.36662367 -0.2529959 -0.2224579
-0.30524972 -0.23121248 0.07311267 -0.54147846 0.09385355 0.23652643 -0.002591828 -0.0010290314
0.03255689 -0.27235082 -0.08078226 -0.19756614 -0.83696246 -0.54974324 0.14894502 -0.18974784
0.40681744 -0.0037806132 0.09473996 -0.14069103 -0.12724082 -0.08321746 0.033160448 -0.0057112454
0.0002789653 -0.029773355 0.17156112 0.029898537

0.bias f4 [100]
00000000: 5846 39bf df28 2abd bd26 e5bf b945 df3c
00000010: 3c9d c0bf 6a06 91bc b99e 4bbe 8a35 c8bf
00000020: dd94 3cbf 9aca 85bd 5c90 4fbf c3c6 41bd
00000030: 397f b3bf 70d8 bfbf 88d8 c1bf 5022 c2be
00000040: 7468 47bf b264 7fbf 0d33 39bd a651 3ebf
00000050: f28e 84bf cc5f 23be abdf 8bbc d32b ecbd
00000060: 409f 9fbf 678b 71bd 153e d2bf 278f 00bd
00000070: 871e 683d 46c4 a7bc 8683 94be ba50 c6bd
00000080: ffe0 083e e184 cb3d 1224 22bd a454 d0bf
00000090: 720b 22bf 45fc a13d 60b6 debf 4d69 acbf
000000a0: 6235 76bf 2451 a9bf 1fd8 203e 0702 72bc
000000b0: 51b0 abbe 3ee1 1dbf 491b 55bf f7b6 b8bc
000000c0: 759b 09bc b78a efbe 8d02 5fbd d32a 7f3d
000000d0: 624c c3bf e9ff 22bf dda7 203d 5c37 24bf
000000e0: a58c 1ebd 93db b2bf 6a2f 31bf ef1c 11bf
000000f0: ba5c 363e ecf0 4d3d 73a3 76bd 46c6 6dbf
00000100: 11a0 b3bf 816d 41bf 1d3a d43e 878e a73d
00000110: dac7 64bf 6d73 8bbf 0ec9 183e dba4 3cbf
00000120: aedb 87bf 69e9 31bf 41a4 c73d e912 60bf
00000130: 557c dbbe 1422 78bf 3c1f 3cbd 8fbe e3bb
00000140: c55e 0d3d 4205 3cbf fc89 6f3d f812 14bf
00000150: 71e1 aabf 2d24 babf 22f1 20bf a3dd 10bf
00000160: dc9b 96bf 1807 0bbd 9e61 dcbe 87e0 aa3d
00000170: e13f 843e e7af 1abf 38b1 b4be 6c54 12bd
00000180: 0aee a3bc 960e 5dbf 44b0 49bf f269 42be
-0.7237296 -0.041542884 -1.7902447 0.027254926 -1.5047984 -0.017703254 -0.19884767 -1.5641339
-0.7366465 -0.06532784 -0.8107965 -0.047308695 -1.40232 -1.4987926 -1.5144205 -0.37916803
-0.7789376 -0.99763024 -0.0452147 -0.74343336 -1.0356123 -0.15954512 -0.017074427 -0.11531796
-1.2470474 -0.058970835 -1.6425196 -0.03138652 0.05666974 -0.020479333 -0.29006594 -0.09683366
0.13367079 0.09937454 -0.03958518 -1.627583 -0.63298714 0.07909445 -1.7399406 -1.3469635
-0.96175206 -1.3227887 0.15707444 -0.014770991 -0.33532956 -0.6167182 -0.8324476 -0.022548182
-0.00839888 -0.4678552 -0.054445792 0.0622967 -1.5257685 -0.6367174 0.039222587 -0.6414697
-0.038708348 -1.3973259 -0.69212973 -0.56684774 0.1780881 0.05027859 -0.06021447 -0.92880666
-1.4033223 -0.75557715 0.41450587 0.08181482 -0.8936745 -1.08946 0.14920446 -0.7368905
-1.0613916 -0.6949678 0.09748126 -0.87528855 -0.42868295 -0.96927 -0.045928225 -0.0069502066
0.034514207 -0.7344552 0.0584812 -0.57841444 -1.3350049 -1.454229 -0.6286794 -0.5658819
-1.1766315 -0.033942312 -0.43043226 0.083436064 0.25829986 -0.60424656 -0.35291457 -0.035725042
-0.020010967 -0.8635038 -0.78784585 -0.18985727

2.weight_mu f4 [100, 100]
00000000: 80b6 2801 cb12 18be f875 8ebc 0e6b 8dbe
00000010: 48ad 52bd b2d1 4ebe 2b76 11be ec5a 7bbd
00000020: 17ef 68bd 05b3 4dbd 08b3 5fbc a402 27be
00000030: b50c 323d 9e26 b5bd 97b8 8fbc 9df4 3b3b
00000040: 82e5 eebd 8631 2bbd a6b5 00be 9c30 4b81
00000050: 6d24 3d3d b035 0f3c d5c0 d4bd 2d11 a6bd
00000060: 7935 40be ca47 42be 9833 c6bc 9f01 43be
00000070: 548b 12be 2314 653c 28ea 333d 5ef4 1bbe
00000080: 70b2 a8bd ae1e 9ebd 3c17 92bd a3aa 0cbe
00000090: 19d5 8f3c e7b1 23be 9d00 50bd 1175 68bd
000000a0: 18d8 4081 2f98 0ebd 38b7 06bf e5fd 45be
000000b0: 2b79 37bd fc98 69bd f8b5 f0bd 14a0 b1bc
000000c0: bc13 f8bd 7cc5 b53b 3f9e d6bd e629 18be
000000d0: 5278 6abe 17b2 c6bd f7e0 58be 0155 98bc
000000e0: 1fe1 8bbe d17d 9dbe 4f09 d83d 2ca3 a9bd
000000f0: c9db a1be ba34 c5be bdb8 1abe 7a2d 0fbe
00000100: 3b35 dd3c 0b71 e4bc 5e42 f4be 6542 47be
00000110: 4664 9081 e8a0 14be 94ac 48be e8c7 9fbd
00000120: 26dc 53be e7d3 97bd 3ca6 6dbe 4f95 dcbe
00000130: aba1 a6bd 1e1f bebd 6152 e4bd b777 63bd
00000140: af42 aabe 464b a4ba 9efb 0dbd d498 e2bd
00000150: 4658 25bf 6a44 97be ab9b 6a3d d772 86bc
00000160: 4425 d7bd 62c3 43be 4812 babd 6ae5 3cbe
00000170: 4358 b6be 1c49 c43c b8ac 8200 61f5 b1bd
00000180: d767 4abe 90b5 bb81 48ef c4bd 8a1e 35be
00000190: a0a8 4181 a155 86bc 75e3 f83d 47ff bebe
000001a0: e55f e83d 6313 2abe 23da 28bd d338 c53d
000001b0: 3798 0b3d 920f 49bc 28e8 643d 88a9 86bd
000001c0: 0f45 a73d 9447 203e 0219 dc3d 508b 6abc
000001d0: 3edd 2bbe a720 813d c7ab fbbd daa8 cb01
000001e0: 98e7 c13c 04e0 723d fb82 67bc 0187 80bd
000001f0: d2eb 7dbe aedc 4fbe 9fba 9abd e2e0 abbd
00000200: 757d 89be 3d28 39be e074 13bc 3fce 31be
00000210: 2c0f 8bbe 5ac4 54be 4970 69be 5799 4fbe
00000220: d744 fa3c b1f8 d2bd d90f 45be e06b 713d
00000230: cce8 6f01 458f 9a3c 1e67 2bbf ad32 fbbd
00000240: fc75 943d ed70 24be b930 c6bd 8d57 3bbd
00000250: 8014 6fbe 245c 0cbe 0969 cfbd 08da 73be
00000260: 28a6 d4bd 6591 e3bd d05c d6bc 8290 5cbc
00000270: f454 87be 40af d9be 2cb1 79bd 3cbd 7b3d
00000280: d232 f0be 1b98 30be 21f0 21bd 4c7d 6bbe
00000290: 37dd bd3d 183f 383d ebe9 20bf 4b8a 86be
000002a0: 7442 2b81 044f 45be f4ae cabe 9245 92bd
000002b0: be25 c7bd e591 5ebe f658 d7be 6763 6ebf
000002c0: d302 433c bee6 8f3b c282 1dbd 9572 b5bd
000002d0: 8063 22be c038 68be e84f 97be 3586 26be
000002e0: 3d83 8abf 2a1c b4be 6ce9 ad3d 7f17 64be
000002f0: 76c0 023d 746b 47bd 35ae 4fbc 25b5 babd
00000300: daf8 1ebf 1f08 d43c 044a 0c81 decd 36be
00000310: 8deb 76bd 60ee 8e00 f8ab 59bd bcd8 00be
00000320: 58dc 1e01 c561 86bd b574 39bc 1b39 31be
00000330: d02d 72be 08b9 f0bd d01f 0dbe 22f9 21be
00000340: 6af9 a9bd 08a0 17be 00ba 30bd 433f 02be
00000350: 12dd 20be 00c3 35be 7958 b0bd a519 77bd
00000360: 9ea3 7cbd ae43 4fbd b497 25be 8cba 0a81
00000370: 1362 76be 3351 f4bc 2151 9c3c ef1f c3bd
00000380: 6a7f 5abe f306 15be 13b6 4ebe aeb2 30be
00000390: b1b0 8cbd 9c79 1ebe 53f1 593d 749d febd
000003a0: fcc3 39be a556 14bd 3943 07bc ecaf 60be
000003b0: 9f6a c3bd 2e40 debd e368 d7bd bd62 20be
000003c0: 70ef 7001 6371 12bd cde7 bbbe a354 87be
000003d0: 2e19 31be ba4a 14be 0bbe 26be c45d 0bbe
000003e0: cf6a 2abe 14b0 01be baff f4bc 211c 53bd
000003f0: 4767 f9bd 8471 38bd b410 33be a730 253d
3.0987664e-38 -0.14850919 -0.017390236 -0.2762074 -0.051434785 -0.2019718 -0.14205234 -0.061366007
-0.05686864 -0.050219554 -0.013653524 -0.16309601 0.04346915 -0.08845256 -0.017544074 0.0028679736
-0.11664869 -0.041795276 -0.12569293 -3.7320087e-38 0.046177316 0.008740827 -0.10388342 -0.08108745
-0.18770398 -0.18972698 -0.024194524 -0.19043587 -0.14310962 0.013981852 0.04392448 -0.15229937
-0.08237159 -0.077206954 -0.07133338 -0.13736968 0.017557668 -0.15985833 -0.050781835 -0.05675227
-3.541987e-38 -0.034813102 -0.5262332 -0.19335134 -0.04479329 -0.057030663 -0.11753458 -0.021682777
-0.12113139 0.0055472236 -0.10479402 -0.14859733 -0.22897461 -0.09701937 -0.21179567 -0.01859522
-0.2732019 -0.30760053 0.105486505 -0.08283076 -0.31612995 -0.3851679 -0.15109535 -0.13982192
0.027002921 -0.027885934 -0.47706884 -0.19458921 -5.304113e-38 -0.14514506 -0.19597083 -0.07801801
-0.20689449 -0.07413464 -0.23207945 -0.43082663 -0.081363045 -0.09283279 -0.11148525 -0.05553409
-0.33254 -0.001253464 -0.03466379 -0.11064306 -0.6458782 -0.29544383 0.057277363 -0.016412182
-0.10505155 -0.19117501 -0.09085518 -0.1844689 -0.35614213 0.023960643 1.2000574e-38 -0.086893804
-0.19766174 -6.895348e-38 -0.09615952 -0.17687431 -3.5569484e-38 -0.016398253 0.12152759 -0.37304136
0.113464154 -0.16608958 -0.041223656 0.09629979 0.03408071 -0.012271779 0.055885464 -0.06575304
0.08167469 0.15652305 0.10746957 -0.014315441 -0.16783616 0.06305056 -0.12288623 7.4812713e-38
0.023670003 0.05929567 -0.014130349 -0.0627575 -0.2479699 -0.20299026 -0.075551264 -0.08392502
-0.2685353 -0.18081756 -0.009000033 -0.17363833 -0.27160013 -0.20778027 -0.2279674 -0.20273338
0.030550404 -0.1030134 -0.19244327 0.05894077 4.406439e-38 0.018867144 -0.6695422 -0.12265525
0.07249066 -0.16058703 -0.09677262 -0.04573779 -0.23347664 -0.13707024 -0.10127456 -0.23813641
-0.10383254 -0.11111716 -0.026167303 -0.013462188 -0.26432002 -0.42516518 -0.06095998 0.061459765
-0.46913773 -0.17245524 -0.039535645 -0.22997016 0.09270709 0.044982046 -0.6285693 -0.26277384
-3.1455417e-38 -0.19268423 -0.39586604 -0.07142176 -0.097239956 -0.21735342 -0.4206006 -0.93120426
0.011902529 0.0043915203 -0.03845478 -0.088597454 -0.15858269 -0.22677898 -0.2955315 -0.16262133
-1.0821301 -0.35177737 0.08491787 -0.22274588 0.031921826 -0.04868646 -0.012675812 -0.09116582
-0.6209847 0.025882779 -2.5767043e-38 -0.1785197 -0.060283232 1.3126153e-38 -0.053142518 -0.12582678
2.9178106e-38 -0.06561617 -0.011319329 -0.1730694 -0.23650289 -0.11754042 -0.13781667 -0.15817693
-0.08299525 -0.14807141 -0.043146133 -0.12719445 -0.15709332 -0.17750168 -0.08610625 -0.06032719
-0.061679475 -0.050601654 -0.16171151 -2.5480438e-38 -0.2406085 -0.029823875 0.019081654 -0.09527575
-0.21337667 -0.14553432 -0.20186643 -0.17255661 -0.06869639 -0.15476078 0.05320866 -0.124323756
-0.18141168 -0.036215443 -0.008255773 -0.21942109 -0.09541821 -0.10852085 -0.105180524 -0.15662666
4.4252826e-38 -0.035752665 -0.36700287 -0.2643176 -0.17294762 -0.14481631 -0.16283433 -0.13609987
-0.16642307 -0.12664825 -0.029907096 -0.051540498 -0.12177902 -0.045030132 -0.1748684 0.0403296

2.weight_log_sigma f4 [100, 100]
00000000: 0000 0000 f16e 12bd 3bd0 e63d 1444 b73d
00000010: a420 813d cd43 27be 9551 52be 297e 883d
00000020: b375 9bbc 18d2 173d a0c6 c43d 2f0c c5bd
00000030: 67b3 22bd a339 dc3a 6795 1abe 1887 e73d
00000040: a919 cebd 0580 e33d b17e 23be 0000 0000
00000050: cf04 283e e20f 033e 628c 34bd 968f cbbd
00000060: e7d8 4bbd e8d4 803c 44c4 43be a2c6 43be
00000070: 03dd 98bd ee60 aabc 3e71 1b3d e683 c13d
00000080: 3c10 0bbe ac9b 133e 602c c4bd fdc5 3f3d
00000090: 9035 12bd 29d7 9dbc 5401 863d 5f20 343d
000000a0: 0000 0000 4e51 fa3c ed82 573d 854f 933d
000000b0: 6dc1 7cbd 30f4 463d 67fa b63d 83b7 a6bd
000000c0: e028 0ebe 81e4 c4bc 5252 6dbd d6fe 9ebd
000000d0: 0162 b9bd faf4 cebd a3cf 8abd e5a0 7bba
000000e0: df1c cebd 019b dfbd 5d6f 02bc 6f8f 533b
000000f0: 9fa7 013d 8dfa 42bc 320c 413e 32a3 20be
00000100: 75eb 853d 6f05 443d 1493 02be f212 2e3d
00000110: 0000 0000 1fee 6dbd 1f5e 20be 562e 4bbd
00000120: 5eb2 37bd de36 90bc bcc3 8fbc 313a a9bd
00000130: e36b 3dbe e5c7 eebd d722 4cbe ddd5 c4bd
00000140: c283 8abd e5ca 08bb 9a39 cabd 6627 bbbd
00000150: 9eca dfbd a85f 98bc 7868 ae3c d85f 03be
00000160: a2ac 5ebe 9f19 d6bd e26a a3bc 9622 903d
00000170: 3cf5 adbe 7389 b43b 0000 0000 4791 ccbd
00000180: be2a 21bd 0000 0000 c785 09bd a359 be3d
00000190: 0000 0000 391c c5bd 5ab0 6d3e faac 60bd
000001a0: c74c b1bd 6517 523d d170 16bd f1d3 0fbe
000001b0: 81d0 11bd f716 b7bd f8a5 f7bd 8b6f 00bd
000001c0: ad1d 693b a73b d73d 6a9a 393e cde7 e83c
000001d0: 682b 82bc 1d32 60bd 8efe f53b 0000 0000
000001e0: b56e d6bc bbd7 8abc a1e1 bc3d 9c67 eb3d
000001f0: afe3 b9bd 5092 a1bd c8a9 c2bb c40f 8b3d
00000200: 1967 fdbc a973 90bd 89b9 e8bc 9e39 91bd
00000210: a440 4fbe 6971 1bbe 99d9 9dbd 8f39 293e
00000220: 592a a1be f3cf 8a3d 473b 0abe 8875 843d
00000230: 0000 0000 e29f 4b3e 68cd 883d 56d3 133e
00000240: 136f dcbd 243d 163e 8370 50bd f279 03bd
00000250: c307 bebd 175b 17be bcb0 09be 3dcd c63d
00000260: e6df 1fbe b339 7b3c 3db1 2b3e f82e 02ba
00000270: 55bd 00be 03ea bfbe a69f db3c 63cc b1bc
00000280: 9d15 4fbe 4210 69bd bad9 7bbe c5b8 cc3d
00000290: 75fb 9b3d 8ce8 c83c f47c 83be f27c bdbd
000002a0: 0000 0000 9c05 653d b50c 93be f570 d23c
000002b0: 9f8d 3dbd 1f08 133d 5611 e6be 0624 04bf
000002c0: db45 5ebd 09a0 8f3c 54eb 65be dd93 42be
000002d0: b09b c1be 1c40 39bd 969a 643d dd40 16be
000002e0: af6e b6be 7ee3 7dbc 4f9c 66be 8d28 76bd
000002f0: 9865 113e 7da8 3a3d 7ed4 1abe f0cc b33c
00000300: c046 d2be 0ebe 8dbc 0000 0000 76f5 f43b
00000310: b92f 2cbe 0000 0000 ea57 cd3d aa71 2c3c
00000320: 0000 0000 b11f 1f3e 9f68 e0bd 1d56 033e
00000330: f6c0 53be f982 e53c 04b7 13bd 1bd7 8bbd
00000340: 955a 633c e7c8 10bc 7acc 4ebd 74b2 b03d
00000350: c3c3 29be 4ea0 e1bc 31fb a53c bd9f e6bd
00000360: 8998 cb3c 1cb9 25be b634 b13c 0000 0000
00000370: 5266 1cbe 9e0b 91bd 1f78 fe3b 152c 543d
00000380: 931f 8a3c 1f9c fbbd 2286 2ebe bbbc af3c
00000390: ae0b 3ebe 5ebc 23bd 8437 45bc 8919 803b
000003a0: e271 ffbd cf2e ea3c 0f51 123d e19e 34be
000003b0: d4de 853d 9319 4abe b714 12bc 8aef 383e
000003c0: 0000 0000 897b 483d b32b 03be c2b4 89be
000003d0: ab10 e13d 4ba9 fbbc 72ec eebd 5f18 22be
000003e0: 23a0 3cbd 3fa6 243e 8658 c93b f02b 4f3d
000003f0: b583 793d 42ed 54bd 6382 3a3d a852 18bb
0.0 -0.035750333 0.112701856 0.08948532 0.06305054 -0.16334458 -0.20538934 0.06664688
-0.018977022 0.037065595 0.09608197 -0.096214645 -0.039721873 0.0016801845 -0.15096055 0.11305064
-0.10063488 0.11108402 -0.15966298 0.0 0.16408084 0.12799028 -0.044079192 -0.09939496
-0.0497674 0.015726522 -0.19117838 -0.19118741 -0.0746403 -0.020798173 0.037949793 0.09448986
-0.13580412 0.14414853 -0.09578776 0.046819676 -0.035695612 -0.019267635 0.06543222 0.043976184
0.0 0.030556347 0.052615095 0.071929015 -0.061707903 0.04857272 0.08934479 -0.08140471
-0.1388278 -0.02403474 -0.057939835 -0.0776345 -0.09051896 -0.10105319 -0.06777885 -0.0009598865
-0.100641005 -0.109182365 -0.007961121 0.0032281538 0.031653997 -0.011900556 0.18852308 -0.15687254
0.065390505 0.047856744 -0.12751418 0.042498536 0.0 -0.058088418 -0.15660904 -0.049604736
-0.04484784 -0.017604288 -0.017549388 -0.08263052 -0.18498187 -0.116592206 -0.19935165 -0.09611104
-0.06763412 -0.0020872888 -0.09874268 -0.09138374 -0.10927318 -0.0186003 0.021290049 -0.1282953
-0.21745542 -0.104541056 -0.019948427 0.07037847 -0.3397616 0.0055095493 0.0 -0.09988647
-0.039347403 0.0 -0.033574846 0.092944406 0.0 -0.09624524 0.23211804 -0.054852463
-0.08657222 0.051291842 -0.036728684 -0.14045693 -0.035599235 -0.08939927 -0.12092203 -0.031356376
0.0035570667 0.10509425 0.1812531 0.028430844 -0.015889838 -0.05473529 0.007507152 0.0
-0.026175836 -0.016948571 0.09222723 0.11494371 -0.0907663 -0.07889235 -0.0059406497 0.067901164
-0.03093295 -0.070533104 -0.028408783 -0.07091068 -0.20239502 -0.15179981 -0.07707519 0.16525863
-0.3147762 0.067779444 -0.13499175 0.0646773 0.0 0.19885209 0.06679803 0.14436087
-0.10763373 0.14671761 -0.05088855 -0.032098718 -0.09278824 -0.14780842 -0.13446325 0.09707115
-0.15612754 0.015333581 0.1676683 -0.00049661053 -0.12572224 -0.37483224 0.026809525 -0.021703904
-0.20223089 -0.05690027 -0.24594775 0.099961795 0.07616321 0.02452495 -0.2568127 -0.09252347
0.0 0.055913553 -0.28720632 0.025688628 -0.04627764 0.035896417 -0.449351 -0.5161747
-0.054265838 0.017532365 -0.22453052 -0.19001718 -0.37814093 -0.045227155 0.055811487 -0.14673181
-0.3563132 -0.015496133 -0.22520564 -0.060097266 0.14198911 0.04557084 -0.15120122 0.021948308
-0.41069603 -0.01730254 0.0 0.0074755503 -0.1681508 0.0 0.10026534 0.0105251465
0.0 0.15539433 -0.10957455 0.12825818 -0.20679078 0.028016554 -0.03606321 -0.068281375
0.013876577 -0.008836961 -0.050487973 0.08627787 -0.16578583 -0.02754226 0.020261379 -0.112609364
0.024853008 -0.16183895 0.02163158 0.0 -0.15273407 -0.07082294 0.0077657844 0.051799852
0.016860759 -0.12285637 -0.17043355 0.021452298 -0.18559143 -0.039974563 -0.012037162 0.003909294
-0.12472893 0.028586773 0.035721835 -0.17638732 0.06536642 -0.19736318 -0.008916072 0.18060127
0.0 0.048945937 -0.12809639 -0.2689572 0.10989507 -0.030720374 -0.11666192 -0.1582961
-0.046051156 0.16079043 0.006144586 0.05057901 0.06091662 -0.05198408 0.045534503 -0.0023242626

2.bias_mu f4 [100]
00000000: bea4 f5be bf5c 25bf da01 d7be 854a 7dbf
00000010: 5ac1 79be 0e6d 3dbf 5c88 bebe 7d3b e7be
00000020: 2616 fbbe dbfc 25bf e204 16bf 38ba fabe
00000030: 83a9 15bf 7c51 29bf 19bb 11bf 0ed9 b0be
00000040: 47e0 0abf d6f5 cebe 8d49 c2be 27c9 16bf
00000050: 8040 cbbe acf4 38bf dcb8 56bf 6eab ddbe
00000060: bac2 c5be c520 d4be a482 08bf abaf 23bf
00000070: cb7c 18bf 60e0 fdbe a10a b9be 5a4c 40bf
00000080: ecf3 1540 be3b f8be 1ac3 afbe 1f63 42bf
00000090: 07bd 0bbf d7d2 16bf 89e5 bcbe 1463 66bf
000000a0: cffc 1bbf 47f7 07bf 5060 00bf d441 fdbe
000000b0: f4e1 54bf 7317 77be b805 4cbf ccea cebe
000000c0: c741 2abf 45d3 03bf 4b4d 41bf dbe2 09bf
000000d0: 3863 9bbe 5d4f 34bf 0bdb 03bf c92e 1fbf
000000e0: a579 3bbf 245c 18bf 3212 51bf 910e 08bf
000000f0: 08ee f5be 9687 3abf 1b20 06bf 176d 19bf
00000100: ab76 1ebf 76f7 a3be 3f4c e2be 957b 23be
00000110: e5e8 b4be 68f1 febe c8c0 0ebf 3f16 21bf
00000120: 88ff c7be 4cd7 e2be 9052 9d3e 01b2 8fbf
00000130: f9a4 2bbf dbaf 0abf 573a 0bbf 07d9 48bf
00000140: 090f 15bf 77e8 d8be 7279 0fbf 1d33 adbe
00000150: c2eb 00bf 9bc3 34bf fe1d 1dbf 71de 28bf
00000160: ff24 8cbe cca0 07bf 9ede 1fbf 667e 5dbe
00000170: 9dd6 10bf e341 d9be e482 12c0 fea8 39bf
00000180: 37d3 07bf cd0d 4cbf ddea e8be 3a23 0f3d
-0.4797725 -0.64594644 -0.419936 -0.9894183 -0.24390164 -0.7399453 -0.3721341 -0.45162573
-0.49040335 -0.6483895 -0.586012 -0.489702 -0.5846178 -0.6613996 -0.56926113 -0.345406
-0.5424847 -0.40421933 -0.3794674 -0.58900684 -0.39697647 -0.7224834 -0.83875823 -0.43294853
-0.38625127 -0.4143125 -0.5332434 -0.63939923 -0.5956542 -0.49585247 -0.36140922 -0.75116503
2.3430128 -0.4848308 -0.34328538 -0.75932497 -0.5458531 -0.58915466 -0.3689387 -0.8999493
-0.6093263 -0.5311169 -0.5014696 -0.49464285 -0.8315728 -0.24130039 -0.79696226 -0.4041351
-0.6650662 -0.51494247 -0.75508565 -0.5386178 -0.30349135 -0.704336 -0.5150611 -0.62180763
-0.7323249 -0.59515595 -0.8166839 -0.53147227 -0.48033166 -0.7286314 -0.5239274 -0.5993208
-0.6189982 -0.32024735 -0.44198796 -0.15965112 -0.35333934 -0.49793553 -0.5576291 -0.6292457
-0.39062142 -0.44304883 0.30727053 -1.1226197 -0.67048603 -0.54174584 -0.54385895 -0.7845616
-0.58226067 -0.42364857 -0.56044686 -0.3382806 -0.5035974 -0.7061097 -0.6137389 -0.6596442
-0.27371976 -0.5297973 -0.6244906 -0.21630248 -0.56577474 -0.4243308 -2.289239 -0.72523487
-0.53056663 -0.7970856 -0.45491686 0.034945704

2.bias_log_sigma f4 [100]
00000000: 364c 7abe 41bb d0be 93d6 19be 8278 a5be
00000010: c788 1dbf bd70 14bf a4da 25be 6810 28be
00000020: ef58 3dbf 145e 0dbf f6a2 b4be 43cb d0be
00000030: 39b5 c5be d015 b3be 8855 f0be a96e aebe
00000040: 4afe 14bd e961 7cbe 0d82 8fbf 8089 053d
00000050: f7f5 71be aa1e 09bf aa9e 2dbf 9e17 febe
00000060: 9fde 11be d2f3 68be 8fbb 04be 806b 2cbd
00000070: 6517 e6be ba4f 97be c58d ddbe 3362 a1be
00000080: 869a 0cc0 6d09 cdbe 97e6 b6be e19b 35bf
00000090: 9abc f7be 797c 8bbe 3631 93be 5177 3bbf
000000a0: c027 dcbe 7857 e7be 1d9d 91be ccab a4be
000000b0: 018a 38bf 0fb5 2ebf e534 00bf bafa d9be
000000c0: 93c0 0cbe 2922 12bf 1a49 a6be d2c5 a5be
000000d0: 0200 2fbf fc03 04bf 9ec9 7dbe 5754 7ebe
000000e0: 7366 09be c0bd bebe 5d42 4dbe 3afd 56be
000000f0: ad7b 95be 6108 aebe f665 20be ff50 0dbf
00000100: 0351 07be fb3a c1be 3c33 32bf 92e3 b9be
00000110: e890 95bf be8f 0bbf 66bf 3cbf 0690 48bc
00000120: bf89 c3be 0f47 08bf 7fa6 39c0 81b5 1ebf
00000130: ba6f 7fbe 7d81 f3be 64db e7be ffce 3fbf
00000140: bcaa f5be 11cc 0cbf e2e1 f9be 3215 cebe
00000150: ff5e e2be 295e 47be a27e e1bd 3df5 e3bd
00000160: b828 14be 92f5 d0be 0c39 a9bf f7e9 a4bf
00000170: 70d4 7abe 4329 673c c4b8 d8bf 9bea 16bf
00000180: 29ca 86bd bc76 4dbf 6b24 68be bcca ddbf
-0.24443135 -0.40767863 -0.1502326 -0.32318503 -0.6153683 -0.57984525 -0.16196686 -0.16412508
-0.73963827 -0.55221677 -0.3528058 -0.40780076 -0.38614824 -0.3497758 -0.46940255 -0.34068802
-0.03637532 -0.24646725 -1.1211563 0.032601833 -0.23628984 -0.53562415 -0.6782023 -0.49627393
-0.1424508 -0.2274926 -0.12962173 -0.042094707 -0.44939724 -0.29553014 -0.43272224 -0.31520233
-2.1969314 -0.40046254 -0.357228 -0.7094098 -0.4838608 -0.27243403 -0.28748482 -0.7322894
-0.42999077 -0.4518392 -0.2844018 -0.3216232 -0.7208558 -0.68245023 -0.5008071 -0.42574102
-0.13745336 -0.57083374 -0.32477647 -0.32377487 -0.68359387 -0.5156858 -0.24783942 -0.2483686
-0.13417988 -0.37254143 -0.20044847 -0.20995036 -0.2919592 -0.33990768 -0.15663895 -0.55201715
-0.13214497 -0.3774031 -0.6960943 -0.36306435 -1.1684847 -0.5451621 -0.7372955 -0.012241369
-0.3819103 -0.53233427 -2.900787 -0.61995703 -0.24944964 -0.4755973 -0.4528457 -0.74925226
-0.47981822 -0.5499888 -0.48805147 -0.40250546 -0.442131 -0.19469513 -0.110104814 -0.1113076
-0.14468658 -0.40812355 -1.3220534 -1.28839 -0.24495101 0.014108959 -1.6931386 -0.5895173
-0.06581528 -0.802593 -0.22670142 -1.7327495

4.weight f4 [1, 100]
00000000: cc3c b53b 28c6 733c 8c2a b73a bb6e 3d3b
00000010: de80 d43c 925b 52bc f941 2b3c ba5b b1bb
00000020: e009 333a d1c4 cb3c 91f0 bb3c 38cf ad3c
00000030: ac73 e2bb f8af 1abb b562 23bc 1253 a13a
00000040: 3e95 cd3a 290d e5bb c8e7 243d cc25 103c
00000050: 5093 d13b f6a7 2b3b 5337 98bb dd97 2cbc
00000060: e798 adbb 28e6 593c 83a8 cf3c 1f7f 1dbb
00000070: 45ea 3639 e3b2 653b b1d1 073c 0487 243c
00000080: 5cba 46be b396 bc3b b9a0 dd3c be28 c23c
00000090: 1543 8cba 30fa 43bc 668e 523b 2f94 ab3c
000000a0: 59c1 ee3c e999 d5bb 950f 533c c4b7 63bc
000000b0: e77f 283c a607 063d a361 623c cd2d 79bb
000000c0: 1510 db3b 99ca fb3c bcde ad3b 990b 563c
000000d0: 5997 c13b 1530 fd3b eb27 b53c 4cf5 973b
000000e0: a9fc be3c 3420 513c cbc0 2a3d 6fb6 143c
000000f0: 0c06 823c 5593 593c 3754 063b 86b5 043d
00000100: ebf1 f5b9 8609 7eba 7796 a23c f666 adbb
00000110: 7ae4 713d 3078 c63c 6677 f93c 8b64 263c
00000120: dcfb b03b 4e28 da3c fe4c 633e e690 2fbc
00000130: 0923 ddba 0e9d 2e3c e89b 023d a53f 1a3c
00000140: 4a73 1fba ca2b b33b b769 c13c 9581 93ba
00000150: defa bb3b 23af 6bba 3617 b23c 2bb2 fc3b
00000160: ed02 8c3c fa14 473c 61ef 933b 5f26 813d
00000170: b566 3cbb 1c8d af3b 29f7 17be 8268 8f3c
00000180: fd3e 333b a2ae 053c 6c24 b13c 5efb 213e
0.005530929 0.014878787 0.0013974472 0.0028905112 0.025940355 -0.012839215 0.010452741 -0.005412546
0.00068297796 0.024874123 0.02294186 0.021216974 -0.006910762 -0.002360342 -0.009972264 0.0012308082
0.0015684736 -0.006990094 0.040260106 0.008798074 0.006395735 0.0026192642 -0.004645267 -0.010534254
-0.0052977684 0.013299502 0.025348907 -0.002403207 0.00017444145 0.0035049252 0.00828974 0.010041956
-0.19407028 0.0057552694 0.027054178 0.023701068 -0.0010701144 -0.011961505 0.0032128333 0.020944683
0.02914493 -0.0065185917 0.012882133 -0.013898794 0.010284401 0.032722138 0.013817224 -0.0038021684
0.0066852667 0.030736255 0.005306093 0.0130642885 0.0059079346 0.007726679 0.022113761 0.004637396
0.023313837 0.0127640255 0.041687768 0.009076699 0.015872024 0.013279756 0.0020496973 0.032399677
-0.00046910284 -0.000969075 0.019847138 -0.005291815 0.059055783 0.024227232 0.030452441 0.010155807
0.0054011177 0.026630547 0.22197339 -0.010715699 -0.0016871403 0.010657562 0.031886965 0.009414588
-0.0006082548 0.0054678665 0.02360998 -0.0011253828 0.005736693 -0.0008990636 0.021739583 0.007711669
0.017091239 0.012150997 0.00451462 0.06306147 -0.0028747742 0.0053573977 -0.14840378 0.017505888
0.0027350776 0.0081593115 0.021623813 0.15818545
