code/storage/vi_bnn--problem_A--weights.pth (torch, 85412 bytes, 7 tensors)

0.weight f4 [100, 1]
000000 e6 06 e9 be 92 2f f7 be ef 91 a9 3e e8 4f 40 3f
       -0.45513076 -0.4827848 0.3311915 0.7512193
000010 89 37 8c 3d 91 7e e2 be 66 da dc be 17 7c 4a bb
       0.0684653 -0.44237188 -0.43135375 -0.0030896717
000020 ba ab fb 3a 7d 2d c8 3e 33 45 8d be 00 28 2e 3a
       0.0019200959 0.39097205 -0.27591857 0.00066435337
000030 4d 59 b1 bd f9 56 42 bb 84 51 18 3d 20 b3 d2 bb
       -0.08659611 -0.002965389 0.037187114 -0.006430045
000040 38 85 4b bf aa ba 77 be 64 fb e3 3e a5 02 d7 3d
       -0.7950015 -0.241923 0.44527733 0.10498551
000050 af f3 1b be f3 93 02 3d df 60 b2 3b d8 d8 2d 3d
       -0.15229677 0.031879377 0.005443677 0.042443126
000060 50 7a 0b bf 79 b9 99 3e 24 10 4a 3f 29 72 64 3e
       -0.5448351 0.30024317 0.7893088 0.22309174
000070 f5 9e 38 3e 56 a2 6a 3d 18 dd fa 3b a0 d2 3a 3f
       0.18029387 0.057283722 0.007655751 0.7297764
000080 f8 7f 0d 3e de 68 f2 3d ab 31 0b bf 3b f5 16 3c
       0.13818347 0.11836408 -0.5437266 0.009213741
000090 2f 86 f3 bd 5f 3d 70 3d 78 19 27 3e fc 04 4c bf
       -0.11890828 0.058652278 0.1631831 -0.79695106
0000a0 a5 16 09 3f 01 af f1 3b b7 b8 1f 3d 14 f2 1e be
       0.5355018 0.0073755984 0.038994517 -0.15522033
0000b0 37 a2 ac 3d c8 30 e3 3c 38 e9 be 3d c7 0b 7d 3d
       0.084293775 0.027733222 0.09321827 0.06177881
0000c0 8b 98 96 3d 1f ce 2f 3f 59 b3 38 3e f0 e0 0a 3e
       0.07353314 0.6867389 0.18037166 0.1356237
0000d0 3d 0a ba 3e 6a de 0a bd f8 c0 69 bf e9 8f a6 3e
       0.36335936 -0.033903517 -0.9131007 0.3253167
0000e0 6b 03 26 3f 20 4b a6 bd 29 0b 11 3e 5f 53 35 3f
       0.64848965 -0.08119798 0.14164414 0.7083034
0000f0 05 e3 57 bc 68 dc 14 3e 2d 3b 33 be ea 6c a5 be
       -0.013176684 0.14537203 -0.17503043 -0.32309657
000100 f1 9c b1 3c e1 c1 e7 bd 6e 4e a6 3e 2e f0 de 3d
       0.02168128 -0.11316276 0.32481712 0.108856544
000110 17 2a 4c 3d 9e a5 3d b7 43 e9 43 3e 4a 8c 59 be
       0.049844828 -1.1303839e-05 0.19131951 -0.21244922
000120 e1 f6 c1 3e aa ad b1 bd 07 11 0d 3e 59 34 8f be
       0.37883666 -0.08675702 0.13776027 -0.27969626
000130 a0 03 31 3d 17 4a 98 3e 78 40 d8 bb e0 3b 99 3d
       0.043216348 0.29744026 -0.006599482 0.074821234
000140 17 15 c2 3e b1 fb 4f bd 41 c7 0f 3c 93 95 71 3d
       0.37906715 -0.05077714 0.008775533 0.058980536
000150 2f 66 c9 bd 24 70 38 bf c2 98 ab 3b 09 52 56 be
       -0.09833943 -0.72046113 0.005236716 -0.20929731
000160 55 c8 e7 3d 90 fc a6 bd b5 43 d1 3e 79 63 c1 3e
       0.11317507 -0.08153641 0.4087197 0.37771204
000170 1d c2 38 bd d8 af 17 3f 83 6f e5 3e 9d 97 9c 3e
       -0.045106996 0.5925269 0.4481164 0.30584422
000180 17 8b 3a be 8b b3 af 3d ed ae 80 3e d1 b5 66 3e
       -0.18217121 0.08579167 0.25133458 0.22530295

0.bias f4 [100]
000000 cd 61 85 bf 3d 41 16 bf 4b 72 4b bf 48 8c 85 bf
       -1.0420471 -0.58693296 -0.7947127 -1.0433435
000010 c1 22 5f be 07 ca 81 bf 5f 49 87 bf ec 5c 32 bd
       -0.21790601 -1.0139779 -1.0569266 -0.04354565
000020 7a a6 08 be 38 c5 f8 be 6e 4c b0 be b0 04 91 be
       -0.13344756 -0.48587966 -0.3443331 -0.2832389
000030 6d e7 4c 3e 08 69 c5 bc 3f f4 03 3e c1 3f f4 bc
       0.20010157 -0.024097934 0.12886141 -0.029815556
000040 19 f0 e0 bf 86 33 3c 3d 33 c5 24 bf db 54 78 3e
       -1.7573272 0.045947574 -0.643634 0.2425112
000050 70 2b c1 bb 96 c8 80 3e 23 a5 20 bd 39 6d 7d 3d
       -0.0058950707 0.25153035 -0.039219987 0.06187174
000060 56 e2 2e bf 5e ab 63 bf 19 47 1a bf 2a 04 a3 be
       -0.6831411 -0.8893336 -0.60264736 -0.31839114
000070 14 f8 09 bf 7d 86 3d 3d 14 0c 84 bd cb e8 84 bf
       -0.5389416 0.046270836 -0.06447616 -1.0383543
000080 57 d2 88 3e 3d 23 64 3e 2b e5 40 bf a4 53 50 3e
       0.26722977 0.22279067 -0.7534968 0.20344406
000090 bb 41 00 bc ea fd bb 3d b0 eb f6 be bb 42 e1 bf
       -0.007828171 0.0917929 -0.4822669 -1.759849
0000a0 e1 98 03 bf 78 b2 3a bd 37 22 97 3d f0 ba c0 3e
       -0.5140515 -0.045580357 0.07379573 0.37642622
0000b0 76 ea 90 be 5e 48 74 3d e2 8d dd 3d a6 6f 8b 3c
       -0.2830388 0.059639327 0.108180776 0.017021012
0000c0 cc 3a 73 3e 15 38 76 bf 0e bd 87 be 0c 2d a5 3e
       0.23752898 -0.96179324 -0.26511425 0.3226093
0000d0 a4 ef 17 bf 81 4b d5 bd 03 a2 8f 3e de d5 1c bf
       -0.5935004 -0.10414792 0.28053293 -0.61263835
0000e0 13 fc 64 bf 64 22 87 be b8 4f 4d be 68 e9 0b bf
       -0.89447135 -0.26393425 -0.20049942 -0.54653025
0000f0 3c ff 9b bd 30 4d 7a bf 93 32 10 3d 4d 39 76 bf
       -0.076170415 -0.9777403 0.03520448 -0.96181184
000100 ae 21 17 bd 84 93 8f 3e 21 e0 2f bf a5 a6 f0 3c
       -0.036897354 0.28042233 -0.6870137 0.029376337
000110 38 6d dd 3d 62 ed c7 bc 43 88 11 bf 6b fa 47 3d
       0.108118474 -0.024405185 -0.56848544 0.0488228
000120 f0 86 2f bf 42 f3 18 bd 7c 14 dc be 40 d7 c9 b8
       -0.68565273 -0.037341364 -0.42984378 -9.62452e-05
000130 b2 12 2a bf d0 06 f2 be d2 3d f0 bc c2 b2 65 bf
       -0.66434777 -0.47270823 -0.029326353 -0.8972589
000140 d3 cd 3f bf e0 82 84 bd ef 7e 1c bd 80 8c 10 3e
       -0.7492344 -0.06470275 -0.03820699 0.14116096
000150 fc b9 39 bc 63 8f c0 bf d4 e9 30 3e 9c 68 ba bb
       -0.011335846 -1.5043758 0.17276698 -0.00568874
000160 57 c3 fb 3c c0 40 c6 be b7 e1 33 bf 7c d8 1c bf
       0.030732794 -0.38721275 -0.7026629 -0.6126783
000170 fd 1b 0a 3d 19 2b 54 bf 0a c0 28 bf 62 c3 f1 be
       0.033718098 -0.8287826 -0.6591803 -0.47219378
000180 a0 10 46 bc e4 68 34 bd d0 53 04 bf a9 1a 24 be
       -0.012088925 -0.044045344 -0.5169039 -0.16025795

2.weight_mu f4 [100, 100]
000000 00 31 6e bd 0d 24 8f be ea bf c3 bf 3f 92 56 c0
       -0.0581522 -0.27957192 -1.5292943 -3.3526762
000010 ea 7a 69 bf 13 9a 30 be 7e 6e 8c be 09 a0 9a bf
       -0.91203177 -0.17246275 -0.2742805 -1.2080089
000020 17 fa 6f bc bf d6 6d bf 90 2c 87 bf ec b0 3b 81
       -0.014647028 -0.929058 -1.0560474 -3.447341e-38
000030 51 8b a3 3f 53 c3 9a 3f f0 62 b0 3f e3 96 7f 3f
       1.2776891 1.2090858 1.3780193 0.9983961
000040 8f 49 f1 bd 94 61 05 c0 f0 2d 96 bf 0e f1 c7 3f
       -0.11781608 -2.0840807 -1.1732769 1.5620439
000050 1d 60 ce bf 38 30 cb 3f 99 f1 b4 bf 36 43 92 3f
       -1.6123081 1.587409 -1.413623 1.1426761
000060 60 70 8b be 84 63 5d bd 49 79 1a c0 de 0d 62 bf
       -0.27234173 -0.054049984 -2.4136527 -0.8830241
000070 9f 8c 51 bf 00 57 9b 3f ee 41 2d 3f 7f a8 7b c0
       -0.81855196 1.2135925 0.67678726 -3.9321592
000080 f2 73 ca 3f 42 4f be 3f 01 23 09 bf 63 eb b2 3f
       1.5816634 1.4867938 -0.53569037 1.3978084
000090 c1 a1 a8 bf 9f 48 b9 3f d4 6f 67 01 8d 0e 04 be
       -1.3174363 1.4475287 4.2508232e-38 -0.12896176
0000a0 a4 01 8d bf b7 a7 87 bf 26 b7 aa 3f cd b3 b0 3f
       -1.1016126 -1.0598058 1.3337142 1.3804871
0000b0 3a cb 20 be 94 f6 45 3f ad b6 91 3f 9c 74 5f 3f
       -0.15702525 0.77329373 1.1383873 0.87287307
0000c0 dc 4f e1 3f 10 6a 46 c0 33 02 ca 3d 64 c2 dd 3f
       1.7602496 -3.1002235 0.09863701 1.7324948
0000d0 bb be 01 c0 76 30 0b 3c 0c 7d 80 c0 00 d7 88 bf
       -2.0272663 0.008495441 -4.0152645 -1.0690613
0000e0 ba 44 13 c0 f0 5a 66 00 76 12 2d be c7 78 23 c0
       -2.3010697 9.399843e-39 -0.16901574 -2.5542467
0000f0 f7 36 ac bf f0 f1 7c 00 2c f8 bf bf bd bc 86 bc
       -1.3454274 1.1474392e-38 -1.4997611 -0.01644742
000100 5e 62 8a 3f 1f 5c a9 3f cc a1 43 bf 8f 99 92 3f
       1.0811269 1.3231238 -0.7641876 1.1453112
000110 a1 9d 8b 3f 6a a3 94 3f 23 ed b7 bd 48 91 34 bf
       1.090748 1.161237 -0.08980777 -0.7053418
000120 c1 f1 98 bf 85 90 8c bf 11 64 9d bf 5f 70 df bf
       -1.1948777 -1.0981604 -1.2296163 -1.7456168
000130 a4 04 1d 81 40 1f 43 bf 83 32 17 3f 20 af 5f 00
       -2.8839675e-38 -0.7621956 0.5906145 8.787195e-39
000140 b2 39 5e bf 38 1e af bf 29 f8 65 3f a3 a7 a8 3f
       -0.86806786 -1.3681097 0.8983179 1.3176159
000150 6d 2f c1 bf 99 55 1e be e3 9a 8a 3f 0b e9 ef bf
       -1.5092598 -0.1546234 1.0828518 -1.8742994
000160 e0 1c 69 3f 04 54 56 81 f1 7e ed bf 5a 50 14 c0
       0.91059685 -3.936587e-38 -1.8554364 -2.3174043
000170 34 de 9a 3f 2f 11 4e c0 36 88 2f c0 b0 9e aa bf
       1.2099061 -3.2197988 -2.7426887 -1.3329678
000180 cb b5 07 c0 f4 ad 4d 3f a5 51 61 bf 6f 09 7a bf
       -2.1204708 0.80343556 -0.88015205 -0.97670645
000190 67 53 2d c0 d0 5a bd 3e 31 5d b4 bd 20 e5 81 be
       -2.7082155 0.36983347 -0.08806837 -0.2537012
0001a0 f9 e4 0d be 46 4c 62 bf c9 ed 62 bf 61 41 1d 3c
       -0.13856877 -0.88397634 -0.8864408 0.009598107
0001b0 ed 9b eb 39 e0 b0 f4 bd d3 e2 66 3e ce 85 89 81
       0.00044938867 -0.11947799 0.22547464 -5.051785e-38
0001c0 48 c1 26 be 0e 6c 51 be 11 40 ae be ba 2d a1 be
       -0.16284668 -0.20451376 -0.34033254 -0.314802
0001d0 b6 71 23 c0 9a 87 c2 3e c2 d8 23 be 8e f6 0d bf
       -2.5538154 0.3799408 -0.16000655 -0.5545434
0001e0 f6 41 86 3e 66 78 e8 be 41 30 b2 3d 77 c7 ab be
       0.262222 -0.45404357 0.0870061 -0.33550617
0001f0 bf fe ec 3e 61 64 62 bd 70 64 2d bf 5f b3 b5 be
       0.46288106 -0.05527151 -0.6773138 -0.35488412
000200 5d 60 c9 bd 79 e8 69 be d4 2d 40 be 88 1b 88 be
       -0.09832833 -0.22842588 -0.18767482 -0.26583505
000210 82 0b f8 be 72 6b e8 be 22 16 08 3f 26 f8 9c be
       -0.4844628 -0.45394474 0.5315877 -0.30658072
000220 91 9c 59 3e 4d 9b f2 be d4 aa 11 01 fe c8 43 c0
       0.21251132 -0.4738411 2.6754857e-38 -3.0591426
000230 b2 da d7 be f5 67 ca 3d 1f c0 d5 be 52 ea 02 be
       -0.4215904 0.098831095 -0.4174814 -0.12784699
000240 c0 29 2b be fb 16 01 be 0b d1 a4 be 9a eb 85 be
       -0.16715145 -0.12606423 -0.32190737 -0.26156312
000250 10 5f 19 bf 8b ba 96 be 10 92 5c be ef 5b 2b bf
       -0.5991068 -0.29439196 -0.21540093 -0.66937155
000260 e9 6d 56 be a4 bc 73 3c 51 87 2c 3f 0d 15 9a bd
       -0.20940365 0.014876518 0.67393976 -0.07523546
000270 95 5f 69 be b8 a0 7e 01 89 7e 5d be cd f1 0a bf
       -0.22790368 4.6767742e-38 -0.216303 -0.5427521
000280 2c 67 84 3d 6c c6 33 01 ed 12 6a 3e c3 b9 04 ba
       0.06464991 3.3019468e-38 0.22858782 -0.0005063081
000290 93 0d a1 be 1d 50 76 bd 37 90 44 be 13 11 9f be
       -0.3145567 -0.060134996 -0.19195639 -0.31067714
0002a0 d3 b0 c5 be a9 ea 4e be a2 7a 4b be 04 8f 55 3e
       -0.3861147 -0.20206703 -0.19871 0.20855337
0002b0 49 bf 27 be 9b 4c 89 3e 9f 69 0d be b6 f2 b4 3e
       -0.16381563 0.26816258 -0.13809822 0.35341424
0002c0 40 de 17 80 2e 6c bf bd f4 df e1 bd b0 4c 4f 00
       -2.191945e-39 -0.093468055 -0.11029044 7.282514e-39
0002d0 fe c0 78 be 16 7c 37 3e 7a bd 90 be 7f 97 00 bf
       -0.2429237 0.17918429 -0.2826956 -0.50231165
0002e0 b9 82 51 3e ea 73 fe bf a8 7c 39 bd 80 d7 da 3e
       0.20460023 -1.9879124 -0.045284897 0.42742538
0002f0 9e 4d 77 be f8 63 3f 01 84 a6 68 be fd 9a c1 be
       -0.24150702 3.5152884e-38 -0.2271977 -0.3781356
000300 01 e0 ac be f6 c8 8a be cb cd 86 be 6d e9 2d be
       -0.3376465 -0.27106446 -0.26328883 -0.16983576
000310 34 a4 f1 3e 80 f8 55 be 39 b1 2b be ce bc ba be
       0.4719559 -0.20895576 -0.16766824 -0.36472172
000320 5e 53 a8 bd d7 c8 e8 bd b9 26 7d be 47 a9 91 be
       -0.08219026 -0.11366432 -0.24721803 -0.2844946
000330 a1 a1 f3 bd bd da 40 be b4 71 e8 bd ee 8a 13 be
       -0.11896063 -0.18833442 -0.11349812 -0.14408466
000340 82 3c 55 bb f7 7a 77 be da ac 36 be 82 19 9a 81
       -0.0032537286 -0.24168001 -0.17839375 -5.660727e-38
000350 11 9a e1 bd ce 24 fb bd 65 00 cf bc 83 2a d0 bd
       -0.11015714 -0.12262879 -0.025268743 -0.101643585
000360 22 42 59 be fe e6 9f be 53 1d 1a be 47 e9 53 be
       -0.21216634 -0.3123092 -0.15050249 -0.20694457
000370 1a dd 7d be 1f 9e dd bd fe 5d 59 be d7 05 33 3d
       -0.24791375 -0.10821175 -0.21227261 0.04370674
000380 b0 8c 46 be b5 4e 60 bd 24 5a 86 bf 6c db 2e be
       -0.19389606 -0.05476256 -1.0496259 -0.1707589
000390 1a 41 82 be 22 3e 70 bd 0c 11 db bd 3b 43 b4 be
       -0.25440294 -0.058653004 -0.10696611 -0.35207543
0003a0 69 f5 21 3c 25 de 3a be 56 be 69 be ed 78 83 be
       0.0098851705 -0.18248804 -0.22826514 -0.25678197
0003b0 64 9e 8d be 96 6a 0e bc da 17 89 81 50 06 ec bd
       -0.27659905 -0.008692404 -5.036008e-38 -0.115246415
0003c0 92 e1 b4 be 72 6d 9e be 03 3c cd bd a4 5e 48 be
       -0.35328346 -0.30942875 -0.10021212 -0.19567353
0003d0 04 9a d7 bd ff 9c 9b be 39 60 17 be 54 f3 41 bd
       -0.10527423 -0.30393216 -0.147828 -0.047351196
0003e0 d5 88 dc bd a6 6c 80 be 48 c4 9e bd bf f1 91 bd
       -0.10768286 -0.25082892 -0.077522814 -0.071261875
0003f0 69 d9 92 be 6e af 18 3d 01 72 b6 bf b1 4a f1 bd
       -0.28681496 0.037276678 -1.4253541 -0.117818244

2.weight_log_sigma f4 [100, 100]
000000 2c dc fe ba 40 6b db bd c9 b8 c7 be e1 94 2b bf
       -0.0019444278 -0.10713816 -0.39008167 -0.67024046
000010 99 52 d0 be c1 1b 33 bd d2 c1 c4 bd f4 83 bd bf
       -0.40688017 -0.04372764 -0.09607281 -1.4805894
000020 2f 0d 24 bc c6 da 04 bf 56 b3 51 be 00 00 00 00
       -0.010012909 -0.5189632 -0.20478567 0.0
000030 b9 ca 0a c0 e0 69 b6 bf ce 09 f0 bf 23 80 b2 bf
       -2.1686232 -1.425106 -1.8752992 -1.3945354
000040 6d 38 05 be 72 f3 d6 bf da 2f f9 be 87 91 03 c0
       -0.13009806 -1.6793044 -0.4866932 -2.0557573
000050 cd b9 ce bf 96 9f 14 c0 ee 07 e4 bf 47 54 de bf
       -1.6150452 -2.3222404 -1.781492 -1.736947
000060 f5 95 6c bd 9a 5f 7c bc 21 5d 00 c0 61 a6 b2 bf
       -0.057760198 -0.015403653 -2.0056841 -1.3957025
000070 56 54 82 be eb b3 a2 bf 5c 1e a8 bf dd f9 0f bf
       -0.25454968 -1.2711157 -1.3134265 -0.56240636
000080 56 84 0a c0 62 44 14 c0 1d 27 b5 bd 45 db 1a c0
       -2.1643271 -2.3166738 -0.08845351 -2.4196332
000090 f0 ec b5 bf ab 75 04 c0 00 00 00 00 b1 19 ff bd
       -1.4212933 -2.069682 0.0 -0.12456072
0000a0 27 be bf bf 6a e2 d4 bf 85 4c cf bf 5e 01 19 c0
       -1.4979905 -1.6631596 -1.6195227 -2.3907084
0000b0 51 94 c2 be 0e 7d d0 bf 65 c8 a4 bf c1 a1 8d bf
       -0.3800378 -1.6288164 -1.2873656 -1.1064988
0000c0 01 68 09 c0 cf 5b 0c bf 62 f2 36 bf f5 aa 2a c0
       -2.146973 -0.5482759 -0.71463597 -2.6666844
0000d0 71 cd 07 bf 6e 1d 0b 3d d5 69 46 c0 df 74 22 bf
       -0.53047854 0.033963613 -3.1002095 -0.6345958
0000e0 e8 cc 34 bf 00 00 00 00 bb e4 75 bf 3e 62 12 c0
       -0.7062516 0.0 -0.9605214 -2.2872462
0000f0 42 14 88 bf 00 00 00 00 5e 6b c2 bf fd 12 4c 3b
       -1.0631182 0.0 -1.5189016 0.0031139248
000100 57 4e 85 bf 84 90 0b c0 6e 41 12 bf 94 75 a2 bf
       -1.0414532 -2.1806955 -0.5713109 -1.2692132
000110 1c a3 dc bf ae 32 94 bf 3f a3 a9 bc e9 aa ad bf
       -1.7237277 -1.1577966 -0.020707725 -1.3567783
000120 89 81 e8 be e0 46 92 bf 2d 00 8a be 62 d8 f7 bf
       -0.45411327 -1.1427879 -0.2695326 -1.936291
000130 00 00 00 00 1f ae e4 be ef 51 a2 be 00 00 00 00
       0.0 -0.44664094 -0.31703135 0.0
000140 ad 6a 12 bf b3 8c b2 bf 98 96 84 bf ff d6 f9 bf
       -0.57194024 -1.3949188 -1.0358458 -1.9518737
000150 e5 e2 bd bf 93 5e 83 bd b3 61 05 c0 5c 49 d4 bf
       -1.4834868 -0.06414523 -2.084088 -1.6584888
000160 49 2a 89 bf 00 00 00 00 24 db 20 bf 6e a1 df be
       -1.071603 0.0 -0.6283438 -0.4367785
000170 7e 02 b8 bf a2 ec df be 6a e5 82 be 99 12 2d bf
       -1.437576 -0.43735224 -0.25565654 -0.676065
000180 7e e7 de bf a7 46 b1 bf 88 e0 4f bf fa 6a b5 bf
       -1.7414396 -1.3849686 -0.8120198 -1.4173272
000190 e5 62 34 bc d4 cd 36 3d 65 6c 8e bd 2c b6 10 be
       -0.011009906 0.044629887 -0.06954268 -0.14131993
0001a0 e1 20 6c 3e c8 e8 b8 be 9f ae c3 be 9d bb e0 be
       0.23059417 -0.36115098 -0.38219163 -0.43893138
0001b0 8a 98 10 39 8e f0 00 bd a8 58 8c bd 00 00 00 00
       0.00013789735 -0.03147941 -0.06852847 0.0
0001c0 d9 b1 df be 3c 0a 9c bd 42 fb 50 bd 14 e7 b6 bc
       -0.43690374 -0.076191396 -0.051020868 -0.022326984
0001d0 6b d0 52 3e ea 66 15 bf 4d a5 5f be 51 40 ef be
       0.20587318 -0.5836016 -0.21840401 -0.46728757
0001e0 7a 47 d5 3d 49 12 c8 3c bf fd 1c be fd 34 0e bd
       0.10414024 0.024422782 -0.15331171 -0.034718502
0001f0 6e 00 32 be 25 b6 21 bd 36 05 29 be f0 4c db 3d
       -0.17382976 -0.039480347 -0.16505894 0.10708034
000200 0e 4e 42 bd e5 a6 82 bd fb 44 1e be 1d 82 c9 bd
       -0.04743772 -0.06379489 -0.15456001 -0.0983927
000210 96 ca 49 be a4 17 d8 3c bc ff c6 be 92 52 6a be
       -0.19706187 0.02637846 -0.38866985 -0.2288306
000220 de 8e 30 be 02 55 75 be 00 00 00 00 70 f1 9e be
       -0.17242 -0.23958209 0.0 -0.31043577
000230 64 87 43 3d 57 0b 34 be 3a 5c c1 bd 1f b1 1e bf
       0.04773654 -0.17582451 -0.09441419 -0.61989015
000240 ba 35 50 bd 62 5d 60 3e 51 a8 9a bd 0c d1 9d 3d
       -0.050832488 0.21910623 -0.07551635 0.07705888
000250 53 dd c2 be df 17 88 bd 0a 1d 9b 3d 95 a2 eb be
       -0.38059482 -0.06645178 0.07573898 -0.46022478
000260 48 a0 43 3e f4 2e 47 ba cf 31 b3 bf 5d 20 3f 3e
       0.19104111 -0.0007598244 -1.3999575 0.1866469
000270 1b fd 17 be 00 00 00 00 e7 2f 94 bd 8c 7d 23 bf
       -0.14842646 0.0 -0.07235699 -0.63863444
000280 d3 4f 0f be 00 00 00 00 dd 16 5c be 81 63 93 3c
       -0.13995294 0.0 -0.21493097 0.017991783
000290 12 81 e2 bc 2b f2 10 bf eb a5 c1 bd 53 f0 c4 bd
       -0.027649436 -0.5661952 -0.094554745 -0.09616151
0002a0 73 4e 7c be 64 85 20 be 96 a7 e2 3c ce ed 03 3d
       -0.24639301 -0.15675884 0.027667802 0.03220921
0002b0 2b 89 ad be 00 fe 43 bd 66 9d 39 3d c9 15 c3 bd
       -0.33893713 -0.047849655 0.045316122 -0.095256396
0002c0 00 00 00 00 1d 57 bf bc 8f e0 58 bd 00 00 00 00
       0.0 -0.023356969 -0.05294853 0.0
0002d0 23 75 69 bd a8 dd c4 bc e3 91 82 be f3 e2 04 3c
       -0.056996476 -0.024031475 -0.25501928 0.00811075
0002e0 ff bf 2c 3d 23 0d d0 bd 1e e5 d3 be db 9d 79 be
       0.04217529 -0.10158756 -0.4138574 -0.24376623
0002f0 eb 0b 47 be 00 00 00 00 6e 21 2a be f1 88 d0 be
       -0.1943814 0.0 -0.16614315 -0.40729478
000300 f9 00 ba 3d d4 6a d0 3d 24 21 31 3c c3 76 79 bd
       0.09082217 0.10176626 0.010811124 -0.060904276
000310 9a a1 99 be f1 1b a1 bd cd 47 36 be 9b 5e 4c 3d
       -0.30006105 -0.078666575 -0.17800827 0.04989491
000320 0a 85 bf 3c 3a 1f 7c be 3f 2c 84 bd 91 2d a8 3d
       0.023378868 -0.24621287 -0.06453752 0.08211816
000330 5a 93 b9 bd 0b cb d1 be 46 4d f4 bd 83 94 c9 be
       -0.09061308 -0.40975222 -0.11928801 -0.39371118
000340 78 af c2 b2 a8 6b 06 be a2 ee ae 3c 00 00 00 00
       -2.2664366e-08 -0.13127005 0.021354023 0.0
000350 f5 0e 9b bd 08 8b 45 bd 1f 55 b9 bd 79 87 71 bd
       -0.07571212 -0.048228294 -0.09049439 -0.058967087
000360 bb f8 09 3e c1 9c 12 be 88 18 45 bd 22 ed 04 be
       0.1347379 -0.1431761 -0.048119098 -0.12981084
000370 df 2f 36 bc 2f 33 93 3d 6d 4b ab bc 67 3d 00 3d
       -0.011119812 0.07187497 -0.02090999 0.031308558
000380 03 99 1d be 56 c0 4c bd 00 9a 3e bf f4 e2 4a bc
       -0.153904 -0.049988113 -0.74453735 -0.012383211
000390 04 da 42 3d c0 57 de 3d 1e 24 b8 bd 77 39 62 3c
       0.047571197 0.10856581 -0.08991264 0.013807646
0003a0 af ea 97 3d 99 bd 48 be 5b 22 77 3d 06 52 a8 3d
       0.07417809 -0.19603576 0.0603355 0.0821877
0003b0 95 3b db bd 5b 88 31 bd 00 00 00 00 27 75 89 bd
       -0.10704724 -0.04334293 0.0 -0.06711798
0003c0 ad d8 44 be b9 a1 91 3c 3c 7b cd bd d1 fd 65 be
       -0.1922328 0.01777731 -0.10033271 -0.22460105
0003d0 3f 37 6b be 1c 7e 58 be 8a 87 98 3d ba 7a fd bc
       -0.22970293 -0.21141857 0.07447727 -0.03094231
0003e0 0c 73 d7 bd d9 e0 21 be dd bc 87 3d e7 c2 f7 bd
       -0.1051999 -0.15808429 0.0662782 -0.120977215
0003f0 34 53 2c 3e c3 79 61 3d 0f 51 5d bf e8 22 f7 bd
       0.16828614 0.05504776 -0.8645181 -0.12067205

2.bias_mu f4 [100]
000000 f8 2e 01 40 dd bb 4d bf b5 32 ae be 81 cb fd be
       2.0184917 -0.8036478 -0.3402306 -0.49569324
000010 ad f8 05 bf 94 2c 9e bd 69 d5 f8 be 1e e0 d9 be
       -0.52332574 -0.07723346 -0.4860032 -0.425538
000020 e8 aa 71 bf fb 70 15 be ed 31 f0 be 6e e7 43 bf
       -0.9440141 -0.1459388 -0.4691309 -0.7652501
000030 19 f4 1b bf 77 b6 d2 be 7e 3c 25 bf d6 b3 d2 be
       -0.6091934 -0.41154835 -0.6454543 -0.4115283
000040 c9 84 d1 be 79 47 02 bf 8b 88 dd be 9d 2c 16 bf
       -0.4092162 -0.5089031 -0.43268237 -0.58661824
000050 a8 80 e9 be f5 51 27 bf 9d 49 a2 be f4 90 12 bf
       -0.4560597 -0.6535943 -0.31696787 -0.5725243
000060 cf 68 44 be 3e 6e 75 be 5b 46 87 bf 1f 54 ff be
       -0.19180606 -0.23967835 -1.0568346 -0.49868867
000070 b0 78 0a bf 97 5b 2d 3e a0 83 0b bf 10 9c 01 bf
       -0.54090405 0.1692947 -0.5449772 -0.5062876
000080 80 99 00 3f 93 df 4c bf 34 1f db be f6 0b af be
       0.5023422 -0.8002865 -0.42797244 -0.34188813
000090 d1 21 12 3f f5 d8 e0 be 6b 24 e3 bd a1 d0 f0 be
       0.5708285 -0.43915525 -0.110909306 -0.4703417
0000a0 80 09 68 3d 84 6e e7 be dd bd 69 bf 6c ce fd be
       0.056649685 -0.45201504 -0.91305333 -0.4957155
0000b0 aa f4 4c be 48 5c 15 bf 25 ab b6 be f3 1d 52 bf
       -0.20015207 -0.58343935 -0.35677448 -0.8207695
0000c0 20 07 66 be 40 ee 2f bf 9c 9e 19 3d a1 8e b8 be
       -0.22463655 -0.68722916 0.037504777 -0.36046317
0000d0 66 d4 12 bf 49 d9 ec be ac 0d 92 bd 32 53 27 bf
       -0.57355344 -0.46259525 -0.07131514 -0.6536132
0000e0 94 3e d9 3d 9a e9 15 bf 9a ad ba be 59 71 89 be
       0.10607639 -0.5855957 -0.36460572 -0.2684429
0000f0 26 e2 9d be e5 48 db be 2b 62 13 bf dc 27 1f bf
       -0.308366 -0.42829052 -0.5757167 -0.62170196
000100 c3 84 cb be ea 0d db be 90 1d 19 bf 8e ab 4d bf
       -0.39749727 -0.42784053 -0.59810734 -0.80339897
000110 39 d9 e6 be 27 cb 10 bf d9 ed 0b bf a1 6c d9 3d
       -0.45087603 -0.56559986 -0.546598 0.106164224
000120 fb ad a8 be a1 ea 08 be a6 a6 c3 be 5e ca 96 be
       -0.32945237 -0.13370754 -0.3821308 -0.2945127
000130 78 4c b1 be f1 8d 01 bf e4 d3 8c be b1 d6 14 bf
       -0.34628654 -0.5060721 -0.2750541 -0.58140093
000140 fe 00 04 bf 87 ac 0e bf 8f 82 71 be c6 a1 e5 be
       -0.51564014 -0.55732006 -0.2358496 -0.44849986
000150 29 a9 c8 be f2 72 13 bf 2f 21 bd be cb 6b d0 be
       -0.3919156 -0.5759727 -0.3693938 -0.4070724
000160 38 31 bd be 00 87 cd be 3f 8d 2c be c9 41 26 bf
       -0.36951613 -0.4014206 -0.16850756 -0.6494413
000170 a4 fa fd be 1c 49 ce be ec 46 15 bf 13 8d 98 bf
       -0.49605286 -0.40290153 -0.58311343 -1.1918052
000180 0b 73 39 bf 45 a7 ef be e4 8e d9 be 72 b1 93 be
       -0.72441167 -0.46807304 -0.4249183 -0.28846318

2.bias_log_sigma f4 [100]
000000 2e 10 42 c0 b6 3d 55 bf 64 ec 08 3d c3 94 c5 be
       -3.0322375 -0.8329729 0.033428565 -0.3859006
000010 8d 45 a5 bc 48 30 1c bf 39 74 8c be eb 34 61 be
       -0.020174766 -0.6101117 -0.2743242 -0.21992843
000020 b6 ab 04 bf 47 d5 be be a3 60 c0 be 80 47 cb be
       -0.5182451 -0.37272093 -0.37573728 -0.39702988
000030 cc 7d 13 be cc b9 5e be 2e d4 86 be 22 6e 49 be
       -0.14403456 -0.21750563 -0.26333755 -0.19670919
000040 89 53 ba be fb e4 9a be 9a 80 3b be 2f d4 a0 be
       -0.36391857 -0.30252823 -0.18310776 -0.31411883
000050 4d 41 95 be 00 b0 8c be 67 f3 fd 3c f3 31 22 be
       -0.29151383 -0.27478027 0.030999852 -0.15839367
000060 8b da 5a be 2a 2a 17 3c 76 a3 bd be be e4 c4 be
       -0.2137243 0.009226361 -0.37038773 -0.38455766
000070 9f 0c 87 be f3 5c 6a bf d8 09 d5 bd 13 0d 3e bd
       -0.26376817 -0.9154808 -0.10402268 -0.046399187
000080 00 6a be bf 31 4e 0e bf 32 1b 7b be 7f cc 37 be
       -1.4876099 -0.5558806 -0.24522093 -0.17949103
000090 2a cd c3 bf e9 b3 35 be b1 5a b0 be 2f ed a4 bc
       -1.5296986 -0.17744412 -0.34444192 -0.02013263
0000a0 bd 7a 3b bf aa 1e 01 be 32 dd 9d be 90 a3 87 be
       -0.7323416 -0.12609354 -0.3083282 -0.26491976
0000b0 f5 27 62 be 72 54 f2 be 5c fa 18 be ad 6c 9b be
       -0.22085555 -0.47330052 -0.14939255 -0.3035635
0000c0 86 b2 b6 bd d6 16 2d bf 6b 29 96 be fa b9 70 be
       -0.089207694 -0.6761297 -0.29328474 -0.23508444
0000d0 34 62 3f be 33 8c fb bd 50 eb 1c bf b7 00 4e be
       -0.18689805 -0.122826 -0.6129656 -0.2011746
0000e0 cf 15 07 be 02 af 7c be 72 1b 14 be 9b 33 e7 be
       -0.13191913 -0.24676135 -0.14463595 -0.4515656
0000f0 a6 e2 a7 be 98 9c 41 be ef 48 2f bf 11 d7 bf be
       -0.32790107 -0.18907392 -0.6847066 -0.3746877
000100 69 26 d5 be fb 3e 97 be 4d 16 04 be 7c ca 22 be
       -0.41630867 -0.29540238 -0.12899132 -0.15897554
000110 b8 27 31 be f4 68 46 be e8 5b 6e be c9 0f b5 be
       -0.17300308 -0.19375974 -0.23277247 -0.35363606
000120 66 02 1f be 44 20 8c bd 5b c5 c0 be 88 e6 26 be
       -0.15528259 -0.06842092 -0.3765057 -0.16298878
000130 56 89 89 be 6d 55 e5 3c 9c ae 7e be ff de b9 be
       -0.26862592 0.027994836 -0.24871296 -0.36302945
000140 d8 90 26 be 28 fd c5 be 39 dc 8d bd 6c 5e 86 be
       -0.16266191 -0.38669705 -0.0692677 -0.26243913
000150 a6 b8 81 be cc f0 38 bf 16 5f b4 bd dd 82 98 be
       -0.25336188 -0.72242427 -0.08807199 -0.2978734
000160 3d e6 88 be bb 08 39 be ae 7c e2 bd 1c 98 86 be
       -0.26738158 -0.18069737 -0.11058937 -0.26287925
000170 24 0c 7a be 42 ec e6 bd 1d 24 61 be a8 ec ce bf
       -0.24418694 -0.11275531 -0.21986432 -1.6165972
000180 02 79 b2 be 21 63 23 be 46 49 15 be c2 ec f6 be
       -0.34857947 -0.15955783 -0.14578733 -0.48227507

4.weight f4 [1, 100]
000000 5e bb 7c 3e dd c1 e9 3c dc 8d ec bb a9 b1 6e 3c
       0.2468085 0.028534824 -0.0072190594 0.014568725
000010 d6 eb f1 bc 7b 9a b5 3b 66 01 bc bb 36 13 e5 3b
       -0.0295314 0.005542097 -0.0057374714 0.0069908155
000020 c0 12 20 bb e2 eb 20 3c fa d2 94 3c a7 a0 8d 3c
       -0.0024425238 0.009821864 0.018167008 0.01728852
000030 44 e1 9e 3c 08 6c a0 bb 21 b7 00 3c ed 54 fc 3b
       0.019394524 -0.004895691 0.007856161 0.0077005536
000040 0d f5 36 3b 51 2e 35 bc 1c 89 a7 3c 66 fe b2 3c
       0.0027917058 -0.011058406 0.020451121 0.021849822
000050 10 f5 9f bc 03 f8 89 bc 78 e4 86 bb 08 57 00 3c
       -0.019526035 -0.016841894 -0.004116591 0.00783325
000060 26 91 81 bb 6b e7 7c 3c 9c 30 03 bc ef 90 3d 3d
       -0.0039540706 0.015436034 -0.008007195 0.046280798
000070 9e 53 fd bb 1d 50 8d bc c2 e3 24 3c 9d fa 94 bc
       -0.007730915 -0.017250115 0.010064067 -0.018185908
000080 7c 86 05 bd 6e 8a 7e 3b 42 37 89 3b 21 b5 f8 3c
       -0.032598957 0.0038839835 0.0041874954 0.030359806
000090 ba 12 34 bd 6c 8c 94 3c de e7 2c bc 62 36 9c bc
       -0.04396317 0.018133365 -0.010553328 -0.0190689
0000a0 1a bc a7 3c 73 1f d6 bb db a5 81 3c 52 85 b8 3b
       0.020475436 -0.0065345108 0.015826156 0.0056311274
0000b0 b4 78 8e bc 9a 61 98 bb 9c 74 21 3c a9 10 d2 bb
       -0.01739154 -0.004650307 0.009854462 -0.0064106775
0000c0 4a d1 b8 3b 26 b3 56 3c 8f 04 13 3b 70 4c a8 3c
       0.0056401836 0.013104236 0.0022433137 0.02054426
0000d0 d5 2b 14 bb 61 e7 0e bb d4 81 93 3c 24 dd 4b 3b
       -0.0022609134 -0.0021805393 0.018006243 0.0031107152
0000e0 c5 d1 c1 3c 58 98 bf 3c 83 59 82 3c ce 9e de 3b
       0.023659596 0.023388073 0.015911823 0.0067938333
0000f0 ac aa 96 bb c7 23 e8 bc b1 92 c5 3c d3 39 16 3c
       -0.0045979824 -0.028337372 0.0241178 0.00916906
000100 cd 59 ee 3b 96 6e 8b 3c 6f 0f f4 3a 09 8e 90 3c
       0.0072738887 0.017020505 0.0018620322 0.017645853
000110 5b fe 02 3b 2b 6a 5b 3c 20 8c 45 39 32 7b 63 3a
       0.0019988033 0.013392012 0.00018839585 0.00086777203
000120 4e c8 16 3c 43 eb 6e 3b fa 8c 9e 3b ce 5a 0b 3c
       0.00920303 0.0036456145 0.004838583 0.008505536
000130 d2 03 39 bc b0 a7 01 bb 23 47 8b 3b 32 f3 0e b9
       -0.011292415 -0.0019783787 0.0042504235 -0.00013632773
000140 6d 9a b4 3c d1 b6 b4 3b 9b 0a c4 3c 40 a3 1e 3b
       0.022046292 0.0055149575 0.023930838 0.0024206191
000150 d0 a1 d0 3c c3 c5 50 bc f7 da 97 3c a2 89 43 bc
       0.025467783 -0.012742463 0.018537028 -0.01193467
000160 76 77 8c 3c d3 ba db 3c 0d 34 58 bc b6 2e 9a ba
       0.017146807 0.026822483 -0.013196004 -0.0011763189
000170 ab 99 b0 3c 11 dc 24 3c 80 66 71 3b ca 5b e2 3d
       0.02155765 0.010062234 0.0036834776 0.110526636
000180 99 8f e5 3c 7c 11 2f bc e3 fb b9 bb 4a c5 34 3b
       0.028022574 -0.010685321 -0.005675779 0.0027583414
