code/storage/vi_bnn--problem_D--weights.pth (torch, 24420 bytes, 7 tensors)

0.weight f4 [50, 1]
0.80567205 1.080227 -0.72324955 0.64690155 0.7967314 0.908016 -0.99175686 0.80260754
0.69502467 -1.3263259 0.6732888 1.0388154 1.0498229 -0.7668353 -0.71432674 1.0874062
0.7486172 -0.47977495 1.0278999 -0.81822354 0.7160344 0.8845132 0.97791886 -0.99867165
-1.1770549 -1.0276815 1.1312163 -0.9070008 -1.1892343 1.1371593 0.6512475 0.76299757
-1.3363926 -1.1728082 -0.081380844 -0.037184358 -0.73533505 -1.0598379 0.8474803 -1.3608396
0.8075613 -0.0322662 -0.90377766 -1.0540732 -0.9528081 -1.1490486 -1.0249312 -0.9316977
-0.9448834 -1.1585922
00000000: 8640 4e3f e144 8a3f e226 39bf 579b 253f
00000010: 97f6 4b3f bd73 683f c7e3 7dbf b077 4d3f
00000020: 23ed 313f 0cc5 a9bf a85c 2c3f e7f7 843f
00000030: 9960 863f 514f 44bf 1ede 36bf 2030 8b3f
00000040: 60a5 3f3f 10a5 f5be 3992 833f 1977 51bf
00000050: 084e 373f 756f 623f e458 7a3f f2a8 7fbf
00000060: bca9 96bf 118b 83bf b2cb 903f 3431 68bf
00000070: d438 98bf 708e 913f 28b8 263f cf53 433f
00000080: ea0e abbf 941e 96bf 00ab a6bd a04e 18bd
00000090: eb3e 3cbf c5a8 87bf 78f4 583f fe2f aebf
000000a0: 56bc 4e3f 9029 04bd f95d 67bf dfeb 86bf
000000b0: 3beb 73bf 0614 93bf f230 83bf be83 6ebf
000000c0: e1e3 71bf c04c 94bf

0.bias f4 [50]
-0.03779784 0.13254881 1.0054947 -0.35089102 -1.1672293 0.41946542 1.5672697 -0.8930299
-0.25328103 1.6998123 -1.0738562 -1.156292 -1.1890725 0.872946 0.6486192 0.1689456
-0.41980967 0.6566926 -0.8882216 1.3320376 0.28686032 -0.50210905 -1.47821 1.5175064
-0.05558727 1.2282498 -1.2309132 0.34066984 0.07065902 -0.798728 -0.7240611 -1.0064566
0.89021564 1.5320064 -0.784703 -0.9142399 0.25094014 0.55717236 0.022313531 0.25429437
-1.3985648 -0.83128417 -0.01387518 1.7473574 1.1693795 0.838394 1.024831 0.7144041
0.54217917 0.6392931
00000000: e8d1 1abd e0ba 073e 0db4 803f fda7 b3be
00000010: c567 95bf 2cc4 d63e 4b9c c83f 9c9d 64bf
00000020: 0dae 81be 7393 d93f 1f74 89bf 6001 94bf
00000030: 8733 98bf 6479 5f3f e80b 263f 1300 2d3e
00000040: 4bf1 d6be 021d 283f 7e62 63bf 3580 aa3f
00000050: 5bdf 923e 388a 00bf fc35 bdbf a63d c23f
00000060: 7aaf 63bd 4a37 9d3f 908e 9dbf 476c ae3e
00000070: adb5 903d 7079 4cbf 115c 39bf 92d3 80bf
00000080: 2ce5 633f c918 c43f 4ce2 48bf a00b 6abf
00000090: 3a7b 803e d9a2 0e3f deca b63c df32 823e
000000a0: 2c04 b3bf 0acf 54bf b954 63bc 68a9 df3f
000000b0: 3aae 953f fda0 563f aa2d 833f 30e3 363f
000000c0: 41cc 0a3f b6a8 233f

2.weight_mu f4 [50, 50]
0.7232234 0.7127207 0.9824857 0.89832497 0.85380423 0.74712 0.98252505 0.9699757
0.96323484 0.9267374 1.0034286 0.92567354 0.9383967 1.1648422 1.0877373 0.7594007
0.80559754 0.81435776 0.73091966 1.0090253 0.8163195 0.67231447 0.7148566 1.0607103
1.136016 0.9392637 0.97498614 1.110712 1.0127519 0.86120194 0.9251641 0.8888156
0.9762601 1.0389673 -8.339469e-39 1.4222339e-38 0.9526139 1.021308 0.6705258 0.95567906
0.8273218 0.030329384 1.0419717 0.9411681 1.0464889 1.0044281 1.1489928 1.1615099
1.0717021 1.138974 -0.16010794 -0.15762183 0.048819143 -0.08624328 -0.1585698 -0.12117999
0.0111904545 0.005302929 -0.056186352 0.119389534 0.083559155 0.031974707 -0.19756214 0.15971251
0.14007907 -0.07498153 -0.11392138 0.07798337 -0.055365134 0.042059112 -0.10328554 -0.14229558
-0.020627195 0.1707558 0.053732254 0.10759505 -0.078401156 0.16243511 0.059869833 -0.031698618
-0.006276821 -0.117477715 0.13453138 0.117923066 1.596042e-38 1.6365008e-38 0.105758145 0.06440981
-0.10920921 0.11406995 0.06582836 -0.07932674 0.005157729 0.15446611 0.08479088 0.060616415
0.08796776 0.023453325 0.06075017 0.053005125 0.9968282 1.0465575 1.308845 1.1579695
1.1843481 0.97645205 1.1045192 1.0113842 1.1746075 1.2109499 1.0925831 0.89143753
1.1226414 1.0993992 1.0809464 1.0167807 0.9622459 1.0102166 1.0676972 1.3093858
0.92381424 1.0393533 0.9917036 1.2227976 1.0252286 0.9865815 0.9045463 1.1019657
0.9740614 0.853377 1.2148159 1.0682995 1.1234016 1.1703867 -2.93263e-38 -1.868603e-39
1.080625 1.0433111 0.990316 1.1603613 1.1062074 0.11966995 1.2568161 1.0666301
1.1443743 1.2201813 1.1949123 1.0903083 1.0949395 0.992857 1.0731168 0.9956247
1.1661302 0.9922489 1.0969741 0.899422 1.1888548 1.0884323 1.1156157 0.95840645
1.2073961 0.91120857 1.1297132 1.0968004 1.1631943 0.96235394 1.0646785 0.96318156
0.9680619 1.1239715 1.0278307 1.0123434 1.1625608 1.0633911 0.9910073 1.011716
1.102121 1.0949072 1.1167775 1.0915862 1.0351613 1.101781 0.9396139 1.0790216
-9.597891e-39 -3.2298097e-38 1.1401837 1.0730174 1.0218239 1.0209912 1.0146453 2.5930782e-05
1.1065862 1.0443685 1.0493523 1.0566971 0.9877905 1.1120197 1.135473 1.0446589
1.0527645 0.8096537 1.2179269 1.022914 1.1254258 0.9160111 1.1015242 1.004324
1.0413452 1.102294 1.063625 0.9422506 1.0149173 1.2936672 1.28896 0.90138346
0.9869836 0.86094487 0.9372673 1.0137434 0.85895586 0.9532367 0.940056 1.0855772
1.0775524 0.9362025 0.96939635 1.2011387 1.1141205 0.9897066 1.1084797 1.0129476
1.0330611 1.0135269 4.4091576e-38 -9.55014e-39 1.0241406 0.96737427 0.94101787 0.89491624
1.0238601 0.088077314 1.2597988 1.0249757 1.2049187 1.2164019 1.1339622 1.2476047
1.2007378 1.1563892 0.5461321 0.7273134 0.9698272 0.73608804 0.7112912 0.64225686
00000000: 2b25 393f dd74 363f 2f84 7b3f a0f8 653f
00000010: ea92 5a3f 4243 3f3f c386 7b3f 5450 783f
00000020: 8f96 763f aa3e 6d3f 5970 803f f1f8 6c3f
00000030: c43a 703f 8d19 953f fa3a 8b3f 1668 423f
00000040: a43b 4e3f c079 503f 8d1d 3b3f be27 813f
00000050: 51fa 503f cd1c 2c3f d800 373f 5bc5 873f
00000060: f968 913f 9673 703f b198 793f d02b 8e3f
00000070: dba1 813f bb77 5c3f 8ed7 6c3f 6b89 633f
00000080: 2fec 793f e1fc 843f 0ccf 5a80 18de 9a00
00000090: 81de 733f 38ba 823f 94a7 2b3f 62a7 743f
000000a0: 5dcb 533f 5475 f83c 545f 853f 65f0 703f
000000b0: 59f3 853f 1a91 803f 3212 933f 5bac 943f
000000c0: 892d 893f e6c9 913f 56f3 23be 9e67 21be
000000d0: 95f6 473d 51a0 b0bd 1f60 22be 372d f8bd
000000e0: 2b58 373c 31c4 ad3b a923 66bd 8082 f43d
000000f0: 1021 ab3d e9f7 023d bb4d 4abe ad8b 233e
00000100: e370 0f3e eb8f 99bd 9d4f e9bd bfb5 9f3d
00000110: 8dc6 62bd 2d46 2c3d 5f87 d3bd efb5 11be
00000120: 5dfa a8bc 9cda 2e3e 5a16 5c3d cb5a dc3d
00000130: c990 a0bd 6455 263e 123a 753d 69d6 01bd
00000140: caad cdbb 2898 f0bd 98c2 093e a681 f13d
00000150: 28cb ad00 fc32 b200 ba97 d83d 4ae9 833d
00000160: 14a9 dfbd 829d e93d 05d1 863d 0f76 a2bd
00000170: 2b02 a93b 5d2c 1e3e d7a6 ad3d eb48 783d
00000180: 7128 b43d 3021 c03c 2cd5 783d e71b 593d
00000190: 2230 7f3f 99f5 853f 3c88 a73f 5838 943f
000001a0: b898 973f c3f8 793f e360 8d3f 0a75 813f
000001b0: 8a59 963f 6800 9b3f c3d9 8b3f 4035 643f
000001c0: b7b2 8f3f 1db9 8c3f 745c 8a3f df25 823f
000001d0: bf55 763f c74e 813f 4daa 883f f499 a73f
000001e0: 177f 6c3f 8709 853f 4ae0 7d3f a284 9c3f
000001f0: b13a 833f 9b90 7c3f 5990 673f 360d 8d3f
00000200: 175c 793f ea76 5a3f 167f 9b3f 0abe 883f
00000210: a0cb 8f3f 3bcf 953f e6aa 1f81 e858 1480
00000220: ec51 8a3f 388b 853f 5985 7d3f b886 943f
00000230: 3498 8d3f 8515 f53d 5adf a03f 5687 883f
00000240: db7a 923f e72e 9c3f e3f2 983f 398f 8b3f
00000250: fa26 8c3f e02b 7e3f e45b 893f 43e1 7e3f
00000260: c143 953f 0604 7e3f a669 8c3f 8540 663f
00000270: 652c 983f c051 8b3f 7fcc 8e3f 205a 753f
00000280: f58b 9a3f f744 693f 719a 903f f563 8c3f
00000290: 8de3 943f d45c 763f 6347 883f 1193 763f
000002a0: e8d2 773f 4cde 8f3f f58f 833f 7894 813f
000002b0: cbce 943f 331d 883f a8b2 7d3f e97f 813f
000002c0: 4d12 8d3f eb25 8c3f 91f2 8e3f 19b9 8b3f
000002d0: 2a80 843f 2907 8d3f 898a 703f 611d 8a3f
000002e0: 0483 6880 fad8 2f81 8af1 913f a258 893f
000002f0: 20cb 823f d7af 823f e6df 813f ee85 d937
00000300: 9ea4 8d3f dead 853f 2d51 863f da41 873f
00000310: d7df 7c3f a956 8e3f 2e57 913f 62b7 853f
00000320: fdc0 863f 7745 4f3f 07e5 9b3f d9ee 823f
00000330: f40d 903f b47f 6a3f bffe 8c3f b08d 803f
00000340: cd4a 853f f817 8d3f dd24 883f 5637 713f
00000350: cfe8 813f e396 a53f a4fc a43f 11c1 663f
00000360: f5aa 7c3f e266 5c3f c0f0 6f3f 58c2 813f
00000370: 88e4 5b3f 5207 743f 83a7 703f 32f4 8a3f
00000380: 3ded 893f f8aa 6f3f 5c2a 783f eabe 993f
00000390: 809b 8e3f 695d 7d3f aae2 8d3f 44a8 813f
000003a0: 593b 843f 40bb 813f b00e 7001 e8fd 6780
000003b0: 0a17 833f d7a5 773f 8ce6 703f 3b19 653f
000003c0: d90d 833f e161 b43d 1641 a13f 6732 833f
000003d0: c73a 9a3f 0fb3 9b3f ac25 913f 83b1 9f3f
000003e0: c7b1 993f 9004 943f 50cf 0b3f 3631 3a3f
000003f0: 9846 783f 4470 3c3f 2e17 363f f26a 243f

2.weight_log_sigma f4 [50, 50]
-0.20573018 -0.77899736 -0.38275042 -0.2517112 -0.25739807 -0.14765349 0.00047501456 -0.23959278
0.55111974 -0.13223162 -0.65981656 -0.3940149 0.18402177 -0.12258111 -0.588874 -0.4574156
-0.34802938 -0.4096081 -0.5464792 -0.6072567 -0.78030217 0.13748732 -0.32240477 -0.03401867
-0.467525 -0.43597844 -0.14186539 -0.104731254 -0.2252736 -0.24316093 -0.16961102 -0.070103325
-0.47723702 -0.43736285 0.0 0.0 -0.7242485 -0.59307736 -0.47852248 -0.5889955
-0.52824235 -0.05149187 -0.16631575 -0.082756124 0.0137581695 -0.20322174 -0.6958756 -0.38099584
-0.44423258 -0.46295527 -0.21441506 -0.04108876 -0.34978905 0.5118321 -0.3796075 -0.17673719
0.13836658 -0.094465554 0.39080924 0.072479144 0.034037825 -0.17235945 -0.07516528 -0.3785453
0.25505716 0.02414815 -0.119651854 -0.36591107 0.30714282 0.20187481 -0.016704267 -0.40553322
0.15600854 -0.13367914 0.29596815 -0.010529171 -0.17458127 -0.03365018 -0.07838685 -0.17114067
-0.22533791 -0.031290237 -0.16658255 -0.17698446 0.0 0.0 -0.42492038 -0.14003661
-0.068129405 0.14520021 -0.2721509 0.070359975 -0.31224513 0.46772063 0.05391633 -0.02553953
-0.34841144 -0.34706444 -0.30120558 0.121792346 -0.55193716 -0.51405627 -0.88876766 0.03145423
-0.3343791 -0.74052006 -0.5898957 -0.2840387 -0.46608707 -0.20600113 -0.25765786 -0.3748487
-0.19379483 -0.3403634 -0.15867892 -0.33697557 -0.49459168 -0.22912528 -0.40924862 -0.81037045
-0.57102734 -0.097373284 -0.272934 -0.31373778 -0.40322465 -0.66810465 -0.5861768 -0.21481112
-0.38689888 -0.21972753 -0.34893817 0.01006275 -0.27817073 -0.14454709 0.0 0.0
-0.4933261 -0.21415901 -0.46554306 -0.44877353 -0.6575083 -0.04080463 -0.48119774 -0.36860183
-0.5724783 -0.3468718 -0.28538525 -0.99992394 -0.5491642 0.06196561 -0.5202584 -0.43618947
-0.35591957 -0.20911814 -0.51390374 -0.23182037 -0.26821962 -0.52715486 0.10354379 -0.5431186
-0.63340676 -0.26880914 -0.5031085 -0.5078756 -0.39758447 -0.6407183 -0.39177543 -0.3960303
-0.22196281 -0.56950957 -0.06842984 -0.6001697 -0.69048184 -0.3838788 -0.50327635 -0.47602743
-0.29068142 -0.24842739 -0.6686378 -0.5699039 -0.53682774 -0.29218227 -0.22347112 -0.26652756
0.0 0.0 -0.30955595 -0.17837736 -0.57627684 -0.69454896 -0.74798775 0.07610235
-0.52508795 -0.08147845 -0.2780575 -0.20336059 -0.3606387 -0.5995912 -0.46654823 0.09508979
-0.52791804 -0.37299764 -0.44900882 -0.13364084 -0.18406469 -0.24834429 -0.4866841 -0.526941
-0.21444602 -0.010853678 -0.68946373 -0.39919305 -0.16887464 -0.31088683 -0.34283584 -0.5343436
-0.49807718 -0.111701205 -0.889415 -0.22552417 -0.45321986 -0.0064841323 -0.6679471 -0.5028757
-0.55588347 -0.4485189 -0.25620893 -0.26242992 -0.58905 -0.35474974 -0.6504926 -0.5676372
-0.40251464 -0.49456313 0.0 0.0 -0.7612345 -0.21453553 -0.68729085 -0.39331415
-0.47705263 -0.09513578 -0.46060693 -0.36639336 -0.6207117 -0.6098757 -0.5628601 -0.40157196
-0.062261187 -0.49145907 -0.2953056 -0.24593271 -0.63575065 -0.4090745 -0.2716523 -0.26556987
00000000: efaa 52be 5f6c 47bf ddf7 c3be 4ae0 80be
00000010: aec9 83be 7a32 17be 600b f939 cf57 75be
00000020: 2f16 0d3f ba67 07be bde9 28bf 52bc c9be
00000030: 3470 3c3e ce0b fbbd 72c0 16bf 6132 eabe
00000040: e830 b2be 27b8 d1be 10e6 0bbf 2d75 1bbf
00000050: e2c1 47bf 7ac9 0c3e 3d12 a5be 2957 0bbd
00000060: 705f efbe 9138 dfbe 2945 11be 577d d6bd
00000070: 1fae 66be 2eff 78be 83ae 2dbe 5592 8fbd
00000080: 6958 f4be 06ee dfbe 0000 0000 0000 0000
00000090: 5a68 39bf ebd3 17bf e600 f5be 69c8 16bf
000000a0: e43a 07bf 24e9 52bd ad4e 2abe 0b7c a9bd
000000b0: f269 613c 5c19 50be e724 32bf e311 c3be
000000c0: 7472 e3be 7908 edbe 9f8f 5bbe b04c 28bd
000000d0: 8d17 b3be 6e07 033f ea5b c2be 98fa 34be
000000e0: f8af 0d3e 2877 c1bd 2618 c83e f26f 943d
000000f0: 3f6b 0b3d ff7e 30be 41f0 99bd b1d0 c1be
00000100: da96 823e 57d2 c53c 080c f5bd b258 bbbe
00000110: d341 9d3e 45b8 4e3e 63d7 88bc 0da2 cfbe
00000120: b4c0 1f3e 2fe3 08be 2389 973e 8b82 2cbc
00000130: 6fc5 32be c5d4 09bd 4989 a0bd 803f 2fbe
00000140: fbbe 66be 312a 00bd 9e94 2abe 6a3b 35be
00000150: 0000 0000 0000 0000 2a8f d9be c265 0fbe
00000160: 6e87 8bbd 5daf 143e 5d57 8bbe e418 903d
00000170: 98de 9fbe 1479 ef3e 5fd7 5c3d 4738 d1bc
00000180: fc62 b2be 6eb2 b1be 9e37 9abe 446e f93d
00000190: c14b 0dbf 3199 03bf 4786 63bf 27d6 003d
000001a0: bd33 abbe b992 3dbf 6803 17bf 856d 91be
000001b0: f7a2 eebe f6f1 52be bbeb 83be 2bec bfbe
000001c0: 2772 46be 1d44 aebe ba7c 22be 1088 acbe
000001d0: 1f3b fdbe d19f 6abe 0989 d1be 7074 4fbf
000001e0: d92e 12bf a56b c7bd 01be 8bbe 3da2 a0be
000001f0: 7673 cebe e808 2bbf af0f 16bf 72f7 5bbe
00000200: 9c17 c6be 4100 61be 06a8 b2be 3cde 243c
00000210: 656c 8ebe 2704 14be 0000 0000 0000 0000
00000220: 3d95 fcbe 804c 5bbe a95b eebe a5c5 e5be
00000230: 7752 28bf c122 27bd 8d5f f6be 61b9 bcbe
00000240: f08d 12bf 2e99 b1be 041e 92be 04fb 7fbf
00000250: 0696 0cbf a7cf 7d3d a82f 05bf 3a54 dfbe
00000260: 173b b6be 1123 56be 328f 03bf 5262 6dbe
00000270: 1554 89be 9ff3 06bf c40e d43d d209 0bbf
00000280: f226 22bf 5aa1 89be b8cb 00bf 2304 02bf
00000290: 3190 cbbe 1d06 24bf ca96 c8be 7cc4 cabe
000002a0: 384a 63be 61cb 11bf f224 8cbd b9a4 19bf
000002b0: 6bc3 30bf c38b c4be b8d6 00bf deb9 f3be
000002c0: 32d4 94be c063 7ebe d92b 2bbf 39e5 11bf
000002d0: 8b6d 09bf ea98 95be 9dd5 64be 4d76 88be
000002e0: 0000 0000 0000 0000 1e7e 9ebe 8ea8 36be
000002f0: e186 13bf f6cd 31bf 207c 3fbf 8ddb 9b3d
00000300: 2a6c 06bf 2cde a6bd 8d5d 8ebe c23d 50be
00000310: a3a5 b8be cf7e 19bf 69df eebe 70be c23d
00000320: a325 07bf 8cf9 bebe 7ce4 e5be 25d9 08be
00000330: 747b 3cbe f74d 7ebe a92e f9be 9be5 06bf
00000340: bd97 5bbe a0d3 31bc b280 30bf 0863 ccbe
00000350: 79ed 2cbe 8f2c 9fbe 2e88 afbe beca 08bf
00000360: f903 ffbe 9ac3 e4bd b4b0 63bf cfef 66be
00000370: 6f0c e8be d878 d4bb 95fe 2abf 76bc 00bf
00000380: 614e 0ebf 45a4 e5be d12d 83be 375d 86be
00000390: fbcb 16bf c2a1 b5be af86 26bf ac50 11bf
000003a0: 6616 cebe 6137 fdbe 0000 0000 0000 0000
000003b0: 44e0 42bf 34af 5bbe 4bf2 2fbf 7960 c9be
000003c0: 3e40 f4be 8cd6 c2bd acd4 ebbe e997 bbbe
000003d0: f6e6 1ebf d020 1cbf 9917 10bf d79a cdbe
000003e0: 9605 7fbd 86a0 fbbe 4c32 97be c9d5 7bbe
000003f0: 8ec0 22bf 3672 d1be 0316 8bbe c6f8 87be

2.bias_mu f4 [50]
0.49083057 -0.058134314 0.7079343 0.68733114 0.67001975 0.48115867 0.6812956 0.6617756
0.8568931 0.7277124 -0.04623633 0.8293421 0.88493687 -0.5719616 0.7548564 -0.26108727
0.940492 0.08251229 0.7390424 0.7137413 0.3079441 0.7109417 0.71451205 0.34178844
0.87790173 0.96884155 0.68276334 0.5221015 -0.0604133 0.7876631 -0.37116626 0.8152292
0.06895694 0.91837114 0.64434046 0.8448896 0.66877717 0.8589036 0.711968 0.93666327
-0.09576757 0.29610902 0.8574992 0.7503987 0.74222445 0.70822334 0.6856925 -0.26259065
0.7023346 0.6781145
00000000: 254e fb3e 3f1e 6ebd 2f3b 353f eff4 2f3f
00000010: 6a86 2b3f 6e5a f63e 6369 2e3f 206a 293f
00000020: 595d 5b3f 5c4b 3a3f 4e62 3dbd c44f 543f
00000030: 398b 623f 136c 12bf 453e 413f 3bad 85be
00000040: 15c4 703f 34fc a83d e231 3d3f c0b7 363f
00000050: d9aa 9d3e 4600 363f 43ea 363f e5fe ae3e
00000060: 2bbe 603f 0006 783f 94c9 2e3f 72a8 053f
00000070: f073 77bd 4aa4 493f 8109 bebe dcb2 503f
00000080: 4c39 8d3d 5f1a 6b3f 7ff3 243f af4a 583f
00000090: fb34 2b3f 1be1 5b3f 8943 363f 2ac9 6f3f
000000a0: ca21 c4bd 9a9b 973e 1185 5b3f 211a 403f
000000b0: 6c02 3e3f 204e 353f 8b89 2f3f 4872 86be
000000c0: 33cc 333f e998 2d3f

2.bias_log_sigma f4 [50]
-0.025669856 -0.026522372 -0.3501135 -0.016662184 0.09723335 -0.3047878 -0.10594987 -0.33207375
0.14465582 0.338873 -0.09844852 0.025180338 0.21198902 -0.22334173 0.16943745 -0.030868428
0.16878025 0.2737011 0.015173063 -0.14093976 -0.08919254 -0.27536747 -0.27417377 -0.13547535
0.049900252 0.04335282 0.16170749 -0.09765787 0.00044167225 0.22072472 0.02020588 -0.2583214
0.60582817 -0.27190343 0.23726226 -0.3989075 0.09613336 -0.4088515 0.16088118 0.09519056
-0.09623995 -0.22725108 -0.14445594 -0.33273456 -0.39982292 -0.10835054 -0.19438337 -0.12888971
-0.21563691 -0.15575954
00000000: 9749 d2bc 7245 d9bc 1442 b3be 227f 88bc
00000010: 4722 c73d 260d 9cbe 3ffc d8bd 9205 aabe
00000020: a820 143e c380 ad3e 619f c9bd ff46 ce3c
00000030: a613 593e b2b3 64be 0381 2d3e c9df fcbc
00000040: bbd4 2c3e 8d22 8c3e 7098 783c 8352 10be
00000050: 94aa b6bd f7fc 8cbe 8160 8cbe 0dba 0abe
00000060: 3564 4c3d ba92 313d a696 253e d900 c8bd
00000070: 3f90 e739 a905 623e cd86 a53c b442 84be
00000080: 8e17 1b3f ed36 8bbe e1f4 723e 9b3d ccbe
00000090: 91e1 c43d fc54 d1be 09be 243e 45f3 c23d
000000a0: 7319 c5bd 82b4 68be 42ec 13be 2f5c aabe
000000b0: 97b5 ccbe e3e6 ddbd 6f0c 47be aafb 03be
000000c0: eccf 5cbe 6e7f 1fbe

4.weight f4 [1, 50]
-0.34874722 -0.08898884 -0.5597685 -0.55287796 -0.53408694 -0.30468515 -0.41704896 -0.28148988
-0.5088853 -0.41956413 0.029238556 -0.5122449 -0.5608014 -0.033329763 -0.454891 -0.017433217
-0.57263047 -0.17614332 -0.5529439 -0.5035938 -0.17012975 -0.47231048 -0.53545475 -0.13351808
-0.48405814 -0.595744 -0.40198025 -0.296875 -0.011894103 -0.51079756 0.004095906 -0.5101454
-0.119133934 -0.5771354 -0.37025592 -0.48608184 -0.48423326 -0.5345319 -0.47804773 -0.6046543
-0.019254917 -0.15839133 -0.5369064 -0.567644 -0.5557828 -0.52148634 -0.49949613 -0.15569218
-0.42157996 -0.5484739
00000000: ff8e b2be c83f b6bd fd4c 0fbf 6989 0dbf
00000010: ecb9 08bf b1ff 9bbe 7187 d5be 711f 90be
00000020: 4f46 02bf 1cd1 d6be b285 ef3c 7b22 03bf
00000030: ae90 0fbf ca84 08bd 79e7 e8be 1bd0 8ebc
00000040: e997 12bf ea5e 34be bb8d 0dbf 86eb 00bf
00000050: 7e36 2ebe aed2 f1be 9013 09bf f7b8 08be
00000060: 78d6 f7be ae82 18bf 5bd0 cdbe 0000 98be
00000070: 7cdf 42bc a1c3 02bf f336 863b e498 02bf
00000080: 7efc f3bd 25bf 13bf 2f92 bdbe b8df f8be
00000090: 6ced f7be 15d7 08bf acc2 f4be a0ca 1abf
000000a0: 7dbc 9dbc 5631 22be b372 09bf 1e51 11bf
000000b0: c847 0ebf 2180 05bf f5bd ffbe c56d 1fbe
000000c0: 54d9 d7be c968 0cbf
