code/storage/vi_bnn--problem_C--weights.pth (torch, 85412 bytes, 7 tensors)

0.weight f4 [100, 1]
0	0x3eb5447b	0.3540381
1	0xbde701fb	-0.112796746
2	0x3e55e3b4	0.20887643
3	0xbcf07634	-0.029353239
4	0x3d7f640a	0.062351264
5	0xbd0c2585	-0.03421547
6	0x3dee3cca	0.11632688
7	0x3e0cdd38	0.13756263
8	0x3dfbb89b	0.1229107
9	0xbee08f54	-0.4385935
10	0xbf1a7bd2	-0.60345185
11	0x3d1e9856	0.038719498
12	0xbcb58f48	-0.022163048
13	0xbb9f8044	-0.0048675854
14	0x3d822dbd	0.0635638
15	0xbc3d6cc9	-0.011561581
16	0xbca5c85e	-0.020237144
17	0xbdeed280	-0.116612434
18	0x3e2428cc	0.16031188
19	0x3e19756a	0.14986196
20	0x3e9066d8	0.28203464
21	0xbca7b6b1	-0.020472856
22	0x3eb02e8b	0.3441051
23	0xbbf80d0c	-0.0075699147
24	0xbed59081	-0.4171181
25	0xbe0ed104	-0.1394692
26	0x3de42d9f	0.11141514
27	0x3e4ae48e	0.19813749
28	0xbe920a73	-0.28523597
29	0xbce2c17a	-0.027680147
30	0x3df31145	0.11868528
31	0x3ed1347e	0.4086036
32	0xbb785836	-0.0037894375
33	0x3d253e1f	0.040342446
34	0x3f360c2f	0.7111234
35	0xba93674d	-0.0011245996
36	0xbb9ca752	-0.0047806883
37	0xbe8dc893	-0.27692088
38	0x3ef2ee70	0.47447538
39	0x3ccc0368	0.024903968
40	0xbef4217e	-0.47681803
41	0xbdc568ab	-0.096391045
42	0xbdca8439	-0.09888501
43	0x3e05a148	0.13049805
44	0xbd807c59	-0.062737174
45	0x3c1705b3	0.009217667
46	0x3dc21b71	0.0947789
47	0xbaff7746	-0.0019490502
48	0xbefd9019	-0.49524
49	0xbde2b1ff	-0.11069106
50	0x3dc2bb9d	0.09508441
51	0xbceca624	-0.028887816
52	0xbee4c443	-0.44680986
53	0xbeffb4dd	-0.49942675
54	0xbd38f320	-0.045153737
55	0x3d4b80a0	0.049683213
56	0xbf00d515	-0.5032514
57	0xbe27da0b	-0.1639177
58	0x3e2cba8a	0.16868034
59	0x3de7d823	0.11320522
60	0xbf1b442e	-0.6065091
61	0xbcf81286	-0.03028227
62	0x3e96bbdd	0.29440203
63	0xbf1f3389	-0.6218801
64	0xbecde0a4	-0.4021045
65	0xbe38231a	-0.1798214
66	0xbe6e59cf	-0.23276447
67	0x3dcf5c1a	0.10124989
68	0x3e12b4a9	0.14326729
69	0xbe1e4d89	-0.15459265
70	0xbe0f7465	-0.14009245
71	0xbc0ef724	-0.008725915
72	0x3dd4ca48	0.103901446
73	0x3ea57d0c	0.32321966
74	0xbce917a5	-0.028453657
75	0xbb2527d9	-0.0025200753
76	0x3e801215	0.25013795
77	0xbe801f09	-0.25023678
78	0x3e11ebb9	0.14250077
79	0x3e67f42e	0.22651741
80	0xbd8ee9fe	-0.06978224
81	0xbe0e2fb9	-0.13885392
82	0x3ee67fb2	0.450193
83	0xbeaa917b	-0.33314118
84	0x3dbcd06d	0.092194416
85	0xbe1adacd	-0.15122528
86	0xbe3740c7	-0.17895804
87	0xbb0c1c00	-0.0021378994
88	0xbd122041	-0.03567529
89	0xbe43713a	-0.19086161
90	0xbd93465c	-0.07191154
91	0xbe215236	-0.15754017
92	0xbdc62f67	-0.0967701
93	0xbe41d042	-0.189271
94	0xbe464047	-0.19360457
95	0xbc9e2889	-0.019306438
96	0x3e09fb01	0.13474657
97	0x3d2bf3a0	0.041980386
98	0x3e9ac406	0.3022768
99	0x3e92c766	0.28667754

0.bias f4 [100]
0	0xbfea869f	-1.8322333
1	0xbf157c6b	-0.5839297
2	0xbd337711	-0.043814722
3	0x3e92da5a	0.28682214
4	0x3e59958c	0.21248454
5	0x3deaa130	0.11456525
6	0x3d96833c	0.0734925
7	0xbf4fdb3e	-0.8119391
8	0x3d9a48b2	0.07533397
9	0xbfa479d8	-1.2849684
10	0xbfcd82fc	-1.6055598
11	0xbe840929	-0.2578824
12	0xbe1f93cd	-0.15583725
13	0xbdacf814	-0.08445755
14	0xbf34fe71	-0.70700747
15	0xbdaf58b6	-0.08561842
16	0xbe446393	-0.1917861
17	0x3e520a4d	0.20511742
18	0x3dc5c2a8	0.09656268
19	0xbf64b160	-0.8933315
20	0xbea8da85	-0.32979217
21	0xbe585d5e	-0.21129367
22	0xbff4f30e	-1.9136674
23	0xbda44b8e	-0.080222234
24	0xbfdd6d08	-1.7298899
25	0x3ee43edd	0.4457921
26	0xbf5d384b	-0.8641402
27	0xbeda3b23	-0.42623243
28	0xbfb38d67	-1.4027528
29	0xbe2f83f5	-0.17140181
30	0xbf350641	-0.7071267
31	0xbf8f6702	-1.120331
32	0xbd74fde6	-0.05981245
33	0xbed7372f	-0.4203429
34	0xc04a48a3	-3.1606834
35	0xbe265bc4	-0.16245943
36	0xbd941291	-0.07230104
37	0x3f5e3a59	0.8680778
38	0xbfe88068	-1.8164186
39	0xbe951960	-0.29120922
40	0xc00294ab	-2.040324
41	0x3e3c60d1	0.18396308
42	0xbf3d9bd7	-0.7406592
43	0xbf47635a	-0.77885973
44	0xbec83fca	-0.39111167
45	0xbe4d1e4b	-0.20031087
46	0x3e9199fe	0.284378
47	0xbc7cf27f	-0.015438675
48	0xc0067c13	-2.101323
49	0x3d9acc0b	0.07558449
50	0x3d62b489	0.055347953
51	0xbec1a440	-0.37820625
52	0xbfee7e44	-1.8632283
53	0xbfbae11a	-1.4599946
54	0xbf18a956	-0.59633386
55	0xbea04649	-0.31303623
56	0xc00e9774	-2.227994
57	0xbf79bcc4	-0.9755366
58	0xbe8c3fcf	-0.27392432
59	0xbf2ac6c0	-0.6670952
60	0xbfb7e77e	-1.4367521
61	0x3dbc26fa	0.09187122
62	0xbfc2a1b3	-1.5205597
63	0xbfbbcd7f	-1.4672087
64	0xbfe94921	-1.8225442
65	0x3f13eb80	0.5778122
66	0xbf66b9e9	-0.90127426
67	0xbf177733	-0.5916626
68	0x3f012dc7	0.50460476
69	0x3e899127	0.26868555
70	0xbf574483	-0.84088916
71	0xbde33127	-0.110933594
72	0x3e0ef443	0.13960366
73	0xbfe74a29	-1.8069507
74	0xbe4270e0	-0.18988371
75	0xbdbd3057	-0.09237736
76	0xbf237401	-0.6384888
77	0x3ec848a1	0.3911791
78	0xbf6586c6	-0.8965877
79	0xbfaa5b02	-1.3309023
80	0x3e03a6f1	0.12856652
81	0x3f04f1fd	0.51931745
82	0xc000ee71	-2.0145533
83	0x3fa1d9ed	1.2644631
84	0xbf128af7	-0.57243294
85	0x3f06a090	0.5258875
86	0x3f17a774	0.5923989
87	0xbec8a458	-0.39187884
88	0xbe98a76e	-0.2981524
89	0x3f1ee4ab	0.6206767
90	0x3e28cf64	0.16485363
91	0xbf71477e	-0.94249713
92	0x3e6fd75b	0.23421995
93	0xbf13cd3a	-0.57735026
94	0x3f3aa01a	0.72900546
95	0xbe1e12b7	-0.15436827
96	0x3d9d6a9a	0.07686348
97	0xbf4f2734	-0.80919194
98	0xbeac4e23	-0.33653364
99	0xbf1d01c1	-0.613308

2.weight_mu f4 [100, 100]
0	0xbfc971f8	-1.5737906
1	0xbe2a0a5f	-0.16605519
2	0xbe5e5d16	-0.21715197
3	0xbf2bc0c6	-0.67091024
4	0xbebbd01b	-0.3668221
5	0xbe1f3493	-0.15547399
6	0xbe41942d	-0.18904181
7	0xbe0e9f85	-0.1392804
8	0xbe9cd16f	-0.30628535
9	0xbefd1476	-0.49429673
10	0xbda1f467	-0.07907944
11	0xbdd4ab05	-0.10384182
12	0xbd9f133b	-0.0776734
13	0xbe7aea87	-0.24503528
14	0x39ebce2a	0.00044976297
15	0xbe26ef53	-0.16302232
16	0x3cf3004e	0.029663231
17	0xbe8a14dc	-0.2696904
18	0xbe16bc3e	-0.14720246
19	0xbe4bbce2	-0.19896272
20	0xbe96d486	-0.29459018
21	0xbe4bbfc7	-0.19897376
22	0xbf07d57f	-0.53060144
23	0xbe1a3529	-0.15059341
24	0xbe64e0ca	-0.22351375
25	0xbe8e973e	-0.27849764
26	0xbe82851d	-0.25492182
27	0xbe01f12a	-0.12689653
28	0xbe49bd4a	-0.19701114
29	0xbe806767	-0.2507889
30	0xbdd29765	-0.102827825
31	0xbe02cdd9	-0.12773837
32	0xbd90f234	-0.070774466
33	0xbd3dabae	-0.046306305
34	0xc031c4a7	-2.7776277
35	0xbe1ac874	-0.1511553
36	0xbe63789b	-0.22213976
37	0xbeafff26	-0.3437435
38	0xbefb34c8	-0.49063706
39	0xbd234c6b	-0.0398678
40	0xbeb5a91a	-0.35480577
41	0xbf17b5ee	-0.5926198
42	0xbe640fe4	-0.22271687
43	0xbe245220	-0.16046953
44	0xbdf30e48	-0.11867958
45	0xbdc167ba	-0.094436124
46	0xbee0018a	-0.43751174
47	0xbeaa9dbd	-0.3332347
48	0xbe649488	-0.22322285
49	0xbea9ff06	-0.3320238
50	0xbe5a799a	-0.2133545
51	0x3b9de64d	0.0048187138
52	0xbe6d6fd8	-0.23187196
53	0xbe075ff6	-0.132202
54	0x001c4e58	2.599498e-39
55	0xbe139ca8	-0.14415228
56	0xbe5a0b6e	-0.21293423
57	0xbd88b4db	-0.066751204
58	0xbe64e2ee	-0.22352192
59	0xbe3d9b9d	-0.18516393
60	0xbe761264	-0.24030453
61	0xbef2822b	-0.47364935
62	0xbf109161	-0.5647183
63	0xbe6845be	-0.22682855
64	0xbe467e80	-0.19384193
65	0xbeb5adaf	-0.35484073
66	0xbe4d0968	-0.2002312
67	0xbe00cd58	-0.12578332
68	0xbf3b535b	-0.73174065
69	0xbe808a64	-0.25105584
70	0xbe0afabc	-0.1357221
71	0xbe78e2d6	-0.24305281
72	0xbe9fade6	-0.3118736
73	0xbf845013	-1.0336937
74	0xbe51bdf4	-0.20482618
75	0xbdf89849	-0.12138421
76	0xbe88efd1	-0.26745465
77	0xbea986f3	-0.3311077
78	0xbe07162b	-0.1319205
79	0xbe023777	-0.1271647
80	0xbeaf0f6b	-0.3419145
81	0xbf162d74	-0.58663106
82	0xbfc0de7c	-1.5067897
83	0xbf5eb4ed	-0.8699482
84	0xbe0f59a7	-0.13999043
85	0xbe77ec71	-0.24211289
86	0xbf00929d	-0.50223714
87	0x004eeb68	7.247617e-39
88	0xbe6d7a8d	-0.2319128
89	0xbeda2c9e	-0.42612165
90	0xbe6828bb	-0.22671787
91	0xbe36f8f9	-0.17868413
92	0xbf11a03e	-0.56885135
93	0xbe867aa9	-0.26265457
94	0xbea2ba13	-0.31782588
95	0xbe051949	-0.12997927
96	0xbe55378e	-0.20821974
97	0x80659a50	-9.330742e-39
98	0xbe4e8abd	-0.20170112
99	0xbe946884	-0.2898599
100	0xbe762f04	-0.24041373
101	0xbe945846	-0.28973597
102	0xbed2e954	-0.4119364
103	0xbece3233	-0.40272674
104	0xbe9c26b3	-0.30498275
105	0xbeaefe65	-0.34178463
106	0xbeb6d268	-0.35707402
107	0xbeb2ab85	-0.34896484
108	0xbec5cd0f	-0.3863301
109	0x3e0f88d4	0.1401704
110	0xbe0cc8b2	-0.13748434
111	0xbe8bf68f	-0.27336547
112	0xbe644083	-0.22290234
113	0xbd63b4e9	-0.05559245
114	0x00684fa8	9.579467e-39
115	0xbe55a754	-0.20864612
116	0xbd242018	-0.04006967
117	0xbe94f509	-0.29093197
118	0xbea24a16	-0.31697148
119	0xbe9d6359	-0.3073986
120	0xbed88a24	-0.42292893
121	0xbe53abba	-0.20670977
122	0xbe44d8cb	-0.19223325
123	0xbe57ccf2	-0.21074274
124	0xbcdbc5d1	-0.026827725
125	0xbe42059d	-0.18947454
126	0xbe857a17	-0.2606971
127	0xbe9cb915	-0.30609956
128	0xbe7a863b	-0.24465267
129	0xbda40276	-0.08008282
130	0xbe72530f	-0.23664497
131	0xbec1bf3a	-0.37841207
132	0xbe4a148e	-0.19734403
133	0xbe98aa54	-0.2981745
134	0xbebee0da	-0.37280923
135	0xbe1cddde	-0.1531901
136	0xbe85844b	-0.26077494
137	0xbe708689	-0.23488821
138	0xbe835ed5	-0.2565829
139	0xbe9349bf	-0.287672
140	0x3f01d151	0.50710016
141	0xbf614c82	-0.88007367
142	0xbe5c3848	-0.21505845
143	0xbed5cdbd	-0.41758528
144	0xbe5844d0	-0.2112
145	0xbced1beb	-0.028943976
146	0xbeb881a6	-0.36036414
147	0xbe19d01b	-0.15020792
148	0x3ed255bf	0.41081044
149	0xbe91ddbf	-0.2848949
150	0xbea3d4bf	-0.3199825
151	0x3c3867a1	0.011255176
152	0xbcd3dde2	-0.025862638
153	0xbe163b7e	-0.14671132
154	0x818d45a8	-5.189517e-38
155	0xbe868553	-0.26273593
156	0x3ebbf083	0.36706933
157	0xbe44c8a5	-0.19217165
158	0xbeca83af	-0.39553592
159	0xbeb8c150	-0.36084986
160	0xbe0093f0	-0.12556434
161	0xbeab3174	-0.33436167
162	0xbe309d46	-0.17247495
163	0xbe1a7235	-0.15082629
164	0x3d833644	0.06406835
165	0xbe7fee03	-0.24993138
166	0xbe4178a7	-0.18893681
167	0xbea7c69a	-0.32768708
168	0xbeb5336c	-0.35390794
169	0xbe822f83	-0.25426874
170	0xbe84041a	-0.2578438
171	0xbe6a0db0	-0.22856784
172	0xbe3e1699	-0.18563308
173	0xbe9b8d25	-0.30381122
174	0xbe5f603c	-0.21814054
175	0xbe83a733	-0.257135
176	0xbeb79440	-0.35855293
177	0xbebf969d	-0.37419596
178	0xbe95bcde	-0.29245657
179	0xbe8bfb1d	-0.27340022
180	0xbec560cc	-0.38550413
181	0xbebc26ce	-0.36748356
182	0xbe8c6c9e	-0.27426618
183	0xbee24dfd	-0.44200125
184	0xbe99f832	-0.3007217
185	0xbe2e3220	-0.17011309
186	0xbe3ef079	-0.1864642
187	0x80026020	-2.18154e-40
188	0xbe956d09	-0.2918475
189	0xbe8b43a4	-0.27200043
190	0xbe813a25	-0.25239673
191	0xbe11274c	-0.14175147
192	0xbf21426d	-0.6299198
193	0xbe8c9930	-0.27460623
194	0xbe47f622	-0.19527486
195	0xbe71b000	-0.23602295
196	0xbe8fe834	-0.28106844
197	0x01be72b2	6.9959557e-38
198	0xbee527f3	-0.4475704
199	0xbec30295	-0.38087907
200	0xc08561eb	-4.168203
201	0xbe0e112d	-0.1387374
202	0x3ed4f728	0.41594815
203	0x3e919b64	0.28438866
204	0x3ed7c74c	0.4214424
205	0xbe233f6f	-0.15942167
206	0x3f029d71	0.51021487
207	0x3f0532ef	0.52030843
208	0x3f14cda4	0.5812628
209	0xbf1f4640	-0.6221657
210	0xbdcbdd91	-0.0995437
211	0x3e942716	0.2893607
212	0x3e7f225b	0.2491545
213	0xbd455875	-0.048180062
214	0xa2ec048e	-6.397275e-18
215	0x3ee3b489	0.44473675
216	0x3c266448	0.010155745
217	0xbdaa934a	-0.083288744
218	0x3f02a704	0.51036096
219	0x3e68ef59	0.22747554
220	0x3f038420	0.5137348
221	0xbdec98c1	-0.11552573
222	0xc0318047	-2.7734544
223	0x3ecffb07	0.40621206
224	0xbe16c8c0	-0.14725018
225	0xbfd42a87	-1.6575478
226	0xbe9acf26	-0.30236167
227	0x3eb6b7c1	0.35687068
228	0xbdb0438e	-0.08606635
229	0xbe6fc3ee	-0.23414585
230	0x3e4d2a4f	0.2003567
231	0x3e491b98	0.19639432
232	0x3e89f5ea	0.2694543
233	0x3eaf2cef	0.3421397
234	0xc0d9a04e	-6.8008184
235	0xbe34ce34	-0.17656785
236	0xbdfb247c	-0.12262818
237	0xbff01df4	-1.8759141
238	0xc076b97d	-3.8550713
239	0x3e382d81	0.17986108
240	0xbf8c9adb	-1.0984758
241	0xbe47c1fa	-0.1950759
242	0xbe522b0b	-0.20524232
243	0x3e922d86	0.28550357
244	0xbe4731d9	-0.19452609
245	0xbdec05b9	-0.11524529
246	0x3f2c87dc	0.67394805
247	0x3d37f47f	0.044910904
248	0xbf1fbd20	-0.62397957
249	0xbde59722	-0.11210467
250	0x3f1d0378	0.6133342
251	0xb8cfef72	-9.915129e-05
252	0xbe8a5837	-0.27020428
253	0xbe2695ac	-0.16268033
254	0x01383ce0	3.3839138e-38
255	0x3ec7a545	0.38993278

2.weight_log_sigma f4 [100, 100]
0	0xbe9ffe94	-0.31248915
1	0xbe623561	-0.22090675
2	0x3e162d8b	0.14665811
3	0xbe5303f6	-0.2060698
4	0xbdf6673b	-0.120314084
5	0xbcf106a3	-0.02942211
6	0xbe30d020	-0.17266893
7	0xbbdbc89f	-0.0067072655
8	0xbe01e460	-0.12684774
9	0xbe84af79	-0.25915125
10	0xbd71e35c	-0.059054717
11	0xbd18cced	-0.037304807
12	0x3dfa4e19	0.12221927
13	0xbdeab9f1	-0.11461247
14	0xba580b8a	-0.00082414655
15	0x3e500d62	0.20317605
16	0x3d1325e1	0.035924796
17	0x3da5b1de	0.08090566
18	0x3d53a2ab	0.051668804
19	0xbdde2961	-0.10847736
20	0xbe91a485	-0.2844583
21	0xbb7aa244	-0.003824369
22	0xbd2a0fd9	-0.04151902
23	0x3d9c9cb1	0.07647074
24	0xbc52809b	-0.012848045
25	0x3c355640	0.011067927
26	0xbe24eca2	-0.16105893
27	0xbeaeaead	-0.34117642
28	0xbeed6912	-0.46369225
29	0xbde4cfc4	-0.11172441
30	0xbd446577	-0.047948327
31	0xbc5ebabf	-0.013594328
32	0x3c04f16c	0.0081142
33	0x3e6060d6	0.2191194
34	0xbeb6c1da	-0.35694772
35	0x3dad0021	0.0844729
36	0xbc1481f6	-0.009064188
37	0xbed384ba	-0.413122
38	0xbdd024e9	-0.1016329
39	0xbe27339c	-0.16328281
40	0xbe850226	-0.25978202
41	0x3db8a657	0.09016102
42	0xbe854763	-0.26031026
43	0x3e11d6b6	0.14242062
44	0xbe22ae04	-0.15886694
45	0xbd62ac23	-0.055339944
46	0xbe6959f1	-0.22788216
47	0xbd1d0d00	-0.038342476
48	0xbe2780ea	-0.1635777
49	0xbee513ed	-0.44741765
50	0xbdec7545	-0.11545805
51	0x3d09754a	0.03355912
52	0xbe2d5494	-0.16926795
53	0xbe43a4dc	-0.19105858
54	0x00000000	0.0
55	0xbd86a250	-0.065739274
56	0xbd23e073	-0.040008973
57	0xbd4289c3	-0.04749466
58	0xbd9d162f	-0.07670247
59	0xbd981889	-0.07426555
60	0xbe1b5b2d	-0.151715
61	0xbe67e9f1	-0.22647835
62	0xbea007ec	-0.31256044
63	0xbc43c4c5	-0.011948769
64	0xbe0a02b4	-0.13477594
65	0xbcab65b9	-0.020922529
66	0xbd6c0696	-0.05762347
67	0xbdaa76fc	-0.08323476
68	0x3e2e25f6	0.17006668
69	0x3e17925b	0.14801924
70	0xbd9f3ca6	-0.0777524
71	0x3d86cd10	0.06582081
72	0xbe15cb22	-0.1462827
73	0xbe32aa98	-0.17447889
74	0xbd240c89	-0.040051017
75	0x3c956493	0.018236434
76	0xbd0a244f	-0.033726033
77	0xbe8fe24c	-0.28102338
78	0xbebda9de	-0.3704366
79	0xbebc8ac9	-0.36824635
80	0xbd42a1a4	-0.047517434
81	0xbeb5ebc1	-0.35531428
82	0xbd5407ce	-0.051765256
83	0xbef82e5b	-0.48472866
84	0xbeb266e5	-0.34844127
85	0xbd2d45b9	-0.04230282
86	0xbe5496a2	-0.20760587
87	0x00000000	0.0
88	0xbdd0df8d	-0.10198889
89	0x3dad1784	0.08451751
90	0xbdc4d27f	-0.096104614
91	0xb79afdb9	-1.847638e-05
92	0xbcc8572e	-0.024455633
93	0xbd470424	-0.048587933
94	0x3dd9babd	0.106313206
95	0xbd2698fc	-0.04067324
96	0xbda92a4f	-0.08260023
97	0x00000000	0.0
98	0xbeae64d3	-0.34061298
99	0xbe2211b9	-0.15827073
100	0xbd30ca96	-0.04316195
101	0xbe8abc3b	-0.27096733
102	0x3dc23fbc	0.094848126
103	0xbe3850cc	-0.17999572
104	0x3c6fdb24	0.01463965
105	0xbd05a331	-0.032626335
106	0xbdf5942f	-0.119911544
107	0x3d36ef41	0.044661764
108	0x3ec3b753	0.38225803
109	0xbf1cff76	-0.613273
110	0xbc836380	-0.016038656
111	0xbdf868fb	-0.121293984
112	0xbe0a6d17	-0.13518177
113	0x3d9892ed	0.07449899
114	0x00000000	0.0
115	0xbd7a78f3	-0.061150502
116	0x3d1fb31d	0.038989175
117	0xbe9a9132	-0.301889
118	0xbe57dd85	-0.21080597
119	0x3d1b2b37	0.03788301
120	0xbdf236c4	-0.11826852
121	0xbe308b01	-0.17240526
122	0xbbd5b17d	-0.0065214024
123	0xbde4d36f	-0.1117314
124	0xbd67aa18	-0.0565587
125	0xbdd2e78a	-0.10298069
126	0x3d376fa4	0.044784203
127	0xbe5e913d	-0.21735092
128	0xbca7aaa8	-0.020467117
129	0x3dd399bc	0.10332057
130	0xbcd74e74	-0.026282527
131	0x3ce1f2f6	0.027581673
132	0x3dba7171	0.091036685
133	0xbd247344	-0.04014899
134	0x3e0d201f	0.13781784
135	0xbdd92b05	-0.106039084
136	0xbd8eec47	-0.0697866
137	0xbd7c9974	-0.06166978
138	0x3c47673a	0.012170607
139	0xbe12af51	-0.1432469
140	0x3ed6a836	0.4192521
141	0xbe207745	-0.15670498
142	0xbe2f3671	-0.17110611
143	0xbdbdc700	-0.09266472
144	0xbe8f7bf5	-0.2802426
145	0x3d8bccc9	0.06826169
146	0x3da7cc1e	0.08193229
147	0xbdeb52c2	-0.11490394
148	0x3e258a81	0.16166116
149	0x3d804576	0.062632486
150	0x3e58ef10	0.21184945
151	0x3d4e6a01	0.050394062
152	0xbccec834	-0.025241949
153	0x3e831c7b	0.25607666
154	0x00000000	0.0
155	0xbe1805e4	-0.14845997
156	0x3d995de8	0.07488614
157	0x3e7d5aed	0.24741717
158	0xbda1f076	-0.079071924
159	0xbe674d2a	-0.2258803
160	0x3d8e0384	0.06934264
161	0xbe272bb6	-0.16325268
162	0xbe1833eb	-0.14863555
163	0x3e326ff9	0.17425527
164	0x3e766191	0.24060656
165	0xbe25ec70	-0.16203475
166	0x3c3415e2	0.010991545
167	0xbe682e93	-0.22674017
168	0x3ece9220	0.4034586
169	0xbe2018a6	-0.15634403
170	0x3c6eaa78	0.01456701
171	0xbbfc6ded	-0.007703534
172	0xbd98ef56	-0.07467525
173	0xbc459e13	-0.012061614
174	0xbc58be2d	-0.013228935
175	0x3d9d6228	0.076847374
176	0xbc9974cf	-0.018732456
177	0xbd2796f9	-0.040915463
178	0xbd89d0ce	-0.067292795
179	0xbd4c4897	-0.049873915
180	0x3b062d61	0.0020473825
181	0xbeb8e3ba	-0.36111242
182	0x3e3215c4	0.17391115
183	0xbe395c99	-0.1810173
184	0xbe2169a6	-0.15762958
185	0xbdea4a2a	-0.11439927
186	0xbe9efbc4	-0.31051457
187	0x00000000	0.0
188	0xbe0c1561	-0.1368003
189	0xbe354978	-0.17703807
190	0x3cd16df9	0.025565134
191	0xbe30a64c	-0.17250937
192	0xbe1bf26b	-0.15229194
193	0xbb794c76	-0.003803996
194	0xbece1101	-0.40247348
195	0xbe30f7b3	-0.1728199
196	0x3e4e8bb6	0.20170483
197	0x00000000	0.0
198	0xbe96d577	-0.29459736
199	0xbbe2d381	-0.006922186
200	0xbf4870f2	-0.7829734
201	0x3e8404a4	0.2578479
202	0xbf2311a4	-0.6369879
203	0xbf261627	-0.6487755
204	0xbfb1f2fc	-1.3902278
205	0xbec14565	-0.37748256
206	0xbf6c02e2	-0.921919
207	0xbf4331bc	-0.76247764
208	0xbf48c69d	-0.7842806
209	0xbd407110	-0.046982825
210	0xbe77536b	-0.24152915
211	0xbea88190	-0.32911348
212	0xbd8bc2d1	-0.06824268
213	0x3d935d27	0.07195502
214	0xb29f196f	-1.8521602e-08
215	0xbf13d86b	-0.577521
216	0xbba88efa	-0.0051439973
217	0x3b577be1	0.0032880234
218	0xbf8a847b	-1.082168
219	0xbf053699	-0.52036434
220	0xbf6914e7	-0.9104752
221	0x3dfc960e	0.12333308
222	0xbf1dcde8	-0.61642313
223	0xbf81c3ea	-1.0137913
224	0xbe3f8e17	-0.18706547
225	0xbf289945	-0.6585887
226	0xbf3ae5a0	-0.7300663
227	0xbf0900b0	-0.53516674
228	0xbf0bd95d	-0.54628545
229	0xbeb22d95	-0.348004
230	0xbf1a5783	-0.6028978
231	0xbfc1483f	-1.5100173
232	0x3f256773	0.64610976
233	0xbeedc60f	-0.4644017
234	0xbf66f871	-0.9022284
235	0xbf2e9be0	-0.68206596
236	0xbe892820	-0.26788425
237	0xbeb889fe	-0.3604278
238	0xbd88ec02	-0.0668564
239	0xbf4e3ab9	-0.80558354
240	0xbe787428	-0.2426306
241	0xbf13b1ef	-0.5769338
242	0xbebefb60	-0.3730116
243	0x3e98871b	0.29790577
244	0xbdf8d245	-0.12149481
245	0xbd651832	-0.055931278
246	0xbf86c033	-1.0527405
247	0xbf671890	-0.90271854
248	0xbeb46072	-0.35229832
249	0xbedcf376	-0.43154496
250	0xbf761b0d	-0.96135026
251	0xb5073bf6	-5.0378674e-07
252	0x3c9dba38	0.019253835
253	0xbe4509f1	-0.19242074
254	0x00000000	0.0
255	0x3dfc5f75	0.123228945

2.bias_mu f4 [100]
0	0xbf1f5260	-0.6223507
1	0xbf07574f	-0.528676
2	0x3f3a64da	0.7281014
3	0xbf4b1a23	-0.79336756
4	0xbf82806e	-1.0195444
5	0xbf1819b3	-0.59414214
6	0xbeba41cd	-0.36378327
7	0xbf0b2274	-0.54349446
8	0xbee2896a	-0.44245464
9	0xbe8c1944	-0.27363026
10	0xbecf95c8	-0.40543962
11	0xbeb58522	-0.35453135
12	0xbf833019	-1.0249053
13	0xbf107b64	-0.5643828
14	0xbea06929	-0.3133023
15	0xbefd5b05	-0.49483505
16	0xbeb3b89f	-0.35101792
17	0xbf01c704	-0.506943
18	0xbea8583f	-0.32879826
19	0xbf2ea89b	-0.6822602
20	0xbf15932d	-0.584277
21	0xbf22a698	-0.6353545
22	0xbf004cb3	-0.50117034
23	0xbef17b45	-0.4716436
24	0xbedb5e96	-0.428456
25	0xbe9e11db	-0.30872998
26	0xbf3481e0	-0.70510674
27	0xbf218aaa	-0.6310221
28	0xbf3d925f	-0.7405147
29	0xbf38a373	-0.72124404
30	0xbf27b8ac	-0.6551616
31	0xbf3c1e93	-0.7348415
32	0xbf5207a9	-0.8204294
33	0xbed9fb65	-0.4257461
34	0xbf03df62	-0.5151273
35	0xbf0fbfd8	-0.56152105
36	0xbf0f2b31	-0.5592528
37	0xbeb964fc	-0.36209857
38	0xbf21672e	-0.63048065
39	0x3e764881	0.24051096
40	0xbf2a460e	-0.66513145
41	0xbf0dea01	-0.55435187
42	0xbf10ec72	-0.56610787
43	0xbf64b851	-0.89343745
44	0xbec88201	-0.39161685
45	0xbee7c802	-0.4526978
46	0xbf3d481b	-0.7393815
47	0xbebe42a4	-0.37160218
48	0xbf1108a4	-0.5665381
49	0xbe84b394	-0.25918257
50	0xbf1d2594	-0.61385465
51	0xbf10092c	-0.56263995
52	0xbf014123	-0.50490016
53	0x3fc89c78	1.567275
54	0xbf156f43	-0.58372897
55	0xbf197479	-0.5994335
56	0xbec2869f	-0.37993333
57	0xbed77a23	-0.4208537
58	0xbeae6a0d	-0.34065285
59	0xbf5fe7e7	-0.8746323
60	0xbea17346	-0.3153326
61	0xbeabeb0e	-0.3357777
62	0xbf553c95	-0.83295566
63	0xbe59fd41	-0.21288015
64	0xbf1f2308	-0.6216283
65	0xbf1f1add	-0.62150365
66	0xbf07adb0	-0.529994
67	0xbef84fd0	-0.48498392
68	0xbf373f3c	-0.71580863
69	0xbf13a58e	-0.5767449
70	0xbef34731	-0.47515252
71	0xbf3a9c07	-0.7289433
72	0xbebad6a7	-0.36491892
73	0xbf4d8fe9	-0.80297714
74	0xbe7cb211	-0.24677302
75	0xbf4a05f4	-0.78915334
76	0xbf511971	-0.81679446
77	0xbf28aef1	-0.6589194
78	0xbf103c43	-0.5634195
79	0xbf56be59	-0.838842
80	0xbf29862b	-0.6622035
81	0x3f821fac	1.0165915
82	0xbf029537	-0.51008934
83	0xbf01338d	-0.50469285
84	0xbf0969d1	-0.5367709
85	0xbf06a81e	-0.52600276
86	0x3f9e3193	1.2358879
87	0xbefa2392	-0.48855263
88	0xbf0a7092	-0.5407802
89	0xbecdf318	-0.40224528
90	0xbf687bc9	-0.9081388
91	0xbf372b4c	-0.7155044
92	0xbf074c58	-0.52850866
93	0xbf2dd3c5	-0.6790126
94	0xbf3958ba	-0.7240101
95	0xbe94fabe	-0.2909755
96	0xbed6132a	-0.41811496
97	0xbe8cdd1b	-0.2751244
98	0xbee23dee	-0.44187874
99	0xbeccd1b4	-0.4000374

2.bias_log_sigma f4 [100]
0	0xbeca9ee0	-0.39574337
1	0xbefa5c96	-0.48898762
2	0xbf2dfbcc	-0.67962337
3	0xbcfe1e84	-0.03102041
4	0xbd7f2ff9	-0.06230161
5	0xbec54c7d	-0.38534918
6	0xbe4cee82	-0.20012859
7	0x3e022305	0.12708671
8	0xbec882f8	-0.3916242
9	0xbe9f160d	-0.3107151
10	0xbe3e4d8f	-0.18584274
11	0xbe233ba5	-0.15940721
12	0xbe861c41	-0.2619343
13	0x3eb73958	0.35785937
14	0xbe9104fb	-0.28324112
15	0x3d0998b4	0.033592895
16	0xbe65f301	-0.2245598
17	0xbe8cb3d4	-0.27480948
18	0xbe46502f	-0.19366525
19	0x3e828454	0.25491583
20	0xbea764ba	-0.32694036
21	0xbe4e90ae	-0.20172378
22	0x3e1d9532	0.15388945
23	0xbdcbc7c5	-0.099502124
24	0x3ce423f0	0.027849168
25	0xbc3c1df3	-0.01148175
26	0xbf4a4e5b	-0.7902581
27	0xbeecae1c	-0.46226585
28	0xbe758aae	-0.23978683
29	0xbeb68566	-0.3564865
30	0xbe9773c9	-0.29580525
31	0xbf769ea7	-0.96335834
32	0x3da1f1e8	0.07907468
33	0xbe561006	-0.2090455
34	0xbef0bdb2	-0.47019726
35	0xbd6f88e9	-0.058480177
36	0xbeab9f2a	-0.3351987
37	0xbdc03416	-0.093849346
38	0xbe884505	-0.26615158
39	0xbfac88de	-1.3479269
40	0xbe12790d	-0.1430399
41	0xbdd65ffe	-0.10467528
42	0xbead13fd	-0.33804312
43	0xbe6bf673	-0.23043232
44	0x3e92838f	0.28615996
45	0xbe5625b3	-0.20912819
46	0xbf62f20f	-0.886506
47	0xbed03726	-0.40667075
48	0xbe9d50ac	-0.3072561
49	0x3e0eacc0	0.13933086
50	0xbe8ef1d1	-0.27918866
51	0xbea26b0c	-0.31722295
52	0xbe3f5183	-0.18683438
53	0xbfce51d4	-1.6118722
54	0xbd999ee4	-0.07501009
55	0xbd848e6e	-0.06472479
56	0xbe8d1733	-0.27556762
57	0xbd9d9fc7	-0.07696491
58	0xbd33d075	-0.043899972
59	0xbeedb1a9	-0.46424606
60	0xbeec6d7e	-0.46177286
61	0xbdbcc007	-0.09216314
62	0xbe037c92	-0.12840489
63	0xbe8325b7	-0.25614712
64	0xbea05271	-0.31312898
65	0xbedc65a5	-0.430463
66	0x3c9475bd	0.018122548
67	0xbf30f254	-0.69119763
68	0x3e0ec13a	0.13940898
69	0xbe4788ea	-0.19485822
70	0xbf035936	-0.51308
71	0xbed947ff	-0.4243774
72	0x3de98e4b	0.11404093
73	0xbf4cd80a	-0.8001715
74	0xbe04da03	-0.1297379
75	0xbdae0870	-0.08497703
76	0xbd84af77	-0.0647878
77	0xbead2f99	-0.33825377
78	0xbc09a54b	-0.008401225
79	0xbee751a7	-0.45179483
80	0xbef2f7e1	-0.47454742
81	0xc01de543	-2.467118
82	0xbeeee929	-0.46662262
83	0xbec2640a	-0.3796695
84	0x3d9ae552	0.07563271
85	0xbda67be4	-0.08129099
86	0xbfe99a66	-1.8250244
87	0xbdcf7e7a	-0.10131545
88	0xbe5489ba	-0.20755664
89	0xbbf22576	-0.0073897196
90	0x3e4efca2	0.2021356
91	0xbe86e574	-0.26346934
92	0xbe8a7234	-0.27040255
93	0xbe1209df	-0.14261578
94	0xbe23fcb5	-0.16014369
95	0xbe0e5b78	-0.1390208
96	0x3d210cea	0.039318956
97	0x3d8cab36	0.068685934
98	0xbdf9bfa8	-0.12194759
99	0xbe96fe05	-0.29490677

4.weight f4 [1, 100]
0	0x3b5daaec	0.0033823801
1	0x3d051464	0.03249015
2	0xbd939a58	-0.07207173
3	0xbbfdcf75	-0.007745678
4	0x3d1036c4	0.03520848
5	0x3b0fdc0e	0.0021951231
6	0xbcd6390f	-0.026150255
7	0xbb24cc3d	-0.002514615
8	0x3b23bdf6	0.0024985052
9	0xbac81abb	-0.0015266755
10	0xbaca35b5	-0.0015427383
11	0x3c4867f2	0.012231814
12	0x3c635fbc	0.013877805
13	0x3cccd49c	0.025003724
14	0xba20a00c	-0.00061273645
15	0xbcb25efa	-0.021773804
16	0x3b1fd067	0.0024385692
17	0xbcfad09e	-0.030617055
18	0xbaa0802c	-0.001224523
19	0xba2e5b70	-0.00066511985
20	0xbb005455	-0.0019581516
21	0xbcbab5d3	-0.022791779
22	0xbcc7a342	-0.02436984
23	0xbcc419ed	-0.023938144
24	0x3c5ff8f1	0.013670192
25	0x3bd92835	0.0066271075
26	0x3ad406b3	0.0016176313
27	0xbb2e1528	-0.0026562903
28	0xbacb14f8	-0.001549392
29	0x3c81bfb9	0.01583849
30	0xbc0cfd8b	-0.008605371
31	0xbd414070	-0.047180593
32	0x3bf721a6	0.007541853
33	0xbc574afe	-0.013140438
34	0x3c8ff15d	0.017571146
35	0x3cbe3cfe	0.023222443
36	0x3c2e4f2f	0.010638996
37	0x3c80d1a1	0.015724959
38	0x3d70d59b	0.05879746
39	0xbac343c0	-0.001489751
40	0xbcd46204	-0.025925644
41	0xba90eaca	-0.0011056301
42	0x3cc782fd	0.024354452
43	0x3cf89729	0.030345516
44	0xbc73278d	-0.014840973
45	0x3bc8c4d3	0.006126979
46	0x3bb4cdb9	0.005517688
47	0x3cacc140	0.021088243
48	0x3cc25b05	0.023725042
49	0x3c8464a3	0.016161269
50	0xba99ac4e	-0.0011724324
51	0x3ca677d6	0.020320814
52	0x3c1fc3a7	0.009751237
53	0x3e52f526	0.20601329
54	0x3bb8153f	0.005617767
55	0x3c3c3c17	0.011488936
56	0xbba6cb01	-0.005090118
57	0xb7483c80	-1.1935015e-05
58	0x3bf5f721	0.0075062667
59	0x3d5cd0bd	0.053910006
60	0x3c8cbde3	0.017180389
61	0x3c3e978c	0.011632811
62	0xbcf59b70	-0.029981345
63	0x3c06bf2a	0.008224288
64	0x39879598	0.00025860663
65	0xbc97c4de	-0.01852649
66	0xbbbec8e6	-0.005822289
67	0x3c785899	0.015157842
68	0x3cf3b8ff	0.029751299
69	0x3d1616fa	0.036643006
70	0xbb3eb6f6	-0.0029100752
71	0x3cbe2c37	0.023214443
72	0x3b82794e	0.003981746
73	0x3d0f0187	0.034913566
74	0x3b5ee256	0.0034009418
75	0x3ceb711e	0.028740462
76	0x3bc2310e	0.005926258
77	0x3cec5ed1	0.028853806
78	0xbbbdc965	-0.0057918304
79	0x3c58a48e	0.013222827
80	0xbc16b9a8	-0.009199537
81	0xbefaa859	-0.48956564
82	0x3caa0fd4	0.0207595
83	0x3b582d8f	0.003298614
84	0xbc31e82e	-0.010858579
85	0x3c34a441	0.011025489
86	0xbe5f3412	-0.21797207
87	0x3d5640ce	0.052307896
88	0x3d1f2e0c	0.038862273
89	0xbc1484e4	-0.009064887
90	0x3a946513	0.0011321626
91	0x3d490265	0.04907455
92	0x3ba9688a	0.0051699327
93	0x3cc26caf	0.023733465
94	0x3cbc8a1e	0.023015078
95	0x3d353a9d	0.04424535
96	0xbc625d8a	-0.013816247
97	0xbc70cd4d	-0.014697385
98	0x3cf1ffb9	0.029540883
99	0x3c5f8dc9	0.013644644
