code/storage/vi_bnn--problem_B--weights.pth (torch, 85412 bytes, 7 tensors)

0.weight f4 [100, 1]
0	0x3f15bc47	0.58490413
1	0xbe07849f	-0.13234185
2	0x3d8fdfd4	0.07025114
3	0x3f02aeb0	0.510478
4	0x3c96038b	0.018312236
5	0xbd69e9c0	-0.057107687
6	0xbcbfc85a	-0.023410965
7	0xbe840f2e	-0.2579283
8	0x3c846310	0.016160518
9	0xbe83ab9b	-0.25716862
10	0x3e5f9111	0.21832682
11	0xbe1b67e8	-0.15176356
12	0x3e0a9074	0.13531667
13	0xbe32268c	-0.17397517
14	0x3f10b350	0.5652361
15	0x3d86358f	0.06553184
16	0x3f03e87a	0.51526606
17	0x3e17fbc6	0.14842138
18	0x3d591f00	0.05300808
19	0x3d34227a	0.043978192
20	0xbdc4da80	-0.09611988
21	0x3d9075c0	0.07053709
22	0x3d216171	0.039399568
23	0xbeb29765	-0.3488113
24	0x3e879a42	0.26484877
25	0x3e3951d9	0.18097629
26	0x3c919814	0.017772712
27	0xbd7306ab	-0.05933253
28	0x3da7e6f3	0.08198347
29	0x3db19f77	0.08672994
30	0x3dd49862	0.10380627
31	0xbf5ed9d2	-0.8705112
32	0x3d9cd420	0.07657647
33	0xbd9a03b8	-0.075202405
34	0x3e80058d	0.25004235
35	0x3bec59d9	0.007212859
36	0x3e803ece	0.25047916
37	0xbe37b060	-0.17938375
38	0xbdd05077	-0.101715975
39	0xbd4651a0	-0.048417687
40	0x3ed54718	0.41655803
41	0xbe3b71ec	-0.18305176
42	0x3ee0a67f	0.43877026
43	0x3c7c3ce3	0.015395376
44	0x3ca12fcc	0.019676112
45	0xbd0f343b	-0.03496192
46	0xbc163eb2	-0.009170221
47	0x3e826727	0.25469324
48	0xbd8af18a	-0.06784351
49	0x3edaada4	0.42710602
50	0x3e8ff6b5	0.2811791
51	0xbec98b25	-0.3936397
52	0x3eaba41b	0.3352364
53	0xbf0c35a6	-0.5476936
54	0x3edf362d	0.4359602
55	0xbd86451a	-0.06556149
56	0x3d009e43	0.03140093
57	0xbe4a1a0b	-0.19736497
58	0xbe27a7cc	-0.16372603
59	0x3e2ae701	0.16689683
60	0xbba98ba7	-0.0051741186
61	0xbe2f037c	-0.17091173
62	0xbe97696e	-0.29572624
63	0x3d39185a	0.04518924
64	0xbe7c7388	-0.24653447
65	0x3f0b4d6d	0.5441502
66	0xbe08e5dc	-0.13368934
67	0xbe9e2543	-0.30887803
68	0x3d8635e4	0.065532476
69	0xbe18a977	-0.14908396
70	0xbda469f0	-0.080280185
71	0x3cc83ec1	0.024443986
72	0xbd08ea7c	-0.033426747
73	0xbe7ea58a	-0.24867836
74	0x3f010da1	0.5041142
75	0x3ed6a735	0.41924444
76	0x3e3fc148	0.18726075
77	0xbe60035e	-0.21876284
78	0x3c82099c	0.015873723
79	0x3dba1300	0.09085655
80	0x3f09c255	0.5381215
81	0x3eb2b5bc	0.34904277
82	0x3d711f0b	0.058867496
83	0x3db4ffa8	0.08837825
84	0xbcc48080	-0.023987055
85	0x3d4de683	0.05026866
86	0xbd260f1e	-0.04054176
87	0x3de132e0	0.10996032
88	0xbdc75010	-0.097320676
89	0xbc302d58	-0.010752998
90	0xbc4ed57c	-0.012624141
91	0x3ea18a8d	0.31551018
92	0xbe2a2f70	-0.16619658
93	0xbeb30bb7	-0.34969875
94	0xbd500fd5	-0.05079635
95	0x3d349cca	0.04409484
96	0x3e3a0721	0.18166782
97	0x3d8f423c	0.06995055
98	0x3e717ad8	0.23582017
99	0x3dfdd4e8	0.12394124

0.bias f4 [100]
0	0xbfbdab1b	-1.4817842
1	0xbedfd603	-0.43717965
2	0x3e4ef75b	0.20211546
3	0xbfa025ff	-1.2511595
4	0x3e051d95	0.12999566
5	0xbf4e3430	-0.8054838
6	0xbdcbf1ce	-0.0995823
7	0xbf516a64	-0.81802964
8	0x3c68f5cf	0.014218762
9	0xbf1f5dd6	-0.6225256
10	0xbf749a36	-0.9554781
11	0xbece61b4	-0.40308917
12	0xbee565fd	-0.44804373
13	0xbeb624ec	-0.35575044
14	0xbfb46662	-1.4093745
15	0x3e0a1918	0.13486135
16	0xbfaf111a	-1.3677094
17	0xbe3eaea6	-0.1862131
18	0x3e19897c	0.14993852
19	0x3e8f9e96	0.2805068
20	0xbf064804	-0.5245364
21	0x3e2e0df8	0.16997516
22	0x3dc17871	0.094468005
23	0xbf8f212e	-1.1182001
24	0xbf491ca0	-0.78559303
25	0xbeed803e	-0.46386904
26	0xbd98e6ad	-0.07465873
27	0xbc7fae3d	-0.0156055065
28	0x3e874a23	0.2642375
29	0xbe0b9280	-0.13630104
30	0xbea3fb9d	-0.32027903
31	0xbfa1caf8	-1.2640066
32	0xbeceb960	-0.40375805
33	0xbdecabf6	-0.115562364
34	0xbf585b11	-0.84513956
35	0xbd3d1807	-0.046165492
36	0xbf2cb908	-0.67469835
37	0xbf698824	-0.9122336
38	0xbe9bfc43	-0.30465898
39	0xbe62bcb8	-0.22142303
40	0xbf50f665	-0.8162597
41	0xbf0a9d47	-0.54146236
42	0xbf9d98d9	-1.231227
43	0x3cdaea8f	0.026723174
44	0xbdeabc52	-0.114617005
45	0xbdd3f980	-0.10350323
46	0xbd1ab950	-0.037774384
47	0xbf60a916	-0.87758005
48	0xbe5c5fdd	-0.21520944
49	0xbf4cfabe	-0.800701
50	0xbf6a371d	-0.91490346
51	0xbf9cba6f	-1.2244395
52	0xbf91392f	-1.1345576
53	0xbfb8beb6	-1.44332
54	0xbfad0662	-1.3517573
55	0xbe69d8f3	-0.22836666
56	0x3d69c42e	0.057071857
57	0xbf244717	-0.64170974
58	0xbef41b6b	-0.47677168
59	0xbf723123	-0.94606227
60	0xbdeb9218	-0.115024745
61	0xbe494dd3	-0.19658594
62	0xbf6e63a7	-0.9312081
63	0x3e52e7c5	0.20596226
64	0xbf4b9919	-0.79530483
65	0xbfdab6ab	-1.7086996
66	0xbec0f2c9	-0.3768523
67	0xbf4efcc4	-0.8085444
68	0x3e146fa5	0.14495714
69	0xbec96048	-0.3933127
70	0xbf323e94	-0.69626737
71	0x3ccd5355	0.02506415
72	0x3bacc5ca	0.0052726017
73	0xbf27b9b7	-0.65517753
74	0xbf0d7b86	-0.55266607
75	0xbfad0bb6	-1.3519199
76	0xbf7c0b7e	-0.98455036
77	0xbf075fa8	-0.52880335
78	0x3e0efdfb	0.13964073
79	0xbebd1812	-0.36932427
80	0xbf640e3f	-0.8908424
81	0xbf818fd9	-1.0122024
82	0x3caf77b1	0.021419378
83	0xbe9f19ba	-0.31074315
84	0xbf584d2e	-0.84492767
85	0x3df7f7a4	0.121077806
86	0xbdfd5b11	-0.12370885
87	0xbe1aec00	-0.1512909
88	0xbf1093a2	-0.5647527
89	0x3b90abb8	0.0044150017
90	0xbd5bfc8c	-0.053707644
91	0xbf0b3f38	-0.5439334
92	0xbf078f52	-0.52953064
93	0xbf8d5487	-1.1041421
94	0xbdf4ff68	-0.119627774
95	0x3dbf7a33	0.093494795
96	0xbf1cd2a4	-0.6125891
97	0x3e08ea12	0.1337054
98	0xbf0f168b	-0.5589377
99	0xbd6ecd67	-0.058301356

2.weight_mu f4 [100, 100]
0	0x3cf3c110	0.029755145
1	0xbe8890f9	-0.26673105
2	0xbe9930e4	-0.29920113
3	0x3e17fe06	0.14842996
4	0xbe8426aa	-0.25810748
5	0x003b2d30	5.434504e-39
6	0xbe25c6a0	-0.1618905
7	0xbe9b8bb9	-0.30380037
8	0xbe272e5a	-0.16326275
9	0xbe194735	-0.1496857
10	0x3dc32b1c	0.09529707
11	0xbe44b3ce	-0.19209215
12	0xbd31fcce	-0.043453984
13	0xbe677b29	-0.22605576
14	0x3e088b5f	0.13334416
15	0xbd25dcf3	-0.040493917
16	0x3c8b14d6	0.016977709
17	0xbd610533	-0.0549366
18	0xbef00792	-0.46880776
19	0xbec9f0f7	-0.39441654
20	0x0136778c	3.351389e-38
21	0xbe43ea16	-0.19132265
22	0x3c8f5795	0.017497817
23	0xbead56cc	-0.33855283
24	0x3d5f1c97	0.054470625
25	0xbd384268	-0.044985205
26	0xbd1feaa4	-0.03904213
27	0xbe489131	-0.19586636
28	0xbe5ac292	-0.21363285
29	0xbdd2b2f0	-0.10288036
30	0xbdbac9f4	-0.09120551
31	0xbf53646c	-0.82575107
32	0x00327dd8	4.636919e-39
33	0xbe40eba1	-0.18839885
34	0x3b5e36ca	0.0033907169
35	0x3d294b2e	0.041331463
36	0xbd65bdb5	-0.05608912
37	0x81aa2104	-6.249551e-38
38	0xbe4fb23f	-0.20282839
39	0x0154eccc	3.9108144e-38
40	0xbd46e952	-0.048562355
41	0xbe612656	-0.2198728
42	0x3e3b9b7f	0.18321036
43	0xbdc25afa	-0.09490009
44	0xbbb37377	-0.005476411
45	0xbe84a85b	-0.25909695
46	0xbe20569d	-0.1565804
47	0xbd78868f	-0.0606752
48	0xbe7a3156	-0.24432883
49	0xbdc619b4	-0.09672871
50	0x3d91cb32	0.071188346
51	0xbea51cbd	-0.32248488
52	0x3cf7e2ec	0.030259572
53	0xbebb25c7	-0.3655226
54	0x3d948d18	0.07253474
55	0xbe489a73	-0.19590168
56	0xbe9b7ed3	-0.30370197
57	0xbeb6deb6	-0.3571679
58	0xbe8ba3f2	-0.27273518
59	0x33f8d698	1.1587434e-07
60	0xbe4db645	-0.20089062
61	0xbe85d34d	-0.26137772
62	0xbe4b8d13	-0.19878034
63	0xbea72c68	-0.32651067
64	0xbe12739c	-0.14301914
65	0x3ba1335b	0.004919452
66	0xbe91a9de	-0.2844991
67	0xbe8b3de7	-0.27195665
68	0xbea6385f	-0.32464883
69	0xbe3ad351	-0.18244673
70	0x81484138	-3.678099e-38
71	0xbeddbd66	-0.43308562
72	0xbe3771cf	-0.17914508
73	0xbe40ffaa	-0.18847528
74	0xbdf0c40b	-0.11756142
75	0x3e09a392	0.13441303
76	0x802fad68	-4.378475e-39
77	0xbe48fdb1	-0.19628026
78	0xbeb0cf6a	-0.34533244
79	0x3d7082da	0.05871854
80	0x3da28e60	0.07937312
81	0xbc512493	-0.012765068
82	0xbd2d3272	-0.042284437
83	0xbdba2920	-0.09089875
84	0x800e62b0	-1.3211e-39
85	0xbe09ae13	-0.1344531
86	0xbe5348dd	-0.20633264
87	0x3a2128ea	0.0006147759
88	0x0106a024	2.4726808e-38
89	0xbe230f56	-0.15923819
90	0x3d427f71	0.04748482
91	0xbdcb947e	-0.09940432
92	0xbe12feba	-0.14354983
93	0xbe2aad3a	-0.16667643
94	0xbe59fa9b	-0.21287005
95	0xbe222163	-0.15833049
96	0x3d054461	0.032535914
97	0xbebafd7b	-0.36521515
98	0xbb0bc624	-0.0021327818
99	0xbd9cfa73	-0.07664957
100	0xbe9b904e	-0.30383533
101	0xbcae0803	-0.021244055
102	0xbed3a08b	-0.41333422
103	0xbe76873b	-0.24075024
104	0xbe5583ef	-0.2085111
105	0x81736194	-4.470206e-38
106	0xbde8c4a3	-0.113656305
107	0x3b9a15de	0.004702314
108	0xbdfd78e7	-0.12376576
109	0xbe02591c	-0.12729305
110	0xbdc6f03b	-0.09713789
111	0xbe065a63	-0.13120417
112	0xbe86bc0a	-0.26315337
113	0xbe1abfb0	-0.15112185
114	0xbebb5e79	-0.36595514
115	0xbebb3636	-0.36564797
116	0xbeb5338a	-0.35390884
117	0xbe604519	-0.21901359
118	0xbeacf9c1	-0.33784297
119	0xbe8a86e2	-0.27056032
120	0x816553ac	-4.212069e-38
121	0xbe5ef7eb	-0.2177426
122	0xbe936cbd	-0.28793898
123	0xbdb7c7e8	-0.08973676
124	0xbe77f153	-0.24213152
125	0xbe5bacb0	-0.21452594
126	0xbe74f2de	-0.23920771
127	0xbdd28848	-0.102799
128	0xbeeb8bd3	-0.46005115
129	0xbe8c485a	-0.2739895
130	0xbe62d7bd	-0.2215261
131	0x3e818c91	0.25302556
132	0x004a4a18	6.822407e-39
133	0xbe58e1a5	-0.21179827
134	0xbea5604c	-0.3230003
135	0xbe531210	-0.20612359
136	0xbe961356	-0.29311627
137	0x003ae278	5.4077e-39
138	0xbe628136	-0.22119603
139	0x80db4820	-2.0137847e-38
140	0xbec7719c	-0.38953865
141	0xbb01372f	-0.001971673
142	0xbe71d47b	-0.23616211
143	0xbe940fc6	-0.28918284
144	0xbd4c4577	-0.049870934
145	0xbe641bda	-0.2227625
146	0xbe7e9015	-0.2485965
147	0xbe7fc483	-0.24977307
148	0xbdbc692e	-0.09199749
149	0xbeff29f9	-0.4983671
150	0xbe8d25c1	-0.27567866
151	0xbb127d04	-0.0022352347
152	0xbe8a1cf6	-0.2697522
153	0x3e461831	0.19345166
154	0xbe93a2d8	-0.28835177
155	0xbd996e47	-0.07491737
156	0xbe84c06f	-0.25928065
157	0xbe2ccac2	-0.16874221
158	0xbd5bb3aa	-0.053638138
159	0x00e46e28	2.097801e-38
160	0xbe5927f4	-0.21206647
161	0xbe03b94a	-0.12863651
162	0xbc51ffa2	-0.012817295
163	0xbe804dd4	-0.25059378
164	0xbd8e4250	-0.06946242
165	0xbe8c135d	-0.27358523
166	0xbd081b4e	-0.033229165
167	0xbe4037d2	-0.18771294
168	0xbebc675e	-0.36797613
169	0xbe49444b	-0.19654958
170	0x80abc458	-1.5774305e-38
171	0xbe8e9530	-0.27848196
172	0xbd46e897	-0.04856166
173	0xbc7e2bec	-0.0155134015
174	0xbf4ef37f	-0.80840296
175	0xbea9a356	-0.33132428
176	0x00bb1e38	1.7184078e-38
177	0xbe2131e4	-0.15741688
178	0xbdfdfaea	-0.12401374
179	0xbe79a65a	-0.24379864
180	0xbeb3a60b	-0.35087618
181	0xbecdf88f	-0.40228698
182	0xbe74c922	-0.23904851
183	0xbe776552	-0.24159744
184	0x80b40c70	-1.6534851e-38
185	0xbee13507	-0.4398577
186	0xbd8d4c7a	-0.06899352
187	0xbea09d48	-0.31369996
188	0x015fba14	4.1092136e-38
189	0xbda6009d	-0.08105586
190	0xbe517729	-0.20455612
191	0xbe6c5537	-0.23079382
192	0xbaf918f5	-0.001900463
193	0x3d3eb351	0.04655773
194	0xbe356c5d	-0.17717119
195	0xbe8b0324	-0.27150834
196	0xbe56ce04	-0.20977026
197	0xbea139cb	-0.31489405
198	0xbe5a7929	-0.21335281
199	0xbe8b7eb4	-0.27245104
200	0xbe86927f	-0.26283643
201	0xbe981f1c	-0.29711235
202	0xbed0255b	-0.406535
203	0xbe26c3ed	-0.16285677
204	0xbe772b27	-0.24137555
205	0x80e035b8	-2.0590422e-38
206	0xbead9ac3	-0.33907136
207	0xbe747d92	-0.23876026
208	0xbe9a0323	-0.30080518
209	0xbea39510	-0.31949663
210	0xbdf0b3e4	-0.117530614
211	0xbe537745	-0.20650966
212	0xbde19fd3	-0.11016812
213	0xbea026a8	-0.31279492
214	0x3c98df3a	0.01866113
215	0xbe984487	-0.29739782
216	0xbe74d5fd	-0.23909755
217	0xbe86bbf2	-0.26315266
218	0xbec26c6b	-0.3797334
219	0xbef65b8f	-0.4811673
220	0x00bd9b90	1.7412714e-38
221	0xbec29197	-0.380017
222	0xbe058b8e	-0.13041517
223	0xbe87e700	-0.26543427
224	0xbe789f8c	-0.24279612
225	0xbeb1ee22	-0.34751993
226	0xbe89397c	-0.2680167
227	0xbe7fad87	-0.24968539
228	0xbeb6a5e2	-0.35673434
229	0xbe150e43	-0.14556222
230	0xbe0b404f	-0.1359875
231	0xbf263a35	-0.64932567
232	0x01541e10	3.895982e-38
233	0xbea47b78	-0.3212545
234	0xbddcec14	-0.10787216
235	0xbe1ae314	-0.15125686
236	0xbe587c42	-0.2114115
237	0x015ec864	4.0918734e-38
238	0xbeae0b36	-0.33992928
239	0x81a44b46	-6.03521e-38
240	0xbe9007ac	-0.28130853
241	0xbe94f1ac	-0.2909063
242	0xbdf9ca53	-0.121967934
243	0xbe9492db	-0.29018292
244	0xbcec019b	-0.02880936
245	0xbe8f9792	-0.28045326
246	0xbeb6bf33	-0.35692748
247	0xbe775059	-0.24151744
248	0xbea63489	-0.32461956
249	0xbef7f259	-0.48427084
250	0xbe5f16d0	-0.21786046
251	0xbed0e793	-0.40801677
252	0xbe80901f	-0.25109956
253	0xbecc879e	-0.39947218
254	0xbe857316	-0.26064366
255	0xbe81378c	-0.2523769

2.weight_log_sigma f4 [100, 100]
0	0x3da35824	0.07975796
1	0x3b04f735	0.0020288948
2	0xbc59c401	-0.01329136
3	0x3dc450ee	0.095857486
4	0xbd857aca	-0.06517561
5	0x00000000	0.0
6	0xbdabd055	-0.083893456
7	0xbdca32d5	-0.09872977
8	0xbe178cd4	-0.14799815
9	0xbd8d02d1	-0.06885303
10	0x3d87ef22	0.06637408
11	0xbca53a92	-0.02016953
12	0xbd3d148a	-0.046162166
13	0xbb4da637	-0.003137959
14	0xbd78eb37	-0.060771193
15	0xbd87c4c7	-0.06629329
16	0xbd76d7ee	-0.06026452
17	0x3d2b1313	0.041766237
18	0xbd8a0e61	-0.06741024
19	0x3da6da15	0.081470646
20	0x00000000	0.0
21	0x3dc3e99e	0.09566043
22	0x3c7c276c	0.015390258
23	0xbd6cb547	-0.057790067
24	0xbd809371	-0.06278122
25	0xbd36193b	-0.044457655
26	0xbddc7aaa	-0.10765584
27	0xbe1e22a7	-0.15442906
28	0xbd0b9dca	-0.034086026
29	0xbde6a927	-0.11262732
30	0x3d9c9aca	0.07646711
31	0xbe5a51fd	-0.21320339
32	0x00000000	0.0
33	0xbccb0013	-0.024780309
34	0xbd3b2645	-0.045690794
35	0xbe0b2071	-0.13586594
36	0x3b185865	0.0023246047
37	0x00000000	0.0
38	0x3c0232cd	0.007946682
39	0x00000000	0.0
40	0xbc99352f	-0.018702118
41	0xbdadf903	-0.08494761
42	0xbd092c61	-0.03348959
43	0xbc48a204	-0.012245659
44	0x3d64cbdf	0.05585849
45	0xbc947f00	-0.018126965
46	0x3c623b38	0.013808064
47	0x3d784076	0.06060835
48	0xbe0a10ca	-0.13482967
49	0x3e62a257	0.2213224
50	0xbe289259	-0.16462077
51	0x3aa9cb11	0.0012954195
52	0xbd92a956	-0.071612045
53	0xbd99cf22	-0.075102106
54	0x3c0f33b0	0.008740351
55	0xbd638e51	-0.055555645
56	0xbcb6ad40	-0.022299409
57	0xbd028dfb	-0.031873684
58	0xbd97f68e	-0.074200734
59	0x3342569b	4.5247912e-08
60	0xbdc1393f	-0.09434747
61	0xbd558611	-0.05212981
62	0xbd0bca91	-0.03412873
63	0xbd8e557e	-0.069499
64	0x3ae46f92	0.001742827
65	0x3da14679	0.0787477
66	0xbddd8dad	-0.10818038
67	0xbdf01adb	-0.11723872
68	0x3d653591	0.055959288
69	0xbdf2ab35	-0.118490614
70	0x00000000	0.0
71	0x3d0525ef	0.03250688
72	0xbba64e8b	-0.005075281
73	0xbd938dd0	-0.07204783
74	0xbdb9e11c	-0.09076139
75	0xbce8eab4	-0.028432228
76	0x00000000	0.0
77	0x3c3c8730	0.011506841
78	0x3cd25b8c	0.025678419
79	0xbdfcfce2	-0.12352921
80	0x3d8c6cb5	0.06856672
81	0x3ea28635	0.31743017
82	0xbb306cb8	-0.002692027
83	0x3d507bfe	0.0508995
84	0x00000000	0.0
85	0xbdf5130c	-0.119665235
86	0xbda061f5	-0.07831184
87	0x3c9fabf3	0.019491171
88	0x00000000	0.0
89	0xbe24d024	-0.16095024
90	0x3cc28850	0.02374664
91	0xb9bc4765	-0.00035911347
92	0xbdb5c309	-0.08875091
93	0xbd2e02b1	-0.042483035
94	0xbd205d18	-0.03915128
95	0xbd70bc55	-0.058773357
96	0xbd19a08e	-0.037506633
97	0xbec4f334	-0.384668
98	0xbde52ae1	-0.11189819
99	0xbd96d997	-0.07365721
100	0xbdd396e9	-0.10331518
101	0x3e09f51a	0.13472405
102	0xbe07876d	-0.13235255
103	0xbda49c16	-0.080375835
104	0xbdc8646f	-0.09784781
105	0x00000000	0.0
106	0x3dc5f7c9	0.09666402
107	0x3cafe6c4	0.021472342
108	0xbe466ebb	-0.19378178
109	0x3dd5d9b6	0.10441916
110	0x3c85a08f	0.016311912
111	0x3e692b51	0.2277043
112	0xbdbe8d14	-0.09304252
113	0xbd8d961c	-0.06913397
114	0xbdc734cb	-0.09726866
115	0xbe4726bf	-0.19448374
116	0xbe8e0586	-0.2773859
117	0xbe1856dc	-0.14876884
118	0xbe6fd805	-0.23422249
119	0xbe3be490	-0.18348908
120	0x00000000	0.0
121	0xbce28a73	-0.027653908
122	0x3b98f981	0.004668415
123	0x3e2f533f	0.171216
124	0xbd530f33	-0.051528167
125	0xbe1396d2	-0.14413002
126	0xbd55deba	-0.05221436
127	0xbe1e2710	-0.15444589
128	0xbdde6372	-0.108588114
129	0x3de97888	0.11399943
130	0xbe03455d	-0.12819429
131	0x3ec911ff	0.39271542
132	0x00000000	0.0
133	0xbcc24515	-0.023714582
134	0xbdbc7f71	-0.09203995
135	0xbd876679	-0.06611342
136	0xbe80d040	-0.25158882
137	0x00000000	0.0
138	0xbd4d183c	-0.05007194
139	0x00000000	0.0
140	0x3c3a9ffc	0.011390682
141	0xbc0d765f	-0.008634179
142	0xbd4e0904	-0.050301567
143	0xbd83d055	-0.064362206
144	0x3dccfdc1	0.10009337
145	0xbcb1f332	-0.02172241
146	0x3cdf39b2	0.027249191
147	0xbda7aac4	-0.08186868
148	0xbc9f12ed	-0.019418204
149	0xbd8478bb	-0.0646834
150	0x3d8ab42a	0.06772645
151	0xbd10f77d	-0.035392273
152	0x3d153876	0.0364308
153	0xbe9aced0	-0.3023591
154	0xbe00cace	-0.12577364
155	0xbd9d4dbb	-0.076808415
156	0xbd578f88	-0.052627116
157	0x3dbe0f93	0.09280314
158	0xbd9266de	-0.071485266
159	0x00000000	0.0
160	0x3dec4208	0.11536032
161	0xbe339327	-0.17536603
162	0x3d758067	0.059936907
163	0xbdc815a9	-0.09769756
164	0xbdf13277	-0.117772035
165	0xbe51b39b	-0.2047867
166	0x3e1dddc3	0.15416627
167	0xbe1f3f1e	-0.15551421
168	0x3ad89e47	0.0016526663
169	0x3db2d807	0.0873261
170	0x00000000	0.0
171	0xbe2566fe	-0.1615257
172	0xbe636eba	-0.22210208
173	0xbdee44f9	-0.11634249
174	0x3e00d081	0.12579538
175	0x3dcdd9c1	0.10051299
176	0x00000000	0.0
177	0xbe0d1699	-0.13778152
178	0xba6e25d7	-0.0009084618
179	0x3d7d4b33	0.061839294
180	0x3cd3b6cc	0.025844
181	0xbde7f6dc	-0.113263816
182	0xbd4a942f	-0.049457725
183	0xbe0f78b2	-0.14010885
184	0x00000000	0.0
185	0xbd627342	-0.0552857
186	0xbdf4db11	-0.11955846
187	0xbdf65a15	-0.120289005
188	0x00000000	0.0
189	0x3dda0f59	0.106474586
190	0xbdd08fec	-0.10183701
191	0xbe540adc	-0.20707268
192	0x3e1d870f	0.15383552
193	0xbd9575a3	-0.07297828
194	0x3dde4cfd	0.10854528
195	0x3db2ea21	0.08736063
196	0xbdd23860	-0.10264659
197	0xbea10a77	-0.31453297
198	0x3c1ef225	0.009701286
199	0xbdb6c187	-0.08923631
200	0x3c5b7e4d	0.013396812
201	0xbe55550f	-0.20833229
202	0x3e62bb55	0.22141774
203	0x3e0cf264	0.1376434
204	0xbd9f9ce3	-0.07793596
205	0x00000000	0.0
206	0xbdf9426e	-0.121708736
207	0xbe5bff80	-0.21484184
208	0x3ce60e0b	0.028082868
209	0xbdd3f884	-0.10350135
210	0xbd7b5b06	-0.061366104
211	0xbe752ecb	-0.23943631
212	0xbda27512	-0.07932486
213	0x3d0453bd	0.03230642
214	0x3e0be6f4	0.1366232
215	0xbd8eceed	-0.06973062
216	0xbcdd7d12	-0.027037177
217	0x3e762ba8	0.24040091
218	0xbea15319	-0.3150871
219	0x3da1226e	0.07867895
220	0x00000000	0.0
221	0xbe7bccb8	-0.24589813
222	0xbe35c823	-0.17752127
223	0xbc75a376	-0.014992585
224	0xbece371a	-0.40276414
225	0xbd857671	-0.065167315
226	0xbb187b64	-0.0023266906
227	0xbe3571a0	-0.17719126
228	0xbe0bf311	-0.13666941
229	0x3ce9f324	0.028558321
230	0xbe3ab874	-0.18234426
231	0xbf086da4	-0.532923
232	0x00000000	0.0
233	0xbe2c0971	-0.16800477
234	0x3e142aef	0.14469503
235	0x3d00a098	0.031403154
236	0xbeb1a6ab	-0.3469747
237	0x00000000	0.0
238	0x3e044b98	0.12919462
239	0x00000000	0.0
240	0xbea09e99	-0.31371
241	0x3e091a6a	0.13388982
242	0xbe2d4b0e	-0.16923162
243	0x3d178bdc	0.036998615
244	0xbd3ec35c	-0.046573028
245	0xbd62e50b	-0.055394214
246	0xbe89f247	-0.26942655
247	0xbe29c75b	-0.16579954
248	0xbd71a686	-0.0589967
249	0x3ea4b1e9	0.32166985
250	0xbd3ca209	-0.046052966
251	0xbd45ef5d	-0.048323978
252	0xbd09ccd8	-0.03364262
253	0x3d73f5ee	0.05956071
254	0x3dddfabb	0.10838839
255	0xbda49e4e	-0.08038007

2.bias_mu f4 [100]
0	0xbed204a6	-0.4101917
1	0xbebf8c79	-0.3741186
2	0xbedcd05f	-0.43127725
3	0xbe93badf	-0.2885351
4	0xbe00913a	-0.125554
5	0xbefacbaa	-0.48983508
6	0xbf2212d3	-0.63309973
7	0xbe82e0be	-0.2556209
8	0xbe13ad91	-0.14421679
9	0xbe3dad7b	-0.18523209
10	0xbeb5399e	-0.3539552
11	0xbeb3ca9c	-0.35115516
12	0xbe8fc3e6	-0.28079146
13	0xbebeff29	-0.37304047
14	0xbe9e3c87	-0.30905554
15	0xbe86fb28	-0.26363492
16	0xbe52619b	-0.20545046
17	0xbeba0cd3	-0.3633791
18	0xbe904252	-0.28175598
19	0xbe93107d	-0.28723517
20	0xbeb1fee2	-0.34764773
21	0xbe38b1a0	-0.18036509
22	0xbeb4bb80	-0.352993
23	0xbec309e4	-0.38093483
24	0xbe9c62d1	-0.3054414
25	0xbe6da64f	-0.23207973
26	0xbebec8db	-0.37262616
27	0xbea90c11	-0.33017018
28	0xbea1b693	-0.31584606
29	0xbe95bce6	-0.2924568
30	0xbdddaa30	-0.10823476
31	0xbe177443	-0.14790444
32	0x3ebc7be8	0.36813283
33	0xbe9c42d7	-0.30519745
34	0xbf02438b	-0.5088431
35	0xbec560fc	-0.38550556
36	0x3ebc4c13	0.3677679
37	0xbf2bbf3b	-0.6708867
38	0xbed4b8b8	-0.4154718
39	0x3e275571	0.16341187
40	0xbf0e4f03	-0.5558931
41	0xbebec71d	-0.37261286
42	0xbe7ab082	-0.24481395
43	0xbe3db779	-0.1852702
44	0xbecaddd0	-0.39622355
45	0xbe261d01	-0.16222002
46	0xbe95969e	-0.29216474
47	0xbed9e87c	-0.42560184
48	0xbe8e9cfb	-0.27854142
49	0xbe5a1050	-0.21295285
50	0xbe0e1fad	-0.13879271
51	0xbe93cb88	-0.2886622
52	0xbf1f5909	-0.6224523
53	0xbe857c59	-0.26071432
54	0xbd820854	-0.06349245
55	0x3e2a12f7	0.16608797
56	0xbe989cca	-0.2980712
57	0xbd8a737b	-0.067603074
58	0xbef09675	-0.4698979
59	0xbe6ed087	-0.23321734
60	0xbe355f58	-0.17712152
61	0xbe861d2f	-0.2619414
62	0xbecc394c	-0.39887464
63	0xbe551c8f	-0.20811675
64	0xbec6a922	-0.38800913
65	0xbf193456	-0.59845483
66	0xbe42b73e	-0.19015214
67	0xbe94b2d5	-0.29042688
68	0xbec1cae4	-0.37850106
69	0xbde4510b	-0.1114827
70	0xbea6a7df	-0.3254995
71	0xbe62bb2d	-0.22141714
72	0xbedf1143	-0.43567857
73	0xbe7e2195	-0.24817498
74	0xbe636ad4	-0.2220872
75	0xbe27b826	-0.16378841
76	0xbebcc81f	-0.3687143
77	0xbea188f9	-0.31549814
78	0xbe66629c	-0.22498554
79	0xbef3db72	-0.4762836
80	0xbe6df37c	-0.23237413
81	0xbe8381f6	-0.2568509
82	0xbdbd5270	-0.09244239
83	0xbe5001ba	-0.20313159
84	0xbca247ce	-0.01980963
85	0xbea97c6a	-0.33102733
86	0xbf1eda91	-0.62052256
87	0xbe5e0d80	-0.21684837
88	0xbebed183	-0.3726922
89	0xbecd196d	-0.4005846
90	0xbe9c44f4	-0.30521357
91	0xbe47835d	-0.19483705
92	0xbe951f65	-0.29125515
93	0xbe021b96	-0.12705836
94	0xbee54a7f	-0.44783399
95	0x3e08a885	0.13345535
96	0xbe7831fe	-0.2423782
97	0xbec4cfae	-0.38439697
98	0xbe92f1fc	-0.28700244
99	0xbe68e826	-0.22744808

2.bias_log_sigma f4 [100]
0	0xbdb8dc6e	-0.090264186
1	0xbdf628c4	-0.12019494
2	0xbda6c999	-0.081439205
3	0xbeda6d0a	-0.42661315
4	0xbefcee02	-0.49400336
5	0xbe92553b	-0.2858065
6	0xbe711b25	-0.23545511
7	0xbdfc8a98	-0.12331122
8	0xbdbc1a82	-0.091847435
9	0x3d847bc5	0.0646892
10	0xbde3f60e	-0.111309156
11	0xbe3421e7	-0.17591058
12	0x3de7efac	0.11325011
13	0x3d02bc7d	0.031918038
14	0xbdcce603	-0.10004809
15	0xbe2aa6f6	-0.16665253
16	0x3db758b0	0.08952463
17	0xbdca6369	-0.09882242
18	0xbe07fe1d	-0.1328053
19	0xbe6fe585	-0.23427399
20	0xbe1a8de4	-0.1509319
21	0xbd69b62d	-0.057058502
22	0xbe15886b	-0.1460282
23	0xbe20982d	-0.1568305
24	0xbe3aa7d9	-0.18228091
25	0xbdce2bbc	-0.100669354
26	0x3c570559	0.013123834
27	0xbd136daa	-0.035993256
28	0x3cac9565	0.02106733
29	0x3b13f9f6	0.0022579408
30	0x3dd9bec3	0.10632088
31	0xbe1b1389	-0.15144171
32	0xbfa0697c	-1.2532191
33	0xbdf80a01	-0.12111283
34	0xbddf8198	-0.1091339
35	0xbd275476	-0.040852033
36	0xbf686abf	-0.9078788
37	0xbe19c5c6	-0.15016851
38	0xbdb1c6c4	-0.0868049
39	0xbf8ecb30	-1.1155758
40	0xbd847d4a	-0.064692095
41	0xbe6b1692	-0.22957829
42	0xbea1cec4	-0.31603062
43	0xbe18866d	-0.1489503
44	0xbe29084c	-0.16507071
45	0xbe240162	-0.16016153
46	0xbe88479f	-0.26617143
47	0x3e317f72	0.17333773
48	0xbe858350	-0.26076746
49	0xbbdc2327	-0.0067180577
50	0x3cda5b9c	0.02665501
51	0xbe910a53	-0.2832819
52	0xbb7fe315	-0.0039045264
53	0xbdd5d25f	-0.10440516
54	0xbe4f31a0	-0.20233774
55	0xbf43b240	-0.7644386
56	0xbd96d180	-0.07364178
57	0xbd9f7ff5	-0.07788078
58	0xbe9f6521	-0.31131843
59	0xbdefe9dd	-0.11714528
60	0xbe210789	-0.1572553
61	0xbe2af5a4	-0.16695267
62	0xbd936b71	-0.07198227
63	0xbdbba75c	-0.09162781
64	0xbe525b31	-0.205426
65	0xbdf34d78	-0.1188001
66	0xbe1af101	-0.15130998
67	0xbdadfa8e	-0.08495055
68	0xbe3e4a7b	-0.185831
69	0xbed75205	-0.42054763
70	0xbe4df65d	-0.20113511
71	0xbe3e3d05	-0.18577965
72	0xbf1bbb57	-0.6083273
73	0x3cf89ce8	0.030348256
74	0xbd06f07f	-0.0329442
75	0xbf0e8eec	-0.5568683
76	0x3ce54397	0.02798633
77	0xbeefd390	-0.46841097
78	0x3be944f6	0.0071188165
79	0xbdd1f1a9	-0.10251171
80	0xbb70e5f0	-0.0036758147
81	0xbf1b90f8	-0.6076808
82	0xbd50bac0	-0.05095935
83	0x3d6202ac	0.05517833
84	0xbf16b980	-0.588768
85	0x3e028cc8	0.12749016
86	0xbe36911b	-0.17828791
87	0xbe3ac4c2	-0.1823912
88	0xbed16fcd	-0.4090561
89	0xbd9f2064	-0.0776985
90	0xbcca6b9b	-0.024709513
91	0x3e25a826	0.16177425
92	0xbe3b6775	-0.18301184
93	0xbdb79f65	-0.08965949
94	0xbe435269	-0.19074406
95	0xbf33b721	-0.7020131
96	0xbd8a7b1c	-0.067617625
97	0xbe8256e7	-0.25456926
98	0x3d9aaeb4	0.07552853
99	0xbd95fa1a	-0.07323094

4.weight f4 [1, 100]
0	0x3b9af1ad	0.004728517
1	0xbbf1efc9	-0.007383321
2	0x3b6ec3a3	0.0036432527
3	0x3be9d4b6	0.007135953
4	0x3ca1181a	0.019664813
5	0x3ba7fcb9	0.0051265624
6	0xbc67d4d1	-0.0141498605
7	0xbc2780e5	-0.010223602
8	0xbb95bae2	-0.0045693973
9	0x3b06fd73	0.0020597845
10	0x3b4993f0	0.0030758344
11	0xbc534c64	-0.012896631
12	0xbb98f67e	-0.004668056
13	0xbbaecdbe	-0.005334585
14	0x3a253278	0.0006301771
15	0x3be92240	0.0071146786
16	0x3c88bf03	0.016692644
17	0xbc45d1e9	-0.012073972
18	0x3a96e694	0.001151281
19	0x3c335524	0.010945592
20	0x3c20e057	0.009819112
21	0xbc0c6547	-0.008569068
22	0xbbc89e83	-0.0061224117
23	0xbcf632d6	-0.030053537
24	0x3ad6a695	0.001637655
25	0xbb3cf23f	-0.0028830913
26	0x3c1cd540	0.009572327
27	0x394a05e0	0.0001926641
28	0xbc06caf2	-0.008227097
29	0xbaafea47	-0.001342126
30	0xbab46b44	-0.0013764878
31	0xb9c9126d	-0.00038351436
32	0x3e05c5e0	0.13063765
33	0x3ab70a5d	0.001396488
34	0x3b4af0d8	0.0030966308
35	0x3c88b1e8	0.016686395
36	0x3da30322	0.07959582
37	0x3c10785a	0.008817757
38	0xbbf827de	-0.007573112
39	0xbe065aad	-0.13120528
40	0xbb481e53	-0.0030535653
41	0x39de7c89	0.00042435926
42	0xbc8db8d3	-0.017300045
43	0x3b8ef401	0.0043625836
44	0xbb4de4cd	-0.0031416893
45	0xbc0773c4	-0.008267347
46	0xbc02f60b	-0.0079932315
47	0xbbf7081f	-0.00753881
48	0x3b6d9855	0.0036254127
49	0x3b0492dd	0.002022914
50	0x3bd1c94d	0.0064021708
51	0x3cb1f27f	0.021722076
52	0x3c1d0a5d	0.00958499
53	0x3af64975	0.0018790202
54	0x3c2c6ec9	0.01052446
55	0xbdd26762	-0.10273625
56	0x3c46d915	0.012136717
57	0x3c2ff86e	0.010740383
58	0x3cda5812	0.026653323
59	0xbbb137a7	-0.0054082456
60	0xbcfe6e2a	-0.03105839
61	0xbb823b23	-0.003974335
62	0x3a31b802	0.00067794335
63	0x3b623bb0	0.003452044
64	0xbbdcbdbf	-0.0067364867
65	0xba2b7bb8	-0.0006541568
66	0x3b0d010f	0.0021515524
67	0x3bf74de2	0.007547126
68	0x3b03e9d4	0.0020128386
69	0xbcf1d4f5	-0.029520491
70	0x3c75dc69	0.015006163
71	0x3bd25df8	0.0064198934
72	0xbafd51cc	-0.0019326746
73	0x3c007b46	0.007841891
74	0xbb25c1a4	-0.002529242
75	0xbd182c28	-0.037151486
76	0xbb56bf3f	-0.00327678
77	0xbcc91819	-0.024547623
78	0xbab067fc	-0.0013458724
79	0xbb3ab77a	-0.0028490708
80	0x3c8eb3d1	0.017419728
81	0xbc5a5e85	-0.013328199
82	0xbc240a7b	-0.010012264
83	0xbc713011	-0.014720933
84	0xbd3b9007	-0.045791652
85	0xbb75e88d	-0.0037522644
86	0xb914d2b7	-0.00014192877
87	0xbb80196f	-0.003909282
88	0xbcd80f77	-0.026374562
89	0x3b0f7dd8	0.0021895077
90	0xbc25efa4	-0.010127936
91	0x3ba89068	0.0051441677
92	0x3c49ee5f	0.0123248985
93	0xbb0cefd1	-0.0021505246
94	0xbc59860b	-0.013276587
95	0x3d05dbff	0.032680508
96	0x3c726c98	0.014796399
97	0xbc5b81ab	-0.0133976145
98	0x3ba86e0c	0.0051400717
99	0x3abc5dea	0.001437125
