code/storage/vi_bnn--problem_D--weights.pth (torch, 85412 bytes, 7 tensors)

0.weight f4 [100, 1]
00000000: 2a7f 90bf 649c 37bf 5e03 48bf a483 633f
00000010: 0273 52bf b53a 5f3f 2598 1d3f e20f 84bf
00000020: 6a54 363f 8e65 eb3e 0384 6bbf cae3 8dbf
00000030: a995 06bf 56c4 63bc d364 c63e 8d90 4fbf
00000040: 82df 15bf 2052 423f caff 353f 9ab1 ef3e
00000050: ea96 21bf 751e 17bf 8b86 8fbf 92fa bdbe
00000060: 9935 113f 6907 77bf 697e ec3e acf3 1f3f
00000070: 13cb c23e dabb 623f c614 7ebf 20c9 1e3f
00000080: f45e e8be fae8 13bf 38e6 4c3f 06b5 fa3e
00000090: f2ff 4b3f 66d3 553f 1174 60bf bdd0 60bf
000000a0: c580 a43e 4481 72bf 92c8 3f3f ad0a 4d3f
000000b0: 98c8 38bf 31f1 b93e e8cd 0dbf 3729 99be
000000c0: ec70 0f3f af8c 12bf ecb9 78bf 1ae7 7c3e
000000d0: 1bff 22bf 8a80 28bf c49d 443f 2a61 5c3f
000000e0: 85e5 4fbf 909a 1e3f be43 3a3f 7822 e73e
000000f0: b39f febe 6e75 35bf f64a 3ebf 7cf9 103f
00000100: ad26 e33e 1b20 163f cad9 91bf b682 89bf
00000110: 743f 5dbf 56b5 17bf 771d 20bf 7d7d b23e
00000120: 01dd 01bf 414b 67bf b722 7bbf 0d2b 233f
00000130: 3a14 e53e a124 64bf a44b b83e a40b 0e3f
00000140: 10da 20bf 4159 1b3f 3893 79bf 4f98 0d3f
00000150: 47c1 423f 6cfa 89bd 9913 82bf 6af8 45bf
00000160: a5d7 0cbf cc03 ac3e 6ebb 493f 26b6 443f
00000170: bb69 553f ac1f 76bf b520 26bf 8640 453f
00000180: d0b6 3e3f 1671 263f 9b55 75bf 7bb4 3e3f
-1.1288807 -0.7172301 -0.7813014 0.8887274 -0.8220674 0.87198955 0.6156028 -1.0317347
0.71222556 0.45975918 -0.9199831 -1.1085141 -0.52572113 -0.013901791 0.38748798 -0.8107994
-0.5854417 0.7590656 0.7109343 0.46815187 -0.631209 -0.5903085 -1.1212934 -0.37105232
0.5672241 -0.9649568 0.46190193 0.6248119 0.38045558 0.8856789 -0.9925045 0.6202564
-0.45384943 -0.5777737 0.80038786 0.48966235 0.79687417 0.83525693 -0.87677103 -0.8781851
0.32129493 -0.94728494 0.7491542 0.80094415 -0.7218108 0.36316827 -0.55392313 -0.29914257
0.5603168 -0.57245916 -0.97158694 0.24697533 -0.6367051 -0.65821135 0.7680323 0.8608576
-0.81209594 0.61954594 0.72759616 0.45143485 -0.49731216 -0.7088231 -0.7433313 0.5663068
0.44365445 0.5864274 -1.1394589 -1.0743015 -0.86424947 -0.5926107 -0.6254496 0.34861365
-0.5072785 -0.90349203 -0.98099846 0.63737565 0.44741994 -0.8911839 0.3599521 0.5548651
-0.62832737 0.60683066 -0.97490263 0.5531053 0.7607617 -0.06737217 -1.0162231 -0.77332175
-0.5501655 0.33596647 0.7880162 0.76840436 0.83364457 -0.9614208 -0.64893657 0.7705158
0.744977 0.65016305 -0.9583375 0.7449414

0.bias f4 [100]
00000000: a22e 583e 2f61 803f 99c1 ab3f 3ecb 4bbf
00000010: 803f 233f f4de 16bf e646 92be d35a 303f
00000020: 262c 62bf b676 74bf 16cc ad3f 9535 07be
00000030: 61f1 39be 9601 90be 9bc7 913e 663c a43e
00000040: 9b51 743f f35f 1cbf b620 9c3e 1969 7d3e
00000050: 3bac 053f c0aa de3f 56a8 253e b099 f73d
00000060: 7933 02bf 855b a73f 897b 83bf 24af 113e
00000070: c11f 13bf 7856 a5bf 521f a63e c740 a23e
00000080: 6476 ed3e 2463 9c3f cf22 eebe add3 debd
00000090: d401 6bbf 1f18 1ebf 62a0 d43d 3d97 363f
000000a0: ca3d 08bf 2892 02be 528f 77bf 7259 67bd
000000b0: 6a5e 4cbd 3e6b e0be 52db 123f 28f4 783f
000000c0: 79c8 963e a73f c6bc 59e3 39bd c591 19be
000000d0: 91a1 883f 5463 153f 7d55 6dbf bf38 18bf
000000e0: c71e b53f 7f58 50be 13d6 91bf e95f 23bd
000000f0: a73f b83f 9210 f9bc 7a3c ad3f 499b 1c3e
00000100: 0572 acbe 0aa3 3b3e 169d 923e 5441 1dbd
00000110: d738 863f c170 60be f954 ba3f 5cf6 6e3d
00000120: c45d cd3f 0b18 0b3d 5c0f 893d 8bbe adbf
00000130: 582f ce3d d9b7 5f3f ebdc 793e f228 e9be
00000140: b9e8 283f 4622 86bf 9b0e 823f 3259 ccbe
00000150: f787 53bf 1ce3 84bf f62a 853f 4836 aabe
00000160: d7f9 893f f423 813e d36e 01bf 7202 70bf
00000170: 9b0b e1be 76a3 d53e cd86 0b3e 55fc a2bf
00000180: 6296 63bf 92e7 c5be c0b6 843e aa2b 73be
0.21111539 1.0029658 1.3418456 -0.79607 0.6376877 -0.5893395 -0.28569716 0.68888587
-0.88348615 -0.9549364 1.3577907 -0.13204034 -0.18158485 -0.2812621 0.284726 0.3207733
0.9543702 -0.61083907 0.30493706 0.24747123 0.5221593 1.7395859 0.16177496 0.120898604
-0.5085979 1.3074805 -1.0272075 0.14226967 -0.5747033 -1.2917013 0.3244577 0.31690046
0.46379387 1.2217755 -0.46510932 -0.10880218 -0.91799664 -0.61755556 0.10382153 0.7132452
-0.5321928 -0.12751067 -0.96703064 -0.056481786 -0.049894728 -0.4383182 0.57365906 0.9724755
0.29449823 -0.024200274 -0.04538283 -0.14997013 1.0674306 0.5835469 -0.9270857 -0.5946159
1.4150017 -0.20346259 -1.1393455 -0.03988639 1.4394425 -0.03040341 1.3534081 0.15293612
-0.3368074 0.18323913 0.28635472 -0.03839238 1.0486096 -0.21918012 1.4557182 0.058340415
1.604424 0.033958476 0.06692383 -1.3573774 0.10067624 0.87389904 0.2440068 -0.4553905
0.65980107 -1.047921 1.0160707 -0.399118 -0.8262934 -1.0381808 1.0403736 -0.33244538
1.077937 0.25222743 -0.5055973 -0.9375373 -0.43954167 0.41726273 0.13625641 -1.2733256
-0.8890134 -0.38653237 0.25920677 -0.23747125

2.weight_mu f4 [100, 100]
00000000: 02bd 4d3f 2920 543f 4be1 3a3f 3d31 483f
00000010: 46af 453f 1668 443f 97c1 153f 5a50 493f
00000020: 895b 2e3f 4c93 563f 2ea6 5c3f f55b 4b3f
00000030: f9b0 3e3f ac35 853d 22a0 363f 25ed 473f
00000040: e2fb 413f 260f 443f 2962 133f 466c 033f
00000050: ced1 4f3f 2e05 463f 0c9d 393f 872d 523f
00000060: bdd7 0f3f 4924 493f e479 3a3f d54a 153f
00000070: ec3e 283f 769a 1d3f 8640 3b3f 5f79 233f
00000080: ad8b 483f 40a8 613f dd6a 173f f14e 0a3f
00000090: 9431 343f a188 2b3f 3f5d 4c3f 5679 5f3f
000000a0: ff57 353f 44ad 453f 90a8 4a3f 8d42 413f
000000b0: 6699 423f 5b0a 313f 7954 603f edf4 603f
000000c0: 1394 193f d503 523f 9204 443f 79fd 0c3f
000000d0: b676 5d3f 8dab 5a3f e926 243f d374 323f
000000e0: 255a 573f c145 2c3f 164c 473f e6bd 203f
000000f0: eb6c 513f 664d 333f 9ba7 483f de08 373f
00000100: 8eae 2e3f 95f8 213f b183 343f 0db8 273f
00000110: 7b9d 523f c04d 5e3f fbe8 6a3f 26a4 0f3f
00000120: 55b1 623f 34e3 2e3f 741d 353f 21cf 483f
00000130: f489 093f 3741 5d3f ec4f 333f 851c 3b3f
00000140: bf0a 563f f3a9 3e3f 701e 5c3f f743 2d3f
00000150: f4f1 3d3f 29bf d63c f36d 503f feb1 403f
00000160: 1fa2 4b3f 33ce 053f ef29 143f 0963 2a3f
00000170: 24db 353f ee96 3c3f 2db0 4c3f 7077 303f
00000180: 30e3 373f 9ddf 3f3f 1b52 433f cc45 113f
00000190: 112b 5c3f eb66 4b3f 2ba5 4d3f 0e02 2f3f
000001a0: cf8e 603f baa4 3d3f e7c8 413f 41b2 4c3f
000001b0: fbb6 563f fd38 593f 80e8 613f 8550 463f
000001c0: 3553 523f ef01 0d3e bbef 333f 4bec 563f
000001d0: e732 643f 9708 2e3f 9bfd 1a3f ef1f 123f
000001e0: ae65 643f f759 633f 3b7b 4f3f a830 363f
000001f0: 9d1c 263f 2d4f 633f b2ba 2f3f 84de 1b3f
00000200: d8cb 1d3f b105 353f f38e 583f ea20 3a3f
00000210: 147e 623f 4670 6a3f 20cc 333f b2d9 1a3f
00000220: b8f0 3b3f 97bc 3d3f d169 3f3f b954 4e3f
00000230: e9d0 2e3f 912e 4a3f 9ec7 2e3f 3036 313f
00000240: 76c3 3f3f 83aa 2a3f 181a 763f 67ff 643f
00000250: ec62 2b3f 8060 623f 4dda 4b3f 1ad1 1d3f
00000260: 2ccf 603f 2e7c 513f 0119 393f 4c66 483f
00000270: d5fb 593f c733 3c3f 2a5f 333f e88d 313f
00000280: 15d9 813f 17b9 5f3f ce0a 5c3f 959f 1b3f
00000290: 2c98 333f a982 2f3f d973 663f 0614 4c3f
000002a0: 2a29 5d3f 1880 423f 95b3 713f 6aa4 303f
000002b0: 9cb8 5c3f 3a7a 543f d2ca 433f 060b 493f
000002c0: e7d1 2c3f 2346 413f bd59 2d3f fbcc 303f
000002d0: 6cb2 673f 99c5 2d3f a37d 4d3f 9c8e 353f
000002e0: 255e 433f ae99 003e 4d96 483f d30b 543f
000002f0: 9a23 633f 33a7 0c3f 4568 423f 8dba 2f3f
00000300: 03b4 343f 3491 6a3f 63c2 543f 24cf 4b3f
00000310: a17c 4e3f b38a 463f c032 603f d39c 223f
00000320: c565 4a3f 1a68 613f f027 503f 8935 523f
00000330: 8ccb 573f 05c9 683f 1290 4a3f fc65 483f
00000340: 964c 4b3f 62f4 703f 2593 643f a5d8 6d3f
00000350: f4de 6a3f 868d 723d 4378 333f 0999 513f
00000360: ccce 7f3f 1cac 5c3f 10be 423f e6a8 233f
00000370: 3abd 4e3f 3135 793f 9c06 433f e2f7 4e3f
00000380: 0164 513f dd6f 493f 7ede 493f ddae 483f
00000390: 5819 293f f940 443f 8caa 663f de7f 423f
000003a0: 5993 5e3f 8524 663f f2af 503f 3da3 343f
000003b0: 0173 613f e6da 4b3f 5394 653f b137 773f
000003c0: 90a4 4e3f f704 543f 903d 5a3f 8aab 353f
000003d0: 340b 5d3f 3fd7 403f 4bc9 513f c026 623f
000003e0: fbc3 283f c962 703f 6b96 713f 2cda 213f
000003f0: e64e 563f f0a0 633f a553 5a3f 4528 4d3f
0.8036653 0.8286157 0.7300002 0.7820013 0.7722057 0.7672132 0.5849852 0.7863823
0.6810842 0.8381851 0.8619107 0.7943719 0.7448879 0.06504378 0.71338093 0.7809623
0.7577497 0.76585615 0.57571656 0.5133709 0.8117951 0.77351654 0.7250526 0.8210072
0.56188565 0.7857099 0.7284224 0.5831731 0.6572101 0.61563814 0.7314533 0.6385707
0.7833813 0.88147354 0.59147435 0.54026705 0.7038815 0.67005354 0.7982978 0.8729452
0.70837396 0.7721751 0.79163456 0.75492173 0.7601532 0.69156426 0.87628895 0.8787373
0.5999157 0.820371 0.76569474 0.5507427 0.86509264 0.85418016 0.6412187 0.6970951
0.84121925 0.67293936 0.7785047 0.6278976 0.8180682 0.70039976 0.78380746 0.71497905
0.682351 0.6326993 0.70513445 0.65515214 0.82271546 0.8683739 0.9176175 0.56109846
0.8855184 0.68315434 0.70748067 0.78441054 0.53726125 0.86427635 0.70043826 0.7309039
0.8361015 0.7447807 0.85983944 0.6768183 0.74197316 0.0262142 0.8141777 0.75271595
0.7954425 0.5226776 0.57876486 0.66557366 0.7103751 0.736678 0.7995632 0.6893225
0.71831036 0.7495058 0.7629716 0.56747127 0.86003214 0.79453915 0.8033015 0.6836251
0.8771791 0.7407948 0.7569718 0.79959494 0.83872956 0.8485258 0.8824539 0.77466613
0.82158214 0.13770269 0.70287675 0.83954304 0.8914017 0.6798186 0.6054322 0.57079977
0.8921765 0.8880915 0.8104741 0.71167994 0.6488741 0.8879269 0.6864425 0.60886407
0.61639166 0.7071181 0.84593123 0.7270647 0.8847363 0.91577566 0.70233345 0.60488427
0.7341418 0.7411589 0.7477084 0.80598027 0.6828752 0.78977305 0.6827334 0.6922331
0.74907625 0.6666643 0.96133566 0.89452213 0.6694782 0.884285 0.79629976 0.6164719
0.8781612 0.8183011 0.7230378 0.7828109 0.8514989 0.73516506 0.70067084 0.69357157
1.0144373 0.873918 0.85953987 0.6079038 0.7015407 0.68558747 0.9002052 0.79718053
0.86390936 0.75976706 0.94414645 0.69000876 0.8621919 0.82999 0.76481354 0.78532445
0.67507786 0.75497645 0.67715055 0.69062775 0.90506625 0.67879635 0.8026983 0.7092073
0.7631553 0.12558624 0.7835434 0.8283054 0.887262 0.54942626 0.7594035 0.6864403
0.70587176 0.9162781 0.8310911 0.79612947 0.8065892 0.7755539 0.8757744 0.63520545
0.7906154 0.8804947 0.8131094 0.8211294 0.8429496 0.9093173 0.79126084 0.78280616
0.79413736 0.941229 0.89287025 0.929087 0.9174645 0.059217 0.7010538 0.8187414
0.9992492 0.8620012 0.7607126 0.63929594 0.80757487 0.9734679 0.7618196 0.8084699
0.8179322 0.78686315 0.7885512 0.7839182 0.66054296 0.7666164 0.90103984 0.7597636
0.86943585 0.89899474 0.8151847 0.7056158 0.8806611 0.7963089 0.8967945 0.96569353
0.8071985 0.82820076 0.85250187 0.7096487 0.8634522 0.7532844 0.81947774 0.8834038
0.6592404 0.93900734 0.94370145 0.6322353 0.8371414 0.88917446 0.8528388 0.8013957

2.weight_log_sigma f4 [100, 100]
00000000: 9204 55bd 8a55 efbd 29ca babe 468a 68be
00000010: 7a49 7cbe 3eb3 9bbe 9127 06bf 5ba4 87bd
00000020: 9aba 3c3d 3122 a3be 1908 b5be 8d7b 3e3d
00000030: 0c74 0b3e 12ad 93bd 00a8 503e 05a5 cc3d
00000040: 739f 04bf ba4a bfbe c58c 36be 175a 9fbe
00000050: ceab 30bf 92b5 4ebe 480f c5be 25c8 e73e
00000060: 8b21 f1be 82d5 da3b 172e b3be f85b a4be
00000070: be00 99bd 19a1 b6be 7888 3b3d b35e 62bd
00000080: d64c 4bbe f0c8 92bd 8ad8 76be 318f 163e
00000090: 2d53 2cbe 06dd 82be f0e5 02be d951 b2be
000000a0: b1be 88be 9699 edbe 46c3 e2be c83d 12bf
000000b0: aba6 50be bdc9 adbe bf2b c23c 1e3b 93bd
000000c0: 1646 01bf b3b3 65be 5360 fbbd af69 233e
000000d0: 31b2 17bc 331d fcbe 472a adbe 136b 1c3d
000000e0: 1a03 bfbe 0542 eebd cf95 ccbe b6e8 50be
000000f0: fff7 7fbe 8b9a 023d 906d 61be 54c9 bfbe
00000100: 6333 adbe fd14 74bd ac29 babe 2940 9f3c
00000110: e4c8 ebbe bb51 003f 94fe 8cbe fcd1 043e
00000120: 2aaa a63d 0fa7 cabe c6a3 8ebe 3865 e6be
00000130: c73c ca3d 77d6 bdbd 0189 c2be aa98 3abd
00000140: 9a00 f4be 30a0 6fbe 12ca d43e 93af 383e
00000150: c6ef 24be bdee b739 746f 703d f891 13bf
00000160: 3161 d6bd 9988 36be 67f7 1cbd bc43 b6be
00000170: b411 93be 3062 e9be ff3d 34bd 1a41 fdbe
00000180: d41f 2cbd a977 0fbe 42ef ebbd 99d2 03bf
00000190: 18ec 02bf 38c5 adbe a1ed 623e 0f99 663e
000001a0: 10d7 0abf 496a 65be b9a4 e2be 66f1 27be
000001b0: 6ea9 74be 583e f3be 677c edbd 0ca5 cebe
000001c0: 92b6 5abe 9533 97bd fee6 71be b3ec 3ebf
000001d0: d4e5 edbe bf0d 7ebd 5de0 acbd 5fbf 2c3d
000001e0: f347 97bd 80f7 663e d00f 07bf cffd babe
000001f0: 540c 21be b7bd 81bd 567a 98be 4305 f8be
00000200: 7a5e 8ebe c877 08be 72a5 50be a021 64be
00000210: b32e bdbd 9424 79be 8d96 dfbe 86fd aabd
00000220: 34ef 75be 9199 77bd e86b f5be 98ec 81bd
00000230: 5a49 243e 15bf 02be 2990 22bf 2718 cdbd
00000240: ea22 113f 9470 c0be f344 4bbf 75c5 6c3d
00000250: 5b8a 92be a5d1 0bbe 4639 9dbd 7301 8dbe
00000260: 6b90 2ebe 5543 24bf 9925 69be c031 ddbe
00000270: 8e5f 8dbe c4fe 02be e5d5 9dbc 285c e1be
00000280: 407e 6cbe f344 c7be 8a6c 8dbd 9b0d 95be
00000290: 84d3 c33e 9acb b0be 2033 96bd 27e6 6ebe
000002a0: 71aa 11be 78c3 81bd 9e6c 57be d1b6 8cbe
000002b0: cebc cd3e 70b3 6abe 35ec 82be 0084 c0be
000002c0: 1ec6 09be 36a1 10bf 5f3b e3bc d1ff 0ebf
000002d0: 31fb 83be aeab 2abe 6208 c2be 6808 013e
000002e0: 93ae 0fbe 6a00 a3bc 661a 07bf 0be8 8abe
000002f0: f846 283e 43ae f53c cbf6 62be 0e75 17bf
00000300: cee1 debd 2fd6 b2be a3cc 09bf 6a67 89be
00000310: e7af d63d 22e4 013d 58ea 923b 5cc6 12bf
00000320: 9786 89be c4b2 8ebe 5b9d f5be 9755 663e
00000330: 3bcb dfbe 78d9 6dbe a867 bbbe 9643 d7be
00000340: 09dd b33e 6956 0bbf ee1b 92be 6029 aebe
00000350: 8e46 1dbf 10f7 1bbd 0070 12bf 620b efbd
00000360: 9463 b5be 5577 c83e fe45 ef3b ef14 15bf
00000370: 9722 5bbf 9170 9cbe 6c08 e5be f456 243d
00000380: 00d1 d53d 0a4b 63bf bce5 9ebe c869 993d
00000390: 8a73 b9be f353 2ebf 4350 b53e 5712 5fbe
000003a0: 5a98 fc3d 0375 0cbf b6b6 57bd 9e38 32be
000003b0: 0140 18be 9809 7fbe 98e0 5ebe d5f4 eabe
000003c0: ef8c 4bbf aecc 38bd a674 01bf 1ca2 6fbd
000003d0: 6808 37bf 4b27 3a3e 6dc0 99be e317 333e
000003e0: 0ea5 383e 28f6 91b9 cbf9 09bf 2dce 9fbe
000003f0: 88e6 243e fd03 9bbc a20d 2abe c386 c0be
-0.05200631 -0.11686237 -0.3648236 -0.22708997 -0.24637404 -0.30410188 -0.52404124 -0.06623145
0.046076395 -0.31862023 -0.3535774 0.046504546 0.13618487 -0.07210745 0.20376587 0.099924125
-0.518058 -0.373617 -0.17827137 -0.3112342 -0.69012153 -0.20186451 -0.3848822 0.45269886
-0.47095904 0.006678284 -0.349961 -0.32101417 -0.07470845 -0.35669783 0.045784444 -0.055266093
-0.1985353 -0.07167232 -0.2410604 0.1470306 -0.16828604 -0.25559253 -0.12783027 -0.3482807
-0.26707986 -0.4640624 -0.44289607 -0.5712552 -0.20376079 -0.33942977 0.0237025 -0.0718901
-0.5049757 -0.22431831 -0.12274232 0.15958284 -0.009258793 -0.49241027 -0.33821318 0.03818805
-0.37307054 -0.11633686 -0.39958045 -0.20401272 -0.24996947 0.031885665 -0.22014451 -0.3745829
-0.33828267 -0.05959033 -0.36359918 0.019439774 -0.46051705 0.5012471 -0.27537978 0.12970728
0.08137925 -0.3958058 -0.27859324 -0.449991 0.098748736 -0.092694215 -0.3799515 -0.045555748
-0.4765671 -0.2340095 0.41560417 0.18035726 -0.16107091 0.00035082354 0.05870004 -0.57644606
-0.104677565 -0.17825545 -0.03832188 -0.35598552 -0.28724444 -0.45582724 -0.044004437 -0.4946373
-0.04202254 -0.1401049 -0.11520244 -0.5149322 -0.511415 -0.33939528 0.2216096 0.22519325
-0.5423441 -0.22403826 -0.44266298 -0.1640068 -0.23892757 -0.47508502 -0.115959935 -0.40360296
-0.21358708 -0.07382885 -0.23623273 -0.74579924 -0.46464407 -0.062024828 -0.084412314 0.042174693
-0.0738677 0.22555351 -0.527585 -0.36521766 -0.15727359 -0.06335013 -0.29780835 -0.48441514
-0.27806455 -0.13326943 -0.20375612 -0.22278452 -0.09237423 -0.2433036 -0.4366955 -0.08349137
-0.2401703 -0.060449187 -0.47933888 -0.06343955 0.16043606 -0.12768205 -0.6350122 -0.10014372
0.566939 -0.3758589 -0.79402083 0.057805497 -0.28621182 -0.13654192 -0.0767694 -0.27540168
-0.17047279 -0.6416524 -0.22768249 -0.4320202 -0.27611965 -0.12792498 -0.019267032 -0.44015622
-0.23095036 -0.38919792 -0.06905468 -0.29111943 0.3824731 -0.34530336 -0.0733397 -0.23329984
-0.14225174 -0.06336111 -0.21037528 -0.27483228 0.4018311 -0.22920012 -0.25570837 -0.37600708
-0.13454482 -0.5649599 -0.027738271 -0.55859095 -0.2577758 -0.16667053 -0.3789702 0.12600863
-0.14031439 -0.019897658 -0.52774656 -0.2713016 0.16433322 0.029990321 -0.22164457 -0.59162986
-0.108829126 -0.34929034 -0.53827876 -0.2683671 0.104827695 0.031711705 0.0044835024 -0.5733392
-0.26860496 -0.27870762 -0.47971615 0.22493587 -0.4370974 -0.23227489 -0.3660252 -0.4204375
0.35129574 -0.54428726 -0.28536934 -0.34015942 -0.6143578 -0.038077414 -0.5720215 -0.11672093
-0.35427535 0.39153543 0.007302045 -0.5823507 -0.85599655 -0.3055463 -0.44732988 0.040121987
0.10440254 -0.88786376 -0.31034648 0.07490879 -0.36220962 -0.68096846 0.35412797 -0.2178434
0.12333746 -0.54866046 -0.05266448 -0.1740441 -0.14868166 -0.24906003 -0.21765363 -0.45889917
-0.7951192 -0.045117073 -0.50568616 -0.05850421 -0.714972 0.18179052 -0.30029622 0.17489581
0.18031713 -0.00027839956 -0.5389678 -0.31211987 0.16103566 -0.0189228 -0.16606763 -0.37602815

2.bias_mu f4 [100]
00000000: c259 353f da10 393f 4808 3c3f 33fe 2a3e
00000010: 81ce 103f 769f 133f d3a8 fd3e 139e 833d
00000020: 5007 1c3f c892 343e 610b 17be ed31 333e
00000030: a4be 173f f580 693e f8e2 223f f56a f2bc
00000040: 0afb 673d c79d 253f 0d2e eabd d5f1 c03e
00000050: 3acb 183f 850e 2a3f 5208 2d3f 7ccd 0e3f
00000060: d901 d0be 1c6e 363f b24b af3e 389f 183e
00000070: 0aa1 213f b0ec 253f e4f1 343f 5b22 093f
00000080: ceab a8be 6b46 dfbe 1721 1f3f 89ea 253f
00000090: 9e60 963d a2ce 1e3f 7e76 0b3f 4ff9 b8bd
000000a0: 1301 18be 425b 063f 182e 5f3e 18e1 7d3e
000000b0: 8165 0c3f e337 bd3d 3fd1 a6be 2879 163f
000000c0: 7a4d 00bf e42d 1fbe e07b 243f 10db 073f
000000d0: 1dd4 8bbe 90e9 283f 4322 343f f2e2 323f
000000e0: a65b c8be 8243 1d3f c445 a4be cf73 f33e
000000f0: abb9 2f3f e58e 283f 6c80 373e dad8 363f
00000100: 54bb a6be de6b 133f a299 99be cd00 1dbe
00000110: d2c4 2a3f 8b72 073f 42fb 2d3f 63b5 3abe
00000120: c343 abbd 39d8 d23e 937f 1f3f bd2b 2d3f
00000130: 8f1d e13e 5444 213f da7d 1f3f 7726 42be
00000140: c120 e23d 9979 313f 51b7 e73e 9170 b5bd
00000150: 5571 1ebe c320 a8be b96a 083f 0441 293f
00000160: 2da6 103f 04d3 173f bb1c 483f 75d2 483f
00000170: 78e7 8ebd c067 a4be 1ddb 193f 317a 87be
00000180: 944f 323f dbc7 303f c517 463f eccb 9bbe
0.70840085 0.7229134 0.73450136 0.16698532 0.565651 0.57665193 0.49542865 0.06426635
0.6094866 0.17634118 -0.14750434 0.17499514 0.5927527 0.228031 0.63627577 -0.029592017
0.056635894 0.64693874 -0.11434565 0.37684503 0.596851 0.66428405 0.6759082 0.55782294
-0.4062641 0.71261764 0.34237438 0.14904487 0.6313635 0.6481428 0.70681596 0.5356805
-0.32943577 -0.43608412 0.62159866 0.64811 0.07342647 0.62034047 0.5447768 -0.09031927
-0.1484416 0.52483 0.21794927 0.24792898 0.5484238 0.09239175 -0.32581517 0.5877862
-0.5011822 -0.1554485 0.6425152 0.5306864 -0.27310267 0.6598139 0.7036478 0.6987754
-0.39132422 0.61431134 -0.32084477 0.47549292 0.6864268 0.6584304 0.17920083 0.7142464
-0.32564795 0.5758647 -0.30000025 -0.15332337 0.66706574 0.52909154 0.67961514 -0.18233256
-0.08362534 0.4118059 0.6230404 0.67644864 0.43967864 0.62994885 0.6230141 -0.18959986
0.110414036 0.6932617 0.45257047 -0.08859361 -0.1547292 -0.32837495 0.53287846 0.6611483
0.56503564 0.5930636 0.7816884 0.7844613 -0.06977743 -0.32110405 0.60099965 -0.26460412
0.69652677 0.69054955 0.7738002 -0.30429018

2.bias_log_sigma f4 [100]
00000000: 8875 4a3d c0de f83d 5c18 83be 16d9 213e
00000010: 3f3e e93d e05a 9cbe 0243 3fbe 398f 7a3e
00000020: 5997 f53d 52ed 09be 07f2 dbbd 24e4 47be
00000030: 0487 393d 0ca1 aabb 103a 30bd 7b28 c53e
00000040: 30ed 0fbf 3f2a 413e 8b22 b7be 359a 12bf
00000050: 0335 0bbe 0a05 16bf 45ee ca3d f97d 093d
00000060: 47f9 edbe 572d 9d3e bc72 e23e 81d7 8d3d
00000070: 978f 1cbe 40db 9c3d 211f d73d 474f 3ebe
00000080: f7f2 4cbf 8290 243e 8d67 723e ec18 a03e
00000090: e9b4 ae3e ac95 72be a70d 5cbe c22d f6bd
000000a0: f067 9b3e b2d1 9ebe 0cb1 24bf d54d 35be
000000b0: 37c5 46be 5490 adbe 7cdc f33d c74e 90be
000000c0: 0f0a d0bd 88a5 203e eb56 b53c efa9 70bd
000000d0: e2db 96be b9ef cd3c c3c4 a5be fe2c 9b3e
000000e0: d428 1c3e 7944 ee3e 2293 15bf 25ed 153e
000000f0: 3d94 01be 7a39 e2bc 73a7 253c 2f5f a7be
00000100: 324e 85bc f2c6 603e 2fa8 aabe 4427 c6be
00000110: 6389 5d3e 8775 163d 8271 f2bd e139 27bd
00000120: 7e0e 98bd 7376 13be 0209 68be 8214 ef3c
00000130: b5b1 1fbc 66ca 383f a462 63be f39e ac3e
00000140: ef39 82bd 94d6 7b3d c3cd a93d 0cb4 1cbe
00000150: 2664 87be 5da2 4ebe f3c7 93be e6aa afbd
00000160: 3083 2b3d 90e1 8abe 0d90 25be 0fd7 41be
00000170: e922 053f 4470 4abe deb1 a7be 7fc6 34be
00000180: e1c0 83bd 7a6a a13e 5f2c 1dbe 692a 1fbe
0.049428493 0.12151861 -0.25604522 0.15805468 0.113888256 -0.30538082 -0.18677905 0.24468698
0.11991758 -0.13469437 -0.107395224 -0.19520622 0.045294777 -0.0052071866 -0.043024123 0.38507447
-0.56221294 0.18863772 -0.35768542 -0.5726655 -0.13594441 -0.5860144 0.099087276 0.033567403
-0.46479246 0.30698654 0.4422816 0.0692587 -0.1528915 0.07659006 0.10503984 -0.1858493
-0.80058235 0.1607075 0.23672314 0.31269014 0.34122398 -0.23689908 -0.21489583 -0.12020446
0.30352736 -0.3101936 -0.6433265 -0.17705472 -0.19411169 -0.33899176 0.119072884 -0.28185102
-0.101581685 0.15688145 0.022136172 -0.05875581 -0.29464632 0.025138723 -0.3237668 0.30307764
0.1524995 0.46536615 -0.5842763 0.14641245 -0.12654205 -0.027615298 0.010110724 -0.32689807
-0.016272638 0.21950892 -0.3333144 -0.38701832 0.2163444 0.036733177 -0.11838056 -0.040826682
-0.07424639 -0.14400654 -0.22659686 0.029184584 -0.0097469585 0.72183836 -0.22205597 0.3371502
-0.06358706 0.061483935 0.08291199 -0.15303057 -0.26443595 -0.20179124 -0.28863487 -0.08577518
0.041873157 -0.27125216 -0.16168232 -0.18929695 0.52006394 -0.19769388 -0.3275289 -0.17653845
-0.06433273 0.31526548 -0.15348957 -0.15543522

4.weight f4 [1, 100]
00000000: 1be9 8bbe 1af2 b7be 33db ddbe dae6 93bd
00000010: 5f56 8fbe e069 9bbe a770 a2be 5ca4 11bd
00000020: 1295 a0be 6c90 abbc 2f9a 6bbd 4ccf 8cbd
00000030: 20ce 96be 88f5 08be 6a26 83be 5e5f 25bd
00000040: 3446 c7bc 0b4b b7be 7eb2 97bd 5130 12be
00000050: 4947 62be d2a7 89be 1fef c5be 8d5c 98be
00000060: 6394 b33b 4cae b3be 4f15 2fbe e178 b2bc
00000070: a7fe b0be 5e6b acbe fa39 acbe 1d63 84be
00000080: 6eb5 5bbe a1a6 8fbb ccd8 8ebe 75c1 93be
00000090: eedb 82bd 1339 88be 4b63 5abe eae5 3d3a
000000a0: d08b febb 69c1 a3be 05f8 1dbe fac1 4ebe
000000b0: c698 9cbe e2f1 67be 349e e63c 126c 9ebe
000000c0: 49d1 98bd dd83 263d 487d 8dbe ec7b 42be
000000d0: db75 3bbd eda7 99be 2e42 9abe b653 9dbe
000000e0: e26b d7bc 5e16 92be 63b8 1abc a5a7 1abe
000000f0: 7391 9ebe 33df 9ebe 1770 f2bd 582a a0be
00000100: 0073 13bd 6390 8abe a07c 99bd 127b 46bd
00000110: d3e6 65be 38de 28be f0a3 8cbe 711d dabc
00000120: e7b3 ccbd 0be7 36be 4c01 99be 0be3 adbe
00000130: c101 38be 002e 81be 787a 9dbe a889 d6bd
00000140: 92fc 8cbd 98f4 a9be 9504 51be 9329 17bd
00000150: 478f e5bd 40ba 1fbc 2b03 8fbe af50 98be
00000160: 44df 68be c4d1 9ebe 36e0 a1be 3f02 c4be
00000170: 68cb 3e3d 7089 5cbe 6ca3 85be 32ff b0bd
00000180: fc7a a4be e7a5 96be c479 cdbe 5792 87bc
-0.27326283 -0.35926896 -0.43331298 -0.07221766 -0.27995583 -0.30354214 -0.31726572 -0.035557136
-0.31363732 -0.02094289 -0.057520088 -0.06875476 -0.29454136 -0.13374913 -0.25615245 -0.040374152
-0.024325468 -0.3579944 -0.074070916 -0.14276244 -0.22097506 -0.2688585 -0.38658997 -0.2975811
0.0054803356 -0.35093915 -0.17097972 -0.021786155 -0.34569284 -0.33675665 -0.33637983 -0.25856867
-0.21455929 -0.0043838774 -0.27899778 -0.28858534 -0.063896045 -0.26606044 -0.2132694 0.00072440377
-0.007768132 -0.31983498 -0.15426643 -0.20191184 -0.30585307 -0.22650865 0.028151609 -0.30941826
-0.07461793 0.0406531 -0.27634645 -0.18992585 -0.045766693 -0.3001093 -0.30128616 -0.3072793
-0.02629656 -0.2853269 -0.009443375 -0.15103014 -0.30970344 -0.31029662 -0.11837786 -0.31282306
-0.035998344 -0.27063283 -0.074944735 -0.048457213 -0.22451334 -0.1649102 -0.27468824 -0.026625367
-0.09995251 -0.17861573 -0.29883802 -0.33962283 -0.17969419 -0.25230408 -0.307575 -0.104754746
-0.068841115 -0.33194423 -0.20411904 -0.036904883 -0.112089686 -0.009748995 -0.27932104 -0.29749057
-0.22741419 -0.31019413 -0.31616372 -0.38282964 0.046580702 -0.21536803 -0.26101243 -0.08642425
-0.3212508 -0.29423448 -0.40131962 -0.016549272
