code/storage/vi_bnn--problem_None--weights.pth (torch, 24456 bytes, 7 tensors)

0.weight f4 [50, 1]
000000 bd 11 cd be cf 57 92 be e2 26 80 be a8 4c ce be
       -0.40052596 -0.28582618 -0.25029665 -0.4029286
000010 52 8e 58 bf 23 54 e4 be 86 46 cd be 00 32 12 bb
       -0.84592164 -0.4459544 -0.40092868 -0.0022307634
000020 37 3e 98 bd ba bd 1e 3e 2e c2 c6 be fe 46 a3 3d
       -0.074337415 0.15502062 -0.38820022 0.07972525
000030 ad 7d 0f be a7 58 e2 3e 7c 58 2c be 45 c4 a6 be
       -0.14012785 0.4420826 -0.16830629 -0.32571617
000040 3b 08 c3 be aa 1e 61 3e f4 9d a3 be 70 a5 bb 3d
       -0.38092217 0.21984354 -0.31956446 0.09162414
000050 5e ff ef bd da 9b 09 3f 47 8a 14 bf c6 34 79 be
       -0.11718629 0.53753436 -0.58023494 -0.24336538
000060 d4 23 2d 3f fb ac 4b bd 2c e9 fb be a6 35 81 be
       0.67632794 -0.049725514 -0.49201334 -0.25236243
000070 80 3e 43 3f f5 d8 95 be a7 25 fc 3e 4c fa f0 3e
       0.7626724 -0.29267088 0.49247476 0.4706596
000080 4f c8 ce 3e a7 c5 59 be a2 8e cf 3e aa 86 cb be
       0.40387198 -0.21266805 0.40538508 -0.39751178
000090 ae 6d 13 3f ea 01 da bd f3 60 81 bd 98 cb 85 be
       0.5758923 -0.10644896 -0.0631732 -0.26131892
0000a0 05 96 45 3e 42 4c 55 3f 79 ac 0e 3f ed d0 f3 be
       0.19295509 0.83319485 0.5573192 -0.47620335
0000b0 81 2f 7d 3e 3c 29 3d 3f 76 1f 89 be e8 3e 85 3c
       0.24725153 0.73891044 -0.26781815 0.016265348
0000c0 59 a0 bc 3d 52 97 f9 3e
       0.092102714 0.4874826

0.bias f4 [50]
000000 0d d3 01 be b0 8b d8 3c ac 0b 84 bf 7a a7 86 3d
       -0.12678166 0.026433796 -1.0316062 0.06574912
000010 2e d9 7f bf 97 1a 13 bf c2 91 89 3d 9c 64 15 bf
       -0.99940765 -0.5746245 0.06717254 -0.5835664
000020 ce 39 06 3f b9 af 7a 3d 53 61 81 3d 8c 09 9b 3e
       0.5243195 0.06120274 0.06317391 0.3028072
000030 4b 8c da 3e 4d 42 1a bf f3 19 5e 3e 37 51 01 3c
       0.4268516 -0.60257417 0.21689586 0.007892898
000040 c7 de 80 3d cd ac 36 bf b6 45 fb be 28 6b 25 bf
       0.062924914 -0.71357423 -0.49076623 -0.6461663
000050 dd ef 4f 3e 71 82 a3 be 3c 2e 0d bf 23 82 a4 3d
       0.20306344 -0.31935456 -0.55148673 0.08032634
000060 e9 a1 2c bf a7 30 85 bc 7e ce ea 3d 94 4e 52 bc
       -0.67434555 -0.01625855 0.114651665 -0.012836117
000070 57 d2 7f bf 0c a2 85 3d 98 fd 03 bf 17 eb 40 bf
       -0.9993033 0.065250486 -0.5155883 -0.7535872
000080 5c 75 e5 be ae 31 19 3d ff f4 08 bf 46 f1 a4 3d
       -0.448161 0.037400894 -0.53498834 0.08053832
000090 a7 b5 fd be 55 6e a1 be 8d b2 79 3e 36 aa 4c bf
       -0.49552652 -0.3152949 0.24384518 -0.7994722
0000a0 b2 93 b0 be fb 49 88 bf ca b6 51 bf 10 7b 68 bc
       -0.34487683 -1.0647577 -0.8191954 -0.014189497
0000b0 94 4a e5 be aa b3 63 bf 77 62 c3 3c bf 56 cf bd
       -0.4478346 -0.8894602 0.023850663 -0.101239674
0000c0 1d 1a d6 3d 76 d4 0d bf
       0.104541995 -0.55402315

2.weight_mu f4 [50, 50]
000000 cd ab a8 be 49 f0 6d be d8 e3 4e 01 4e 2f 45 be
       -0.32943574 -0.23236193 3.7999694e-38 -0.19256327
000010 4f 25 c1 be ec 3b 8a be 4c 71 a5 bd 81 cd 9d 01
       -0.37723777 -0.26998842 -0.0807825 5.7967575e-38
000020 3b a8 eb be 56 ae ca be a5 1b 93 be 0a c7 88 be
       -0.46026787 -0.39586133 -0.2873203 -0.26714355
000030 84 53 89 be 4e af 87 be d2 19 e0 be 30 a8 81 be
       -0.2682153 -0.26500934 -0.437697 -0.2532363
000040 e8 d9 84 be 16 28 b3 bd 89 91 f3 bd ac b2 7c 80
       -0.259475 -0.0874788 -0.11892993 -1.1451697e-38
000050 37 4f 89 be 4a 84 a2 be 99 d2 80 be 85 b0 1b be
       -0.2681825 -0.31741554 -0.25160673 -0.15204056
000060 9b a1 5f be c5 1e 00 be bd 1b 5b be 6b 6e 35 be
       -0.21838991 -0.12511738 -0.213973 -0.17717902
000070 d7 d4 65 be 2e 12 2d be 44 64 6c be ec 5d d5 bd
       -0.22444473 -0.16901466 -0.23085123 -0.10418305
000080 c9 4a 99 be f9 26 8f be c3 eb 47 be 37 33 88 be
       -0.2993987 -0.2795942 -0.1952353 -0.26601574
000090 a5 d1 5c be 75 18 20 be 3b 15 ab be 2c c6 ac 80
       -0.21564348 -0.1563433 -0.33414635 -1.5866796e-38
0000a0 ec a0 84 be a7 2c f2 bd 61 f1 f8 bd aa 11 15 be
       -0.25904024 -0.11824923 -0.121554144 -0.1455752
0000b0 53 ed 98 be e0 7b 50 be ac 41 44 be 80 37 a1 be
       -0.29868564 -0.20359755 -0.19165677 -0.31487656
0000c0 b8 8e 1d be ff 31 62 be f5 95 81 be 74 35 ef bd
       -0.15386474 -0.22089384 -0.2530972 -0.11680117
0000d0 60 3f 21 02 bc c6 0b bd 5c 40 a2 bb 5a b5 65 bd
       1.18466e-37 -0.034125075 -0.00495152 -0.056081153
0000e0 24 1b c1 bd 52 5a 79 81 ba c3 5c be 60 00 a9 bd
       -0.09429005 -4.579888e-38 -0.21559039 -0.08252025
0000f0 43 7c 7b be 95 9b ba be 2e 4c 92 be 41 63 31 be
       -0.24559121 -0.36446825 -0.28573745 -0.17323019
000100 42 95 8d be 1e a2 52 be 93 b9 6b be 94 89 e7 bd
       -0.27652937 -0.20569655 -0.2302001 -0.11305538
000110 23 cf bc 3b 4a 1e 3e 01 c5 fd 47 be 59 aa 0b bf
       0.0057619973 3.491922e-38 -0.19530399 -0.54556805
000120 9e de 45 3d f7 1f 1b be 48 82 9c be 3e 01 94 be
       0.048308007 -0.15148912 -0.30568147 -0.28907198
000130 d8 1a 75 be 5e 35 3f bc 9c ed ee be 1d 11 23 be
       -0.23936021 -0.011670439 -0.46665657 -0.15924497
000140 91 e0 17 be 8d 4e 0a bf 80 1f 31 be 8b 4f 1b bd
       -0.14831759 -0.5402611 -0.17297173 -0.037917655
000150 78 06 1f be 3c 02 e6 bd 3e f2 30 bf 2e bf 8b bd
       -0.15529811 -0.11230895 -0.6911963 -0.06823574
000160 8f 64 68 be 2a 6f 92 81 94 19 54 be dc 4f 16 bf
       -0.2269461 -5.379144e-38 -0.20712882 -0.58715606
000170 a2 5a b4 be 7c 60 c9 bd e6 cb 99 be b2 8f f0 be
       -0.35225397 -0.09832856 -0.30038375 -0.4698463
000180 2f b8 ea bd 9f 74 f3 bd 2c e3 32 be a6 ce 40 be
       -0.114609115 -0.11887478 -0.17469472 -0.1882883
000190 ea 48 10 bf fc 07 b6 be 94 91 84 9c 5f 44 b2 be
       -0.5636126 -0.35552967 -8.772658e-22 -0.34817788
0001a0 bb 71 16 be 82 e5 2b be 3b 77 71 be 5e 09 34 02
       -0.14691822 -0.16786769 -0.23580639 1.3227e-37
0001b0 86 d5 05 bf 4a 84 72 be 39 34 69 be d1 bd 7b be
       -0.52278936 -0.23683277 -0.22773828 -0.24584128
0001c0 49 1b 16 bf 6e 79 95 bd 84 0d f0 be 0e 3e c4 be
       -0.58635384 -0.072985515 -0.46885312 -0.38328594
0001d0 57 1f 17 be 2c c8 01 3d f7 83 12 be 44 7b a2 00
       -0.14758049 0.03168504 -0.14308153 1.492157e-38
0001e0 2a 3c 8c be d3 da 8d be 9a a7 ce bd 95 20 66 be
       -0.27389652 -0.27706012 -0.10090561 -0.22473367
0001f0 5c 97 f4 bd 89 d3 24 be 25 14 b3 be 24 ce 69 be
       -0.11942932 -0.1609632 -0.34976307 -0.22832543
000200 ce b5 e1 bd 73 92 56 be 86 fd 01 be 7c 31 b5 be
       -0.110210046 -0.20954303 -0.12694368 -0.35389316
000210 44 1d c1 bd af d3 e9 bd 4d 6e 0f be 53 f7 e4 bd
       -0.0942941 -0.114173286 -0.1400692 -0.11179986
000220 cd 67 30 be 57 d8 52 bd 32 62 85 be ac 56 94 80
       -0.17227097 -0.05147585 -0.2605148 -1.3622745e-38
000230 5e a1 d7 bd 35 eb 76 bd 30 b1 c3 bd b4 7f a3 be
       -0.10528825 -0.060282905 -0.0955528 -0.31933367
000240 3c fe 5e be 88 90 8b bd 9e 3d 30 be 14 fe db 3a
       -0.2177667 -0.068146765 -0.17211005 0.0016784095
000250 bb 32 73 be e8 cc e7 bd af d9 7f be fe fd 23 be
       -0.23749821 -0.1131838 -0.24985383 -0.16014859
000260 de 7c 67 81 54 f6 16 be ba a7 81 be 1a 05 d6 bd
       -4.2517587e-38 -0.14742404 -0.25323278 -0.10450192
000270 14 df ab bd 54 a4 25 80 12 44 8e be 62 ac 43 be
       -0.08392158 -3.456863e-39 -0.2778631 -0.19108728
000280 cf 50 81 be 17 52 c3 be 8b 9f 50 be c9 05 9b bc
       -0.25256965 -0.38148567 -0.20373361 -0.018923657
000290 72 07 1a be fb e9 dd bd bd cc 4a bb 52 7b 98 bd
       -0.15041903 -0.10835644 -0.0030944787 -0.074453965
0002a0 43 b1 24 be d4 dc fd 01 41 36 a3 be 04 76 9c bd
       -0.16083245 9.3254395e-38 -0.3187733 -0.07639697
0002b0 8b e4 2f be 7c 8f 23 be 9b 93 1e be ed d8 85 be
       -0.17177026 -0.15972704 -0.15485995 -0.26142064
0002c0 bf 88 3e 3c 99 ea ca bc 6a c7 73 be 30 0f 53 bd
       0.0116292825 -0.024770068 -0.23806539 -0.051528156
0002d0 66 3c 72 be b9 78 0f be 18 d8 5e be e2 f9 8c bc
       -0.23655853 -0.14010896 -0.2176212 -0.017208997
0002e0 e4 f8 19 be 3c 85 31 be b7 86 53 be a0 15 1b bd
       -0.1503635 -0.17335981 -0.20656858 -0.03786242
0002f0 d1 3f 21 be 40 48 00 80 ab ba 9a be 0d a2 76 be
       -0.15747 -2.5918e-41 -0.3022054 -0.24085255
000300 47 cb 4d be 7f 03 3f be 19 4a af be 9f 4f 32 be
       -0.20097075 -0.18653677 -0.3423622 -0.17413186
000310 f5 b1 6d be 3a cd 4e be c5 fa 9b be 32 44 f7 bd
       -0.23212416 -0.20195475 -0.3046476 -0.12073554
000320 b8 05 25 be 69 b8 55 be 60 3b 36 01 30 a9 ac bc
       -0.16115463 -0.20871128 3.347072e-38 -0.021076769
000330 50 32 a1 3d 9d d6 8a 3a 44 ab 6b be b2 d1 29 81
       0.078709245 0.0010592524 -0.23014551 -3.1190847e-38
000340 b3 0b 9e bd 71 b3 af bb 20 f8 69 be b1 eb fa 3d
       -0.07717075 -0.0053619673 -0.22848558 0.12251986
000350 3d a2 ab 3c e6 fb 59 be 78 57 14 bc e0 19 92 bd
       0.020951385 -0.21287498 -0.009054057 -0.071338415
000360 00 b0 5a be f4 60 59 bc c8 e9 b7 bb 50 e0 62 00
       -0.21356201 -0.013267744 -0.0056125857 9.080347e-39
000370 1d cc 84 bd ba 4c 0d bf 62 4c 3a be eb 31 87 bb
       -0.06484244 -0.551952 -0.181932 -0.0041258237
000380 4f d1 a0 be 2e 01 a4 3d b5 1b 35 bc 6e 2f 32 be
       -0.3140969 0.080080375 -0.011053969 -0.17400905
000390 3b 8e a1 be b8 ea c4 3b 46 61 0a be 59 c3 ff be
       -0.31553826 0.006009426 -0.1351367 -0.49953726
0003a0 4b 6b 48 be 0a a1 09 be 4b ab 96 bd c0 09 57 be
       -0.19572179 -0.13440338 -0.0735689 -0.20999813
0003b0 bd 16 d6 be 8b 9e 71 3c 93 25 80 3c a6 0f 54 01
       -0.41814223 0.014747272 0.015642917 3.8949478e-38
0003c0 33 d7 07 bd 73 f1 81 be 88 30 8d be f3 1e 1e be
       -0.033164214 -0.25379524 -0.2757609 -0.15441494
0003d0 22 88 ac bc d6 39 a2 be e9 eb 2d be 73 dc 51 bc
       -0.021061007 -0.3168475 -0.16984524 -0.012808907
0003e0 e3 fb ce 3d c4 1d 20 be 94 01 de be 1f 8f 55 be
       0.10106637 -0.15636355 -0.4336058 -0.20855378
0003f0 77 e7 ac b6 e6 03 55 bd 11 7e 78 bd 6f 2f 59 be
       -5.1529455e-06 -0.05200567 -0.0606671 -0.212095

2.weight_log_sigma f4 [50, 50]
000000 d8 21 eb bd 19 ea 2a be 00 00 00 00 c3 07 bc bd
       -0.114810646 -0.16690864 0.0 -0.09181168
000010 0e 0f d4 3c fe aa 44 3c 4c 7c 3c be 00 00 00 00
       0.025886085 0.012003658 -0.1840679 0.0
000020 3d 59 4c bd dc 76 33 be 07 5c 3d bd b2 67 0e be
       -0.04988979 -0.1752581 -0.046230342 -0.13906744
000030 cd d8 e4 bd 3b be 6a 3e c9 8a 11 be bc 03 16 be
       -0.11174164 0.2292413 -0.14213099 -0.14649862
000040 53 a0 b0 3c ff 83 6b bd 91 cf 32 3d 00 00 00 00
       0.021560824 -0.05749893 0.043654982 0.0
000050 99 ce d7 bc ba 89 96 be bd 5e 76 3d 7e a0 01 be
       -0.02634363 -0.29401952 0.060148943 -0.12658879
000060 fe cf e7 bd 45 83 9a 3e c1 49 2a 3e d0 88 2a 3c
       -0.11318968 0.30178276 0.16629697 0.010408595
000070 20 57 d9 be 3f 47 d9 3d e2 a8 03 ba a1 00 b7 3e
       -0.42449284 0.10609292 -0.0005022419 0.35742667
000080 b1 e0 22 be 74 f1 8f bd 5d a1 a2 3d e4 6a 4e be
       -0.15906025 -0.070284754 0.07940934 -0.20157963
000090 60 45 87 bd 73 86 e3 ba 72 a5 10 be 00 00 00 00
       -0.06605029 -0.0017358795 -0.14125612 0.0
0000a0 8a 09 ed bd 81 73 27 bd 4a 94 4c 3e 74 e5 9b bd
       -0.11574085 -0.040881637 0.19978443 -0.07612124
0000b0 73 e4 25 be 80 c7 8b be 30 07 b3 bd aa 89 00 3e
       -0.16200428 -0.27300644 -0.08741605 0.12552515
0000c0 0b c3 a5 be 52 70 b3 bd 6f b6 d2 bc 6e dd 89 bd
       -0.32375368 -0.08761658 -0.025721757 -0.067316875
0000d0 7e 12 7b 33 43 7f 26 bd a4 6c 51 bc e6 ad 8b bd
       5.845731e-08 -0.04064871 -0.01278225 -0.06820278
0000e0 65 f7 89 bd 00 00 00 00 65 d3 ee bc 29 29 c2 be
       -0.0673664 0.0 -0.029153535 -0.37922028
0000f0 68 8e cd bd be bd 8a bd 2e 21 93 bd 08 0a 92 3d
       -0.100369275 -0.06774472 -0.07184063 0.071308196
000100 14 74 57 bd eb 86 63 3d 26 f7 e2 b9 ba 88 ee ba
       -0.052600935 0.05554859 -0.0004329022 -0.0018198707
000110 7d b5 6b be 00 00 00 00 26 27 0a 3e 42 cc 47 3e
       -0.23018451 0.0 0.13491496 0.19511512
000120 b8 31 34 be d0 47 09 bc ca 87 8e be f0 04 c9 3d
       -0.17597091 -0.008378938 -0.27837974 0.09815395
000130 91 fb 87 bd 53 ee f6 3c 61 dd 85 bd 9c f6 eb bd
       -0.06639779 0.030142939 -0.06536365 -0.115216464
000140 19 6d 9f be 82 38 30 be dc 26 c0 bd 76 f6 b4 bb
       -0.31137922 -0.17209056 -0.09382412 -0.0055225445
000150 eb cc 4b bd 0b 7b 81 3c 15 fa 23 be 92 53 eb bc
       -0.049755972 0.015805742 -0.16013367 -0.028726373
000160 a8 3b d6 bd 00 00 00 00 d6 d7 ef bd 83 ac 12 be
       -0.10460597 0.0 -0.11711089 -0.1432362
000170 f3 cf 91 3d 45 68 c2 bd cc aa 81 be 47 4f e9 be
       0.07119741 -0.09492544 -0.2532562 -0.45568296
000180 be d6 15 bd 7c 1c c5 3d 76 6b 01 3b d7 e5 ea bd
       -0.036581747 0.096245736 0.001974789 -0.1146962
000190 6c 27 b1 be 1f 05 1e be 74 5e 90 32 7d ec 06 bd
       -0.3460039 -0.15431641 1.6806759e-08 -0.032940377
0001a0 9b b1 81 3c 82 e0 e3 bd 9e 02 07 3d 00 00 00 00
       0.01583176 -0.11126806 0.03296148 0.0
0001b0 a2 fd 27 be c6 52 21 bd 44 3d 2f bc 92 49 44 3e
       -0.16405347 -0.03938558 -0.010695759 0.1916869
0001c0 46 3c 0d be d9 50 83 be a1 3a e0 bd 10 06 12 be
       -0.13792524 -0.2564762 -0.109486826 -0.14260125
0001d0 92 56 07 bd f1 f4 64 b8 11 58 43 be 00 00 00 00
       -0.033041544 -5.4587555e-05 -0.19076563 0.0
0001e0 e5 51 60 3d 06 9b a8 3d 70 5a 90 be 62 4a 28 bc
       0.0547656 0.082326934 -0.28193998 -0.0102716405
0001f0 6a 6b 6b be fa ca c2 3e ed bd 77 bd df 4e b5 bd
       -0.22990194 0.38045484 -0.06048386 -0.08852934
000200 3c d4 69 be 34 9d 87 be 71 f9 5a 3c c4 c6 45 be
       -0.22834867 -0.26487124 0.0133651355 -0.19314104
000210 c1 11 b9 3e 0a ff 02 be e1 71 17 bd ec 21 81 be
       0.36146358 -0.12792602 -0.036973838 -0.25221193
000220 77 63 68 3e 40 6c cb bc c9 c0 24 bb 00 00 00 00
       0.22694193 -0.024831891 -0.0025139323 0.0
000230 06 f7 09 3e 01 8a c1 be f3 d4 2c 3e 69 c0 10 be
       0.13473138 -0.378006 0.16878109 -0.14135899
000240 dd 0a dd bd 84 39 0f 3d 71 80 1e be 55 f2 22 3d
       -0.10793088 0.03496696 -0.15478684 0.039781887
000250 31 95 87 be a8 3c 9e be cb a7 f5 bd ca d8 a6 3e
       -0.26481012 -0.30905652 -0.119948946 0.32587272
000260 00 00 00 00 0b 67 30 3d 7b a7 c7 bd c0 52 88 be
       0.0 0.04306702 -0.09748741 -0.26625633
000270 62 8f 9d 3d 00 00 00 00 6c 15 25 3d a0 ee af bd
       0.07693364 0.0 0.040303633 -0.08590436
000280 dc 77 eb 3d 0a 21 0c be e1 c6 79 be c6 17 80 bd
       0.11497471 -0.13684478 -0.24392273 -0.062545344
000290 9e 73 23 be c3 8f 51 be 23 2a ca bd 18 70 d5 bd
       -0.15962073 -0.20464997 -0.09871318 -0.10421771
0002a0 90 5d b2 bd 00 00 00 00 93 23 2f 3d 04 c5 1f 3d
       -0.08709252 0.0 0.042758536 0.039006248
0002b0 96 92 fa bb 22 a0 e9 bd 29 88 02 3f 09 c9 7a bd
       -0.007646869 -0.11407496 0.50989014 -0.06122688
0002c0 66 0a ad be 92 55 0f be 56 69 e3 bc a7 47 21 bd
       -0.33796996 -0.13997486 -0.027760189 -0.039374974
0002d0 5d 54 00 3e 22 d0 ba bc 4f 42 c7 bd a6 86 54 be
       0.12532182 -0.022804324 -0.09729444 -0.2075449
0002e0 e4 d7 2b be b8 83 53 3d 86 6c 8e be 55 2e 33 bd
       -0.16781574 0.05163929 -0.27817172 -0.043745358
0002f0 73 f7 02 be 00 00 00 00 5a cd 44 bd f2 74 b5 3b
       -0.12789707 0.0 -0.0480474 0.0055376226
000300 35 f9 a6 bc 22 70 31 3e 5a e2 17 be 89 19 1f be
       -0.020382503 0.17327932 -0.1483244 -0.15537085
000310 97 74 89 bd 1f d5 37 be 87 c5 41 bd 8f 44 0f be
       -0.06711691 -0.17952393 -0.047307517 -0.13990997
000320 7d 42 86 3e b0 8f 57 bd 00 00 00 00 6a 37 8e bd
       0.26222602 -0.052627265 0.0 -0.06944163
000330 4c b3 0b 3f a0 50 10 be c0 ac 5f 39 00 00 00 00
       0.5457046 -0.14093256 0.00021331292 0.0
000340 94 1f 07 be 84 08 b1 3c c5 8f 3c be 78 b0 d1 3c
       -0.1319564 0.021610506 -0.18414219 0.025596842
000350 ba 7c c7 3c bb dd 30 be d4 bb cd bc 55 73 82 3d
       0.024351466 -0.17272083 -0.025113977 0.06369654
000360 22 c7 54 be 3c 9f 01 be 93 89 43 3b 00 00 00 00
       -0.20779088 -0.126584 0.002983664 0.0
000370 4a cb 23 bc e0 17 fd bd f1 b5 e8 ba 38 51 df ba
       -0.009997198 -0.123580694 -0.0017754418 -0.0017037755
000380 17 62 ea 3d b7 79 2f bc 6e 94 1a be 50 f4 1b be
       0.114444904 -0.010710171 -0.15095684 -0.15229917
000390 ab 5c 07 be 48 51 6c bd 27 a9 3e bd 17 6a b5 bd
       -0.13218944 -0.057694703 -0.046548035 -0.08858126
0003a0 bc 91 7f bd 89 b8 b4 3d 5e 2f f6 bc 65 04 83 3b
       -0.062394843 0.0882426 -0.030051883 0.0039983266
0003b0 ba b4 2d be 80 f5 05 bc 6e 81 2a 3a 00 00 00 00
       -0.16963473 -0.008176208 0.0006504272 0.0
0003c0 e9 a4 d1 bc 48 72 92 3c 1e 06 07 bd dd bb e8 bc
       -0.02559133 0.01787676 -0.03296482 -0.028409893
0003d0 d3 a3 db 3d 46 48 1f 3d 6e 23 97 3c 32 56 05 be
       0.10724606 0.038887285 0.018449511 -0.13021162
0003e0 1a bd c8 3d 95 21 9a bc e7 c7 e0 bc f3 f5 91 3d
       0.09801693 -0.018814841 -0.02743907 0.07126989
0003f0 0f df 6d b2 28 c5 6c 3d 55 ba 67 be f0 fe 01 be
       -1.3845933e-08 0.05780521 -0.22629674 -0.12694907

2.bias_mu f4 [50]
000000 2b e5 09 bf af d1 8b be 47 e3 fd be 04 b7 ab be
       -0.5386531 -0.27308413 -0.4958746 -0.33538067
000010 53 29 df bd 61 77 a4 be a8 95 ed be 68 4b ba be
       -0.10896554 -0.3212233 -0.4640324 -0.36385655
000020 9a 65 ec be 21 8e c9 be e6 a2 ad be 67 77 5a bf
       -0.46171266 -0.39366248 -0.33913344 -0.85338444
000030 5e 30 f6 be cd 69 e4 3f 83 ad 07 bf e6 f0 13 bf
       -0.48083776 1.7844788 -0.5299913 -0.57789457
000040 3c 03 81 be 67 0d b5 be 54 c3 21 bf 5e 2a 48 bf
       -0.2519778 -0.35361788 -0.6318867 -0.7818965
000050 da 3c 2e be 77 7c c0 be c5 3e 45 be 64 4a aa be
       -0.170154 -0.3759496 -0.19262226 -0.3325988
000060 14 fa 39 be 26 b8 34 be d5 8b cb be a5 ef bd be
       -0.18161803 -0.17648372 -0.3975512 -0.37096897
000070 e5 52 c5 be a3 ac fd be 5b 20 a4 bd a9 43 cf be
       -0.38539806 -0.49545774 -0.08013984 -0.40481308
000080 35 35 d0 bd c0 66 03 bf 78 77 37 3d 4a 5a 13 be
       -0.101663984 -0.5132866 0.04479167 -0.14389911
000090 96 00 87 be 7b 40 94 be a9 a6 5d be 5b f8 76 bf
       -0.26367635 -0.28955445 -0.21645607 -0.9647271
0000a0 39 95 21 bf 86 0b a0 be 7f 9e b5 be eb cc 98 be
       -0.6311832 -0.31258792 -0.35472485 -0.2984384
0000b0 09 bf 18 be 97 74 32 3e 5a e5 bd be f7 50 31 be
       -0.14916624 0.17427288 -0.37089044 -0.17316042
0000c0 8c 91 62 be 95 a2 fa be
       -0.22125834 -0.48952165

2.bias_log_sigma f4 [50]
000000 5e 8a b7 be 2e c3 0d be 0a da 96 be e3 ee c8 be
       -0.35847753 -0.13843986 -0.29463226 -0.39244756
000010 93 05 43 be dc 51 18 bd d2 b6 ff bd 82 5b b2 be
       -0.19045095 -0.037187442 -0.12486042 -0.3483544
000020 8f 28 4f be b5 de 6d bc b8 b2 17 3e 8e 46 98 be
       -0.20230316 -0.0145184295 0.1481427 -0.2974133
000030 de c6 9a be 2e c2 e6 bf ca 26 09 bf c9 9d 0b bf
       -0.3022985 -1.8028009 -0.5357481 -0.54537636
000040 cc 22 39 be 3f 47 34 bd cd ab 38 bf 41 96 e6 be
       -0.1807968 -0.044013258 -0.7213715 -0.4503651
000050 9f 76 80 3d 98 5e 53 be 19 33 63 be f2 46 8c bd
       0.06272625 -0.20641553 -0.22187461 -0.06849469
000060 33 84 37 be 84 2b 33 3c 13 86 26 be 8d b8 a2 be
       -0.17921524 0.010935668 -0.16262083 -0.31781426
000070 08 85 35 bc 56 72 08 be 15 07 f0 bc fd 0c c7 bd
       -0.01107908 -0.13324866 -0.029300252 -0.09719274
000080 9d 1e 15 bd d9 1e 0a bc 93 e1 dd be cb 99 b9 bc
       -0.03640615 -0.008430206 -0.43336162 -0.022656342
000090 65 1d 87 be 33 f8 57 be ac 20 c9 bd 47 f9 f4 be
       -0.26389614 -0.21090774 -0.09820685 -0.47846434
0000a0 9d 54 a2 be 0e cf de bc 35 7a 83 be 19 ec b7 be
       -0.3170518 -0.02719834 -0.25679174 -0.35922316
0000b0 df e1 8e be bc 80 e5 bd 8d 24 9d be 46 10 c3 be
       -0.279067 -0.11206195 -0.3069195 -0.38098353
0000c0 1c 5d 92 bc fb ab b3 bd
       -0.017866664 -0.08773037

4.weight f4 [1, 50]
000000 c0 78 a2 37 5f bb cf 3b 3e f6 6d bc ae 96 c3 bb
       1.9368134e-05 0.006339475 -0.014524041 -0.00596889
000010 c4 c0 05 3d fb 3c de bc 24 a2 f5 bc d2 ec 1e bd
       0.03265454 -0.027128687 -0.029984541 -0.03880007
000020 b0 c7 82 bb e4 c3 be bc 24 40 d4 bc 9e bb c1 bc
       -0.0039910898 -0.023286767 -0.02590949 -0.023649033
000030 b8 86 66 3c 9d 92 c0 3e 87 a0 04 bd 74 c7 46 bd
       0.014070205 0.37611857 -0.032379653 -0.048530057
000040 68 1a a8 3c da d2 33 3c 1e 74 bb bd e9 ba 79 bc
       0.020520404 0.010975564 -0.09153007 -0.015242317
000050 19 43 19 ba c4 31 17 3d c3 5e 6c 3c 0a bf f6 bb
       -0.0005846485 0.036912695 0.01442689 -0.007530098
000060 ce 3d ba bc 58 b5 89 3c 58 15 a4 3c 9b ff 86 bd
       -0.022734549 0.016810104 0.020029709 -0.065917216
000070 f1 e8 17 3d 8d fe f7 bc 90 e4 24 3c b7 ed 9e 3d
       0.037087385 -0.030272746 0.010064259 0.07760184
000080 15 97 e2 3c 88 8a 94 bb ac c7 4a bb e6 ab 9e 3c
       0.027659932 -0.004533116 -0.0030941768 0.019369077
000090 b6 cb df bc b0 4f 13 bd 05 e3 cc ba 9e de b8 bc
       -0.027318817 -0.035964668 -0.0015631622 -0.02256709
0000a0 64 2d f9 bb 15 8e 8f bc 13 a5 3a 3c 20 64 50 bc
       -0.007604288 -0.017523805 0.011391896 -0.012719184
0000b0 19 16 a7 bc 00 be a2 3b 2f 73 3b bc 3a 0f 3b 3c
       -0.02039628 0.0049664974 -0.011441036 0.0114172045
0000c0 ce db 4b bb 83 74 81 3b
       -0.0031106356 0.003950657
