code/storage/vi_bnn--problem_None--weights.pth (torch, 24456 bytes, 7 tensors)

0.weight f4 [50, 1]
00000000: 2d03 11bf 4477 9ebe 330f 173f 32ff d8be
00000010: 0220 10bf b320 4fbe 20f1 3dbe 936b d3be
00000020: 6532 463f b7bc 2abe d10b 33be 0d03 573f
00000030: 1722 2abe 6671 e1be 34db e93e 3991 2ebf
00000040: dbe4 78be 1ae0 b3be 2f71 843d 34a6 04bf
00000050: 6080 4bbf a657 153f 2e0e b3bd 8479 463f
00000060: 14db f9be d0b3 d03d 30dc 7bbe bb7f c8be
00000070: b8e0 0e3e 0832 883d 08a8 19be b992 4ebe
00000080: 3074 bc3d 04ba 81be 58f4 02be 2044 bb3d
00000090: bd8d 4b3e 4089 4dbe 63e4 62be b137 1bbf
000000a0: 6400 ac3d 1f48 ac3e 65a2 f13d a814 533e
000000b0: b0b6 27be 35eb 7dbe 56df 1dbf 9cdd 81be
000000c0: e854 37bd 1d13 c1be
-0.5664547 -0.30950367 0.5900757 -0.423822 -0.5629884 -0.20227318 -0.18549013 -0.4129301
0.77420646 -0.16673551 -0.17484976 0.8398903 -0.16614567 -0.4403183 0.4567505 -0.6819034
-0.24306051 -0.35131913 0.064669006 -0.51816106 -0.7949276 0.58336866 -0.08742939 0.7752917
-0.48799956 0.101905465 -0.24595714 -0.3915995 0.13952911 0.06650168 -0.15005505 -0.20173158
0.092018485 -0.2533723 -0.12788522 0.09143853 0.19878288 -0.20071888 -0.22157435 -0.60631853
0.08398512 0.33648774 0.117985524 0.20613348 -0.16378284 -0.24796756 -0.6166891 -0.25364387
-0.044758707 -0.37709895

0.bias f4 [50]
00000000: 6413 3e3e 2fb9 283f 1db2 26bf 271b 963d
00000010: ef47 2b3e 1bdc e53e c15d b53e 079b 1c3d
00000020: d3ff 55bf 5eb5 be3e 01af 10bf c71c 43bf
00000030: dd17 853e 77b6 f53d ebcd 00bf 3a7f bf3e
00000040: 5214 c93e b1eb ad3d 089e 76be 84f0 a73e
00000050: 9faa 883e 3d0f 36bf b958 183e c250 4bbf
00000060: 4d2a 2c3e 80eb 1cbf d022 56bf d5e0 c83d
00000070: a65a 2fbf 98db 1f3e 5271 ab3c 78f7 7a3e
00000080: 74c3 42bf 7ab6 71bf b0ac 2abf 007b 0fbf
00000090: 0d0b fcbd 89d5 d23e 362a fc3e a416 7bbf
000000a0: 428f 073d b244 d5be d43c 3a3e 9891 4abf
000000b0: 282a 7ebf fc13 173f f028 283e 6636 49bf
000000c0: 8f25 d03e 6de4 17bf
0.18562084 0.6590757 -0.6511553 0.07329398 0.16726659 0.4489449 0.3542309 0.038233783
-0.8359348 0.37247747 -0.56517035 -0.76215786 0.2599477 0.11997693 -0.50314206 0.37401754
0.39273316 0.0849222 -0.24083722 0.32800686 0.26692674 -0.71117 0.14877595 -0.794201
0.16813011 -0.61296844 -0.8364687 0.09808508 -0.68497694 0.15611112 0.020928059 0.24508464
-0.7607949 -0.9441906 -0.6666975 -0.5604706 -0.12306795 0.4117854 0.49250954 -0.9808142
0.033095606 -0.41653973 0.18187267 -0.7912841 -0.99283075 0.5901487 0.16421866 -0.7859863
0.40653655 -0.59332925

2.weight_mu f4 [50, 50]
00000000: d1ae d9bd ada9 c2be d514 e13e 745c 2ebe
00000010: 3c35 b13b fde2 fcbd 8114 cabe e2dc 26bd
00000020: 6174 583f 55eb 50be 4720 84be 5e78 0a3f
00000030: 0af1 c5be 96c2 eebd 16b6 013f ab64 ca3c
00000040: bd74 6fbe 04ff 5eba 8b61 2a3e 0018 8ebe
00000050: 2c5b 56bd 8523 e83e 70c8 dbbd 9891 393f
00000060: ab74 46bc c119 2587 56be 9304 d447 b7bc
00000070: 36fa c504 ce12 29be aa46 dcbd 031a 7ebe
00000080: 50ae 2006 479d 0b84 d16b c284 54ff be82
00000090: 8582 193d d14d 6fbe 7ce7 73be 264c 8bbe
000000a0: 5cb0 4dbe d957 683e 08df 5fbe dfef 4506
000000b0: 669b 4586 f32d b3be d038 ba3d 3e7f 70bc
000000c0: f7c1 21be 7b6e dabd 1afd fcbd 814a e5be
000000d0: 64e9 91be f612 5bbe 7aeb 71be 53b5 06bf
000000e0: 74fe fdbe c802 26be b4a4 3ebe e2d8 f3be
000000f0: adea d8be 96d2 b8bd 0fea bfbe 98fa f8bd
00000100: 60f5 a4be 7931 96be 08f1 acbe c05d 04be
00000110: c281 51be bc27 14be 90a7 76be 4301 76be
00000120: 7646 59be e8bc adbe 9a89 9dbe 941b 6d85
00000130: cc54 9406 ee1e 91be eb35 4586 e0b5 a1be
00000140: 6af9 87be 6d09 c9be a8b3 0d87 6e9a a906
00000150: 8402 0706 6f3a 0f86 f84e b2be 7c8c dfbe
00000160: 2a6c a2be b017 92be c427 83be c5dd 90be
00000170: 5cfc c3be 6fe0 0506 ebb7 dc04 7cbe 07bf
00000180: ef52 54be 1d0b bfbc 071a 99be f749 78be
00000190: a6a0 90be 16cb 35be 0fba 1abe 9886 91be
000001a0: 441e ebbe 57ab 5c3b 79db 34be 00f8 febd
000001b0: d8d6 8bbe 2552 92bd 7cae d4be ce81 6abe
000001c0: 8e7a 31be cd64 47be 96e3 d0be 9aae 50be
000001d0: 09e4 64be 6bb7 9dbe bdc0 043d 8d37 ffbd
000001e0: a59c 7bbf 1e04 89be 29e0 00be 09a0 85be
000001f0: bb81 dbbd 9ee4 0186 643f 0d85 e275 8bbe
00000200: 405f c583 c3cf 303d 7c1b 50be c3ac abbd
00000210: 1297 1786 7406 8905 42bd 8f06 62a3 9206
00000220: 41a7 6b3d 8c21 2ebe 6828 53bc 6a51 8dbe
00000230: db8e 9ebd 65e3 11bd b37f 01bc 1019 491d
00000240: 676c d184 8ced 2f3c c5c1 b2be 3493 2dbd
00000250: 8628 0bbe c921 34be 39c4 6cbe bdbf 5abe
00000260: 0aa8 b3be 4a0c bebe bbba 16bf 8b34 28be
00000270: f642 8abe dce1 c1be a513 b8be aa3d 26be
00000280: 5dfa 8bbe 6ba1 93be e3c2 23bc 424c c4be
00000290: 35dc 81be dc8b 6ebe a6c3 79bd cd54 cabe
000002a0: 814a 25be 9e82 bbbe dace 7ebf 0baf 81be
000002b0: 4778 653c 916a d2be 6fcd 8abe f347 7f06
000002c0: aefd db86 4343 8abe 99bf 0787 e6ef e6bc
000002d0: 96f0 1abe 8104 65be 9cf9 e586 2567 5486
000002e0: eacf c186 245a b586 a7b5 4abe 3491 88be
000002f0: 0c7b acbe f7c3 65be c5f5 493a f821 8abe
00000300: ae22 09be 9abb 5b06 cf96 0586 82a0 94be
00000310: 6518 90be c954 3dbe a418 49be fa31 74be
00000320: 151c 46be d14b 8ebe 866c 4ebe 5c5d 68bd
00000330: 37e1 1cbe b0b4 01be 8c92 4ebe 5d44 d0bc
00000340: 75e9 10bf b471 8abe e7ef bfbd 8c47 9dbe
00000350: ae91 c4be 7032 273d b65d f8be 191e abbd
00000360: d7cf cabe a865 e9bd 9e70 d6be a2c5 60be
00000370: a701 71be d08c 52be d509 31bd f650 f0be
00000380: d292 913c 5e3b cd05 2495 eb05 f1f3 babd
00000390: 5052 3f84 de7f a4be 7433 32b9 40ff 85be
000003a0: 96ac f285 5f25 5b85 703f 4404 6a09 9f04
000003b0: ff00 4abe 64ba 0dbe f6d0 1dbe b925 09be
000003c0: df4a 78be f6ca 4cbe 5924 3cbe 166e e41c
000003d0: 7697 8685 a0fc b3bd 125d e5bd b41a 173e
000003e0: c42b 6fbe ab40 62bd f64b 0dbf fc40 8abd
000003f0: c718 fdbe 6183 c2be 5e9c 31bf de87 b43c
-0.10629047 -0.38020077 0.43961206 -0.17027456 0.0054079574 -0.12347982 -0.39468768 -0.040737994
0.8455258 -0.20402272 -0.25805876 0.54089916 -0.3866046 -0.11658208 0.50668466 0.024706205
-0.23384376 -0.0008506628 0.16638772 -0.27752686 -0.052333042 0.453396 -0.1073159 0.72487783
-0.012112777 -1.2420789e-34 3.473433e-36 -0.022373118 4.654426e-36 -0.1651108 -0.107556656 -0.2481461
3.022072e-35 -1.641159e-36 -4.5708195e-36 -2.8064542e-37 0.03747799 -0.23369528 -0.23818773 -0.27206534
-0.20086807 0.22689761 -0.21862423 3.722781e-35 -3.716575e-35 -0.34995994 0.090928674 -0.014678774
-0.15796648 -0.10665604 -0.12352963 -0.44783404 -0.28498375 -0.21393952 -0.23624983 -0.5262043
-0.49608195 -0.16211998 -0.18617517 -0.47626406 -0.42366543 -0.09024541 -0.3748326 -0.12157172
-0.32218456 -0.2933462 -0.33777642 -0.12926388 -0.20459655 -0.14468282 -0.24087358 -0.24023919
-0.21218285 -0.33933187 -0.30769044 -1.1148752e-35 5.579601e-35 -0.2834391 -3.7091195e-35 -0.31584072
-0.26557475 -0.39265004 -1.0660457e-34 6.379765e-35 2.5392526e-35 -2.693824e-35 -0.34825873 -0.4366187
-0.31723148 -0.28533697 -0.25616276 -0.28294197 -0.38278472 2.5179408e-35 5.1890653e-36 -0.5302503
-0.20734762 -0.023320729 -0.2990267 -0.24246965 -0.28247565 -0.17753252 -0.15110038 -0.28423
-0.45921528 0.0033671462 -0.17661847 -0.12449646 -0.2731235 -0.07144574 -0.4153937 -0.22901079
-0.17331907 -0.19472046 -0.40798634 -0.20379105 -0.22352614 -0.30804 0.032410372 -0.12461767
-0.98285896 -0.26760954 -0.1258551 -0.2609866 -0.107181035 -2.4430165e-35 -6.641431e-36 -0.27238375
-1.1600488e-36 0.043166887 -0.20322984 -0.08382561 -2.8510932e-35 1.2885789e-35 5.406871e-35 5.5159166e-35
0.057532553 -0.17004985 -0.012888052 -0.27601177 -0.07742091 -0.03561725 -0.007903981 2.6615086e-21
-4.9235216e-36 0.010737788 -0.3491346 -0.042376712 -0.13589677 -0.17591013 -0.23121728 -0.21362205
-0.3508914 -0.3711875 -0.5887868 -0.16426294 -0.27004212 -0.3786763 -0.35952488 -0.1623446
-0.2733945 -0.2883409 -0.009995195 -0.3833943 -0.25363317 -0.2329554 -0.0609776 -0.39517823
-0.16141702 -0.3662309 -0.9953438 -0.2532886 0.014005727 -0.4109693 -0.27109858 4.801303e-35
-8.2751393e-35 -0.27004442 -1.0212577e-34 -0.028190564 -0.15130839 -0.22365 -8.6506994e-35 -3.9948547e-35
-7.2904033e-35 -6.821708e-35 -0.19795857 -0.2667328 -0.33687627 -0.22438036 0.0007704164 -0.2697904
-0.13392136 4.132715e-35 -2.5125316e-35 -0.29028708 -0.28143612 -0.18489374 -0.19638306 -0.2384719
-0.1934665 -0.27792218 -0.20158586 -0.05672966 -0.15320288 -0.12666583 -0.2017309 -0.025423223
-0.5660623 -0.27039874 -0.093719296 -0.30718648 -0.38392395 0.040819585 -0.48508996 -0.0835535
-0.39611694 -0.113963425 -0.41882795 -0.21950391 -0.23535787 -0.20561528 -0.043222267 -0.46936768
0.017770205 1.9299915e-35 2.215408e-35 -0.091285594 -2.2489738e-36 -0.32128805 -0.0001699457 -0.26171303
-2.2820969e-35 -1.03041945e-35 2.3068818e-36 3.7389366e-36 -0.19726942 -0.13840634 -0.15411744 -0.13393296
-0.24247311 -0.19999298 -0.1837324 1.5116231e-21 -1.2656937e-35 -0.08788419 -0.111993924 0.1475628
-0.23356539 -0.055237453 -0.5519403 -0.06750676 -0.49432966 -0.3799086 -0.6937922 0.022037443

2.weight_log_sigma f4 [50, 50]
00000000: 3b38 dd3d f912 273e b4b8 8abe 45ae 0bbd
00000010: 8cda ddbe f7d9 3dbe af29 14be eb57 03be
00000020: 55bd 373c 6237 97bd 2dca a53e 910e 0b3f
00000030: 8009 923e bf0d 4bbe 9131 eabd 1c27 163e
00000040: 1302 d4bd fc37 f0bd 0f2b 96be 428a 343c
00000050: bba1 483f cad4 dc3e ce34 50bd 4cc5 08be
00000060: 4ed3 543e 0000 0000 0000 0000 84f0 bfbe
00000070: 0000 0000 418a 9abe 98d9 45be 27eb 4fbe
00000080: 0000 0000 0000 0000 0000 0000 0000 0000
00000090: 563f e1be d523 cdbe 0f4f 3ebe 198b a1be
000000a0: cf9e bebe 0d7d b23d 7b11 9cbe 0000 0000
000000b0: 0000 0000 58cb c8be c001 6e3d 5895 d2bd
000000c0: c381 c6bd a478 083d 9c18 84be 09bb 6abd
000000d0: 64b5 d93d 5e60 aebe 4cd4 723e aaa1 adbe
000000e0: 98cb 833b 2676 00be 0435 0abd 5bdd b8bc
000000f0: f8e4 d63d c49e aabc c21a b0be bb59 c6bd
00000100: 2723 3b3e 9fb9 7e3d 99c5 a13e e12d 49be
00000110: ca6a f5bc 1105 f73d 7482 873e eb9c 1fbe
00000120: cd95 4fbe cc68 1f3e cb8b eabd 0000 0000
00000130: 0000 0000 b312 093e 0000 0000 d53b 14bd
00000140: 86b0 163d be86 0cbe 0000 0000 0000 0000
00000150: 0000 0000 0000 0000 b5c6 19be 4220 0abe
00000160: 4639 72bd ebc2 983e ecb6 49be 39cb 5fbe
00000170: 03d7 61be 0000 0000 0000 0000 f5ba f8bc
00000180: 8b2d c1bd 0c55 3f3d 1c07 bfbe 4b60 8bbd
00000190: f883 683c a3b7 e13d 5dc0 90bd 4e22 1dbd
000001a0: 76fe 2f3d 6dca d5bd 73c5 413d e7e4 69bd
000001b0: f288 abbe e802 423c 306b 603d 79b0 32bc
000001c0: 3e47 403d 18b0 adbd ab8a 8c3d 7326 b0bd
000001d0: 0053 12be 3bbc bfbd 5843 49be b967 17be
000001e0: d0f8 28be 60d9 c3bd 0875 36bd 4aff 5c3d
000001f0: 63fb a1bd 0000 0000 0000 0000 a3d9 8ebd
00000200: 0000 0000 3c67 14be dd69 ffbd 0750 fe3d
00000210: 0000 0000 0000 0000 0000 0000 0000 0000
00000220: 78c9 5c3d 7fc6 07be c4c3 52bd 65dd 46bd
00000230: e3eb a33d 3331 afbd c663 d1bd a86c e831
00000240: 0000 0000 0abc 8cbd 09c1 2cbe b86f 90bd
00000250: e8d0 0dbe 764a 99bd 9808 e7bb 668a 33be
00000260: 1b3f 17be ce90 86bd 850b c9be a779 bc3d
00000270: 1e96 033e d8e5 33be feae ac3e 410e 5f3e
00000280: 22d7 683e 9c3a 32be 59a2 2abe bdcb 60be
00000290: 1204 bcbd cc98 16be 101f 523c d864 90bd
000002a0: c742 0cbe 26ca 2cbd f7f4 dfbe 7a5e 61be
000002b0: 05f2 90bd 07c3 3e3c ad17 ccbe 0000 0000
000002c0: 0000 0000 1deb 35bd 0000 0000 c977 48bd
000002d0: 34a8 cabd 183b 143e 0000 0000 0000 0000
000002e0: 0000 0000 0000 0000 de90 00be 77ea 86bd
000002f0: 0e8e 95bd e9c0 23bb c61d 043e 091f 19be
00000300: 7c45 05be 0000 0000 0000 0000 3557 36be
00000310: fecb 06be ffef a6bd c49c 053d 233e 4abe
00000320: c46e f6bc 548f 113e f838 833d 91e5 163d
00000330: 9ff3 783d 5103 95bc 4833 953d e011 c0bc
00000340: 198a 38be cf33 003e 1434 f7bd cc51 22be
00000350: 9f70 583d 519f bbbd f8ea 38be a3d9 a9bd
00000360: cab9 dabd 4b78 5cbe 8915 47be 5a54 843d
00000370: c762 693e 4cd9 1a3e 8164 a33d f950 08be
00000380: e2df 17be 0000 0000 0000 0000 885b c13d
00000390: 0000 0000 2139 72bd 7b76 31be 2de9 cdbd
000003a0: 0000 0000 0000 0000 0000 0000 0000 0000
000003b0: 3a40 0ebe 3e11 90bd fba4 693d 05ae c1be
000003c0: 6768 63be ff32 d0bd 214d 7e3b ec87 3031
000003d0: 0000 0000 4b65 2abe 164e 6c3c 0a74 8abe
000003e0: 5e2b b1bc bd13 51be fbac 4abd 5fa7 66be
000003f0: fd2f e9be e186 95bd 92eb 84be 1d02 e5bd
0.10801741 0.16315831 -0.27094042 -0.034101743 -0.433308 -0.18540178 -0.14469026 -0.12826507
0.011214574 -0.0738361 0.3238081 0.543191 0.28522873 -0.19829462 -0.11435235 0.14663357
-0.10351958 -0.11729428 -0.29329726 0.011019291 0.7837178 0.43131095 -0.05083161 -0.13356513
0.20783731 0.0 0.0 -0.37488186 0.0 -0.30183604 -0.19321287 -0.20304547
0.0 0.0 0.0 0.0 -0.43993634 -0.400664 -0.18584846 -0.31551436
-0.37230536 0.08715258 -0.30482087 0.0 0.0 -0.3921764 0.058107138 -0.10282391
-0.09692719 0.033318177 -0.25800025 -0.057307277 0.10630301 -0.34057897 0.23713797 -0.33912402
0.004022073 -0.1254507 -0.033741966 -0.022566488 0.10492891 -0.020827658 -0.34395415 -0.096850835
0.18275128 0.06218874 0.31596068 -0.19646408 -0.029958148 0.12061513 0.26466715 -0.15587203
-0.20271988 0.1556732 -0.11452445 0.0 0.0 0.1338604 0.0 -0.036189873
0.03678944 -0.13723275 0.0 0.0 0.0 0.0 -0.15017207 -0.13488868
-0.05913665 0.2983621 -0.19698685 -0.21854867 -0.22054677 0.0 0.0 -0.030362586
-0.09432515 0.046711966 -0.37310112 -0.06805476 0.01419162 0.11021354 -0.070679404 -0.038362794
0.042967282 -0.10439 0.047307443 -0.057103064 -0.33502918 0.011841513 0.054789722 -0.010906332
0.04694294 -0.08480853 0.06862386 -0.086010836 -0.14289474 -0.09362074 -0.19654596 -0.14785661
-0.16501164 -0.09562945 -0.044545203 0.0539544 -0.07909276 0.0 0.0 -0.06975105
0.0 -0.14492506 -0.12471364 0.12417608 0.0 0.0 0.0 0.0
0.053903073 -0.13259314 -0.051456228 -0.048550982 0.08003976 -0.08554306 -0.102241084 6.7644415e-09
0.0 -0.06871803 -0.16870512 -0.07052559 -0.13849223 -0.074849054 -0.007050585 -0.17533264
-0.14770167 -0.06570588 -0.392666 0.09202891 0.12850234 -0.17568147 0.33727258 0.21782781
0.22738317 -0.1740517 -0.16663493 -0.2195272 -0.09180464 -0.14706725 0.012824789 -0.070504844
-0.13697349 -0.04218497 -0.4374158 -0.22008696 -0.070774116 0.011643178 -0.39861813 0.0
0.0 -0.044413675 0.0 -0.04894236 -0.098953635 0.14475667 0.0 0.0
0.0 0.0 -0.12555262 -0.06587689 -0.073024854 -0.002498681 0.12901983 -0.14953245
-0.13014787 0.0 0.0 -0.17806704 -0.13163754 -0.08151244 0.032620206 -0.19750266
-0.030082114 0.14214832 0.0640735 0.036840025 0.06077921 -0.018190058 0.07285172 -0.023446023
-0.1802143 0.12519763 -0.1207048 -0.15851516 0.05284178 -0.091612466 -0.18058383 -0.08293464
-0.10679968 -0.21530263 -0.19441809 0.06461401 0.22791587 0.15121955 0.07978154 -0.13312139
-0.14831498 0.0 0.0 0.09441286 0.0 -0.059136514 -0.17330353 -0.100542404
0.0 0.0 0.0 0.0 -0.13891688 -0.07034539 0.057042103 -0.3782808
-0.22207795 -0.10165977 0.0038803297 2.5688633e-09 0.0 -0.16640203 0.014422914 -0.27041656
-0.021627124 -0.20417686 -0.049481373 -0.22524785 -0.45544425 -0.07301117 -0.25960976 -0.11182044

2.bias_mu f4 [50]
00000000: 6b2c cfbe d302 1cbf 41c5 62be 65e0 93bd
00000010: 229c e0be 6b51 713e e432 e5be da10 81ba
00000020: 1d17 81be 01fd 2abf f943 21bf 62ef a1be
00000030: c16c 01bf a22b 2dbe 0f03 123f 86b6 3fbe
00000040: 921b b6be e5d7 17be 979e d7be f46a e1be
00000050: 5232 20bf a417 1abf 2b3e d0be 2715 21bf
00000060: d400 dfbe 2e5a dbbe 0bbe b5be f1e9 edbe
00000070: 1205 d9be 5422 75be b923 0a3f db30 403f
00000080: 968b f0be be91 0c3f a891 f3be b725 033f
00000090: 6313 cdbe 4d08 dbbe a618 26bf f08b cbbe
000000a0: 4944 29be c278 36bf c6aa 71be 4401 8e3f
000000b0: 3c48 49be 5766 3b3f d4b0 64be 70a6 1eb8
000000c0: 12cc 02bd e095 f0be
-0.40463576 -0.6094181 -0.22145559 -0.07220534 -0.4386912 0.23566215 -0.4476539 -0.0009846941
-0.25212947 -0.66792303 -0.62994343 -0.31627947 -0.5055657 -0.16911176 0.5703592 -0.18721971
-0.3556791 -0.14828451 -0.42113182 -0.4402691 -0.6257678 -0.6019232 -0.4067243 -0.629229
-0.4355532 -0.4284224 -0.35496554 -0.46467546 -0.4238668 -0.23938876 0.5396076 0.7507455
-0.46981496 0.54909885 -0.47572064 0.51229423 -0.40053853 -0.4277977 -0.6488136 -0.397552
-0.16529955 -0.7127801 -0.23600301 1.1094136 -0.19656461 0.73203033 -0.2233308 -3.7825142e-05
-0.031932898 -0.46989346

2.bias_log_sigma f4 [50]
00000000: 9c89 a0be 1226 d9bd 0261 7fbe 0418 f9bb
00000010: 3604 c2be 4f79 423e a534 7cbe f88a 91be
00000020: 42dc 91be c69e 02be 9aef babe 8b8e bbbd
00000030: f9ac babe 29c1 02bf 057d bdbd ca32 bcbd
00000040: cb21 383d c083 69bf ec80 023e c2ba 5abe
00000050: 5936 b4be 693d 25bf e9e8 a8bd a2a3 083c
00000060: e34c 15bf 21b7 30be b618 20be 74c0 34be
00000070: 4e86 e03b 5849 543d 5807 53bc ca2c 49be
00000080: fb42 c4be 0bb7 e8be 4eab 85be 3fdb 8a3d
00000090: 4466 0cbf 009b 57be 11da bebe 6e99 14be
000000a0: 4bde 0dbf 0e2f 3dbd dc8c 95bd 6836 7cbf
000000b0: a8ae 97be 1787 bdbe 6e22 71be eaa8 363e
000000c0: 83c4 4c3f 0d27 63be
-0.31354988 -0.106029645 -0.2493935 -0.00760174 -0.37893838 0.18991588 -0.24629457 -0.28426337
-0.28488356 -0.1275588 -0.36510926 -0.09158047 -0.36460093 -0.5107599 -0.09252361 -0.09189375
0.044954102 -0.9121666 0.12744492 -0.21360305 -0.35197714 -0.6454683 -0.08247549 0.008339794
-0.58320445 -0.17257358 -0.15634426 -0.1765154 0.006851948 0.05182776 -0.012880169 -0.19645992
-0.38332352 -0.4545215 -0.26107258 0.06780099 -0.54843545 -0.21055222 -0.37275746 -0.14511654
-0.5541732 -0.046187453 -0.073022574 -0.9852052 -0.2962544 -0.37017128 -0.2354829 0.17837873
0.79987353 -0.22182865

4.weight f4 [1, 50]
00000000: 48f1 40bd e5ff 0dbd 6205 aeba b6fe c33a
00000010: 5569 03bc 6b7c ec3c 0f3c 04bd 0c4b b83a
00000020: 9973 24bd 6bc9 11bc 1423 1dbd f280 06bd
00000030: f66e c0bc 6809 e9bc f224 a13d 8c21 9cbb
00000040: 1b12 57bc 1b66 a0bd be0b 923c 50f7 703c
00000050: 7582 b03c 9217 993c 0fa4 043c 8e43 68bd
00000060: fb3b 7cbd 3838 9bbc ed4c d8bc daad e6bc
00000070: 03f9 82bc 7635 78ba 8411 963d 45cc d13d
00000080: 3a62 64bc 8501 cd3d b1bb c1bb e271 863d
00000090: f802 45bc f285 acbd da4f cdbc 4d38 5cbc
000000a0: 20ee edbd 1ac8 8ebc dec8 f83c 3ebc 363e
000000b0: 82b4 f8bb 8533 b53d 3d82 41bd 7779 c03d
000000c0: 524b 933c c6b0 0fbd
-0.047105104 -0.03466787 -0.0013276751 0.0014953229 -0.008020719 0.02886792 -0.03228384 0.0014060452
-0.040149305 -0.008898119 -0.03836353 -0.032837816 -0.02349041 -0.028446868 0.07868375 -0.0047647413
-0.013126875 -0.07831975 0.017827865 0.014707401 0.021546582 0.018687997 0.008095755 -0.05670505
-0.06158064 -0.018947706 -0.026403869 -0.02815907 -0.015987879 -0.00094684155 0.073275596 0.102440394
-0.013939435 0.100100555 -0.005912267 0.0656469 -0.012024634 -0.084239855 -0.02506249 -0.0134411575
-0.11617684 -0.0174294 0.030369218 0.17845246 -0.0075898776 0.08847717 -0.047243346 0.093981676
0.017980251 -0.035080694
