code/storage/vi_bnn--problem_A--weights.pth (torch, 85412 bytes, 7 tensors)

0.weight f4 [100, 1]
-0.28013393 0.21436746 -0.39833003 0.0008738041 0.5501462 0.15285158 0.14238103 0.5606065
-0.48953888 -0.6686356 0.28627545 -0.46190757 -0.035856366 0.6059019 0.0056072823 0.52953273
0.5269266 -0.08905747 0.0016149668 -0.23572822 -0.3875469 -0.68234396 -0.44230157 -0.21172214
-0.11658695 0.40492967 -0.015549064 0.035416514 -0.26072943 -0.35692444 0.27866602 0.046365503
0.09565502 0.20654249 -0.71151173 0.08475318 -0.24198978 0.22813666 0.6651483 -0.5139481
-0.3730383 0.16984549 -0.27637354 -0.8831663 0.46041626 0.100986294 -0.43887824 -0.72933
-0.83442205 -0.090180166 0.21521226 0.14054523 -0.3678877 -0.44868752 0.020763135 0.4961183
0.32097286 -0.46867397 -0.5502537 0.3744981 0.32113877 0.13526061 -0.23279926 -0.13570751
0.6646552 0.5521496 0.10422693 -0.021919778 -0.3164896 -0.047817267 -0.030942319 -0.527923
-0.40273234 -0.5334677 -0.0023590324 -0.7519394 -0.29120988 0.3849886 -0.4864397 -0.39424658
0.4548392 -0.28302366 -0.6103463 -0.015689753 -0.49793246 0.06123423 0.099843115 -0.06703059
-0.74308693 -0.5690345 0.16697286 -0.47623315 0.08921177 -0.35255015 -0.28872523 0.7592285
0.08981172 0.22481966 -0.6313475 -0.5669106
00000000: b76d 8fbe 2583 5b3e eaf1 cbbe 0010 653a
00000010: 62d6 0c3f 2085 1c3e 55cc 113e e883 0f3f
00000020: d7a4 fabe b42b 2bbf b292 923e 267f ecbe
00000030: 20de 12bd 631c 1b3f 4bbd b73b 758f 073f
00000040: a9e4 063f c363 b6bd 4bad d33a bd62 71be
00000050: 8c6c c6be 18ae 2ebf 5a75 e2be b0cd 58be
00000060: 24c5 eebd f152 cf3e 80c1 7ebc e810 113d
00000070: 547e 85be cdbe b6be 50ad 8e3e c1e9 3d3d
00000080: c7e6 c33d e07f 533e a225 36bf 1393 ad3d
00000090: 2bcc 77be a89c 693e 2947 2a3f 1a92 03bf
000000a0: e0fe bebe faeb 2d3e d580 8dbe 3017 62bf
000000b0: aebb eb3e e7d1 ce3d a6b4 e0be 5fb5 3abf
000000c0: af9c 55bf 61b0 b8bd 9a60 5c3e 17eb 0f3e
000000d0: c75b bcbe 5fba e5be 7317 aa3c 3803 fe3e
000000e0: 8e56 a43e 09f6 efbe 6ddd 0cbf 37be bf3e
000000f0: 4d6c a43e c281 0a3e ee62 6ebe e9f6 0abe
00000100: d826 2a3f ad59 0d3f ee74 d53d 1b91 b3bc
00000110: ed0a a2be 0adc 43bd bf7a fdbc f625 07bf
00000120: ef32 cebe 5791 08bf ff99 1abb 1a7f 40bf
00000130: 7619 95be 3a1d c53e a00e f9be b0da c9be
00000140: afe0 e83e 7ae8 90be a83f 1cbf cc87 80bc
00000150: 01f1 febe bed0 7a3d 8c7a cc3d 5547 89bd
00000160: f23a 3ebf 3fac 11bf effa 2a3e d5d4 f3be
00000170: a9b4 b63d 7481 b4be cbd3 93be cd5c 423f
00000180: 35ef b73d 2037 663e fd9f 21bf 0e21 11bf

0.bias f4 [100]
0.08837783 -0.33435407 -0.07890285 -0.81214476 -1.1878403 -0.6883185 0.14719038 -0.6444794
0.18464206 -1.1696869 -0.37531397 -0.07314592 -0.44301105 -0.6957104 0.3564456 -0.44981313
-0.558083 0.49713767 -0.042073265 -0.0284036 -0.22194925 -0.6783387 0.14332435 0.057198845
0.3056984 -0.41285035 -0.92488897 0.05514467 -0.7772378 0.15497491 -0.32578754 0.057843283
0.1749191 -0.69777155 -0.8236791 0.17404665 0.06291956 -0.18967445 -0.4808542 -0.964852
-0.409752 -0.20441827 0.08553697 -0.8601643 -0.53904325 0.19995068 0.131038 -0.7696194
-1.717589 -0.45257074 -0.22835127 -0.20310195 -0.19895025 -0.48816264 0.26937827 -0.5797382
-0.38878033 -0.6219688 0.1570597 -0.6270166 -0.3459487 0.29113692 0.13576765 -0.13827318
-0.77528596 -0.6031992 0.21506445 -0.2788497 -0.9783106 -0.16381794 0.5791842 -1.0663476
-0.36422998 -0.52264845 0.26069286 -0.7752556 0.09256852 -0.44959724 -0.31281564 -0.3316808
-0.5354661 0.09171143 -0.56559604 0.32935044 0.15975636 0.12369213 0.11247121 -0.23094438
-0.68014354 -1.1493891 0.050320443 -0.5639052 -0.16520779 0.11125379 -0.21266846 -0.8687179
-0.31772783 -0.81246877 -0.85628265 -0.1062218
00000000: 70ff b43d 7530 abbe d197 a1bd b8e8 4fbf
00000010: 270b 98bf a435 30bf 13b9 163e 9afc 24bf
00000020: cf12 3d3e 4db8 95bf 2729 c0be 87cd 95bd
00000030: 58d2 e2be 141a 32bf 0a80 b63e e84d e6be
00000040: 87de 0ebf d488 fe3e 0455 2cbd abae e8bc
00000050: aa46 63be 9ba7 2dbf 9ec3 123e 5649 6a3d
00000060: 8084 9c3e 1f61 d3be 86c5 6cbf 61df 613d
00000070: 0ef9 46bf beb1 1e3e a0cd a6be 14ed 6c3d
00000080: fe1d 333e 28a1 32bf a2dc 52bf 4939 323e
00000090: f8db 803d 053a 42be 8632 f6be 8a00 77bf
000000a0: 04cb d1be 0653 51be 022e af3d ba33 5cbf
000000b0: bdfe 09bf dfbf 4c3e d32e 063e c705 45bf
000000c0: f5d9 dbbf 5ab7 e7be ead4 69be f5f9 4fbe
000000d0: 9db9 4bbe 74f0 f9be f3eb 893e b969 14bf
000000e0: 370e c7be 5939 1fbf 42d4 203e 2984 20bf
000000f0: 3020 b1be e60f 953e ad06 0b3e 7c97 0dbe
00000100: 2479 46bf 436b 1abf db39 5c3e 63c5 8ebe
00000110: 9072 7abf e4bf 27be 6a45 143f 147e 88bf
00000120: 5a7c babe 4acc 05bf 8979 853e 2777 46bf
00000130: 9094 bd3d 9c31 e6be 5f29 a0be 11d2 a9be
00000140: 4e14 09bf 34d3 bb3d e7ca 10bf 9fa0 a83e
00000150: 2c97 233e 4d52 fd3d 4e57 e63d af7c 6cbe
00000160: e31d 2ebf 2f1f 93bf cf1c 4e3d 175c 10bf
00000170: 3b2c 29be 07d9 e33d c3c5 59be 4c64 5ebf
00000180: 39ad a2be f4fd 4fbf 5735 5bbf d18a d9bd

2.weight_mu f4 [100, 100]
-0.2982415 -0.21452127 -0.3246404 -6.8187576e-38 -0.018430538 -5.473048e-38 -0.018478207 -0.5046717
-0.22588204 -0.14205529 -0.23298194 -0.36493784 -2.7468555e-38 -0.493419 0.07791192 -0.9130282
-0.5821777 0.03798169 0.041439928 -0.3850259 -0.36423504 -0.18561304 -0.3808625 -0.32973525
-0.11047934 -0.3782857 5.0144636e-38 0.065449506 2.8844115e-38 -0.21974158 -0.24492635 -0.04982949
0.041040905 -5.5636313e-38 -0.1997647 0.05670289 -0.20622179 -0.5219553 -1.2749316 -0.117890395
-0.18151268 -0.047567748 -0.2369382 -0.33279577 -0.41159925 0.09278593 -0.29324386 -0.19811817
0.30850005 -0.0008605114 -0.25027186 -0.13083681 -0.28644222 -0.12613074 0.031533748 -0.44104567
-0.2636851 -0.17488062 -0.2563395 -0.3118114 -0.60120296 0.09196831 -0.12314082 -0.05562182
-0.49790624 -0.6238204 0.17516595 -1.7373343e-38 -0.007838609 -0.0430347 0.09228254 -0.12355952
-0.19415638 -0.21853344 0.0027227418 -0.21430817 -0.425887 -0.15835363 -0.27120164 -0.27074733
-0.6273087 -0.40724373 -0.22155091 0.08162575 -0.30519316 0.0049192626 -0.07091055 -0.061581142
-0.14224172 -0.17882404 -0.100170135 -0.21302292 -0.11092153 -0.4659513 -0.18090722 -0.50178474
0.009726077 4.5472718e-38 -0.20038551 -0.32080796 -0.2994998 -0.099450834 -0.14253135 -4.2888769e-38
0.04058763 -2.7652955e-38 -0.16341583 -0.10294427 -0.3010822 -0.1785481 -0.026772017 -0.1118189
-3.3565448e-38 -0.11500167 -0.22342044 -0.12442495 -0.013743122 -0.40026972 -0.13563886 -0.24950479
-0.19291957 -0.3115582 -0.27529457 -0.18995455 -0.41835406 -0.035908036 -1.4864358e-38 -0.12410306
-2.3867016e-38 -0.24704939 -0.1673349 -0.07914022 -0.18885116 4.779987e-38 -0.13786563 -0.21941747
-0.25416362 -0.17707151 -0.3569471 -0.22879346 -0.25175965 -0.05627852 -0.1348433 -0.5280739
-0.087466985 -0.30196583 -0.117784746 -0.25804695 -0.079691105 -0.042610362 -0.19321807 -0.05106026
-0.15953949 -0.22614545 -0.35130852 -0.016353458 -0.14361893 -0.27332163 -0.32804245 0.050876908
-0.06411182 -0.26453844 -0.3553079 -0.09711613 -0.025397662 0.011001425 -0.18018281 5.3650354e-38
-0.019333566 -0.042766597 -0.3765149 -0.22599715 -0.18873003 -0.27719513 -0.3940179 -0.18297939
-0.30804402 0.000107867105 -0.22903647 -0.18233155 -0.10167006 -0.1582563 -0.17343408 -0.24097772
-0.16548403 -0.17795102 -0.4000705 -0.03115867 -0.26147717 -0.29180068 -0.18320377 -0.18340157
-0.011971949 -0.18278103 -0.3082551 -0.06432312 -0.06178252 -3.6359323e-38 -0.28215298 -0.17809518
-0.18596253 -0.22526589 -0.23398422 -7.424326e-39 -0.12024315 3.241685e-39 -0.08834863 -0.27022502
-0.23141219 -0.16603002 -0.17833023 -0.22510715 -3.6653372e-38 -0.16795933 -0.20206106 -0.67755735
-0.422438 -0.16270696 -0.05504653 -0.12544358 -0.1397965 -0.059499573 -0.3202724 -0.27321935
-0.23246852 -0.1762766 3.3753255e-38 -0.015887773 3.9820194e-38 -0.18455027 -0.14987116 -0.11151958
-0.13728592 1.8824763e-38 -0.057297062 -0.07473282 -0.14472654 -0.24640617 -0.86646783 -0.1266536
-0.08692345 -0.18553501 -0.26282322 -0.28821844 -0.3076382 -0.23107103 -0.15917656 -0.004975478
-2.6085472 0.00018553344 -0.20899339 -0.087064445 -0.08951734 -0.017150557 -0.07276168 -0.34798753
00000000: 1cb3 98be 77ab 5bbe 4437 a6be ce9f b981
00000010: a4fb 96bc 94fd 9481 9c5f 97bc 2a32 01bf
00000020: 9f4d 67be f176 11be d192 6ebe 22d9 babe
00000030: 948d 1581 6aa1 fcbe 4990 9f3d 37bc 69bf
00000040: 9909 15bf b092 1b3d eabc 293d 1d22 c5be
00000050: 047d babe 5811 3ebe 6900 c3be 0fd3 a8be
00000060: fe42 e2bd aaae c1be b681 8801 640a 863d
00000070: d40a 1d01 f003 61be f9cd 7abe 021a 4cbd
00000080: 821a 283d da74 9781 1e8f 4cbe 4a41 683d
00000090: ce2b 53be dd9e 05bf f530 a3bf 8570 f1bd
000000a0: 76de 39be 66d6 42bd ed9f 72be 3564 aabe
000000b0: 23bd d2be 8d06 be3d 0f24 96be 7ddf 4abe
000000c0: b8f3 9d3e f193 61ba a223 80be 16fa 05be
000000d0: 8ea8 92be 6b28 01be 8829 013d bdd0 e1be
000000e0: bc01 87be e813 33be ee3e 83be bea5 9fbe
000000f0: 70e8 19bf e259 bc3d 4131 fcbd b5d3 63bd
00000100: 91ed febe b2b2 1fbf b45e 333e d02d bd80
00000110: 826d 00bc 2745 30bd a1fe bc3d c60c fdbd
00000120: eed0 46be 3bc7 5fbe 0770 323b 9a73 5bbe
00000130: dc0d dabe 7427 22be f1da 8abe 659f 8abe
00000140: 4e97 20bf 4082 d0be 3ede 62be 672b a73d
00000150: 4742 9cbe c431 a13b 8d39 91bd 823c 7cbd
00000160: d0a7 11be a61d 37be 0026 cdbd ae22 5abe
00000170: d42a e3bd 2b91 eebe be3f 39be f774 00bf
00000180: 205a 1f3c b893 7701 dc31 4dbe f140 a4be
00000190: 0a58 99be e1ac cbbd bdf3 11be 3882 6981
000001a0: 373f 263d 988e 1681 7b56 27be 72d4 d2bd
000001b0: 7227 9abe 50d5 36be fd50 dbbc 4f01 e5bd
000001c0: 68bf 3681 ff85 ebbd 54c8 64be 82d2 febd
000001d0: d52a 61bc 27f0 ccbe eae4 0abe 2f7e 7fbe
000001e0: b58c 45be 8e84 9fbe 69f3 8cbe 7283 42be
000001f0: 8132 d6be 4e14 13bd c8db a180 bf29 febd
00000200: c4f1 0181 84fa 7cbe d759 2bbe 4514 a2bd
00000210: 3362 41be a61f 8201 a62c 0dbe f9ae 60be
00000220: bc21 82be 3c52 35be c5c1 b6be d548 6abe
00000230: a4e6 80be 4e84 66bd 5d14 0abe da2f 07bf
00000240: e421 b3bd 449b 9abe 2139 f1bd bb1e 84be
00000250: 1735 a3bd 3488 2ebd f5da 45be 9024 51bd
00000260: 525e 23be ac92 67be b6de b3be b0f7 85bc
00000270: d710 13be d0f0 8bbe 2ef5 a7be 4e64 503d
00000280: 0f4d 83bd 9571 87be ebea b5be d2e4 c6bd
00000290: c20e d0bc 523f 343c d881 38be d70c 9201
000002a0: 6d61 9ebc 072c 2fbd 90c6 c0be cc6b 67be
000002b0: 7242 41be 85ec 8dbe b7bc c9be f35e 3bbe
000002c0: f2b7 9dbe b636 e238 8988 6abe 1fb5 3abe
000002d0: 6438 d0bd f10d 22be b498 31be ddc2 76be
000002e0: a574 29be cb38 36be 0ad6 ccbe 7840 ffbc
000002f0: 56e0 85be e666 95be c599 3bbe 9fcd 3bbe
00000300: fe25 44bc f32a 3bbe 9dd3 9dbe d7bb 83bd
00000310: ab0f 7dbd 80f5 4581 5b76 90be 955e 36be
00000320: f66c 3ebe 1aac 66be 8f99 6fbe 00d8 5080
00000330: 0a42 f6bd 804c 2300 20f0 b4bd ef5a 8abe
00000340: 51f7 6cbe c603 2abe 339c 36be 7d82 66be
00000350: 588f 4781 88fd 2bbe 18e9 4ebe 6674 2dbf
00000360: cb49 d8be a79c 26be 7878 61bd 4874 00be
00000370: d026 0fbe d3b5 73bd befa a3be 68e3 8bbe
00000380: 3a0c 6ebe da81 34be 2cc5 3701 1327 82bc
00000390: 40cd 5801 bffa 3cbe d377 19be 6164 e4bd
000003a0: ae94 0cbe c8fb cc00 53b0 6abd 850d 99bd
000003b0: 3233 14be e651 7cbe d6d0 5dbf 7bb1 01be
000003c0: ec04 b2bd e4fc 3dbe c490 86be 5e91 93be
000003d0: c182 9dbe e29d 6cbe 2eff 22be 5609 a3bb
000003e0: 70f2 26c0 c18b 4239 5d02 56be d84e b2bd
000003f0: de54 b7bd 537f 8cbc 1304 95bd 6c2b b2be

2.weight_log_sigma f4 [100, 100]
0.121114746 0.041553933 -0.09730912 0.0 -0.018048905 0.0 0.10026234 -0.011177495
-0.3232974 -0.05974512 0.048085175 -0.02107746 0.0 -0.11208796 -0.14719082 -0.20711984
-0.19223125 -0.03287308 0.017256605 -0.052409776 0.010867839 0.028187783 -0.04649301 -0.09898798
-0.02305288 0.036078982 0.0 -0.1581114 0.0 -0.06698942 0.049342707 0.0036189416
-0.023620056 0.0 0.042520124 0.06306883 0.025352437 0.19216359 -0.38251084 -0.02863419
-0.09270095 -0.18243569 -0.053594 -0.24006718 -0.11511085 -0.14201312 -0.12535265 0.040255945
0.08493284 -0.0058123595 -0.076446116 -0.12823145 -0.13518013 0.023617698 -0.079327166 -0.0058734724
-0.11737421 0.085019775 -0.09730179 -0.16674128 0.03104498 0.14817904 -0.16795966 -0.0032005752
-0.13289222 0.10375594 0.010822541 0.0 0.0014254729 -0.028856423 -0.00047669097 -0.2159901
0.0932391 -0.21634136 -0.013532865 -0.027471373 -0.19509155 0.027895313 -0.031304732 0.045225386
-0.089250654 0.0141804265 -0.089567974 0.051991004 -0.16151667 -0.022308048 -0.23846395 0.034981735
0.16839904 0.04992428 -0.11386475 0.272479 0.112825274 -0.12889381 -0.118565686 0.053481057
0.057263117 0.0 0.12090125 -0.25657472 0.04660202 0.013350441 -0.092552654 0.0
-0.03116065 0.0 -0.10264305 0.11936569 0.0063914754 -0.100021414 0.059610024 -0.077378415
0.0 -0.06562045 -0.06562672 -0.17031817 -0.1727101 0.03351193 -0.011714589 -0.10215988
0.004294522 0.05435257 -0.0080047725 -0.02412626 -0.19141072 -0.10200957 0.0 -0.21332434
0.0 -0.0493265 0.0521518 0.027762534 0.13901782 0.0 -0.011023989 -0.1630204
-0.108768284 0.016514577 -0.76325846 -0.06448533 0.08478078 -0.20157383 -0.012034327 -0.114192374
0.018940039 -0.056736838 -0.25839782 -0.06611214 -0.49709564 0.011215198 -0.15336344 -0.066210985
-0.14210537 0.12995072 -0.13304198 0.2258634 -0.06525813 0.064300306 -0.10481991 -0.0100057935
0.07171188 -0.26706415 0.065916255 -0.057466593 -0.08703262 0.11870076 0.01693272 6.0547407e-09
-0.032291207 0.026759917 -0.16769372 0.07360991 0.005439775 0.10321006 -0.042296365 -0.11066966
0.15703174 0.27226713 -0.043146584 0.050944716 0.12575233 -0.020500105 -0.1892223 0.1314981
-0.12721694 -0.0767568 -0.06333401 0.03618003 0.08806954 0.02165625 -0.13780737 -0.033293553
-0.035869315 0.18014924 -0.09182041 -0.1261951 -0.012036807 0.0 0.033254035 0.014439575
0.0630176 -0.05976653 -0.07272616 0.0 -0.15591727 0.0 0.10048127 -0.089279406
0.0060897633 -0.104374744 -0.1090512 -0.089113005 0.0 -0.025319217 -0.036262024 -0.06402017
-0.21768533 -0.16021442 -0.07141896 0.023645353 0.07714444 -0.2640427 0.01189579 -0.0968902
0.12487918 0.0063795494 0.0 -0.14872237 0.0 -0.16627336 0.261016 0.041727655
0.14319871 0.0 -0.019069642 0.03862514 -0.22062238 -0.20919101 -0.034794956 0.14269394
0.0074493415 -0.15218103 -0.048339784 -0.078259446 -0.110303916 -0.21296604 -0.04844258 -0.23162152
-0.15004031 4.777442e-08 0.042264253 0.09205863 -0.15255365 -0.0423038 -0.044980746 -0.039320763
00000000: 020b f83d 7534 2a3d 014a c7bd 0000 0000
00000010: 4cdb 93bc 0000 0000 5756 cd3d d021 37bc
00000020: 3d87 a5be 4db7 74bd f6f4 443d a3aa acbc
00000030: 0000 0000 5f8e e5bd 31b9 16be 3917 54be
00000040: 45d8 44be eca5 06bd b95d 8d3c a2ab 56bd
00000050: 050f 323c 11ea e63c 746f 3ebd 36ba cabd
00000060: 65d9 bcbc 8ec7 133d 0000 0000 f4e7 21be
00000070: 0000 0000 c031 89bd 941b 4a3d c42b 6d3b
00000080: d97e c1bc 0000 0000 9529 2e3d 3b2a 813d
00000090: eaaf cf3c 88c6 443e 76d8 c3be 4092 eabc
000000a0: ffd9 bdbd 6cd0 3abe 6285 5bbd 2cd4 75be
000000b0: 3dbf ebbd e36b 11be 725c 00be 6be3 243d
000000c0: 45f1 ad3d 9b75 bebb c88f 9cbd 1b4f 03be
000000d0: a96c 0abe e779 c13c 4876 a2bd 4276 c0bb
000000e0: e461 f0bd d91e ae3d 2946 c7bd 3abe 2abe
000000f0: 0b52 fe3c 3fbc 173e 9efd 2bbe bec0 51bb
00000100: e614 08be ff7d d43d 0751 313c 0000 0000
00000110: efd6 ba3a 4e64 ecbc 61ec f9b9 822c 5dbe
00000120: 24f4 be3d 9788 5dbe f3b8 5dbc a50b e1bc
00000130: 14c6 47be b684 e43c 6439 00bd 413e 393d
00000140: 0cc9 b6bd 0555 683c 6a6f b7bd 85f4 543d
00000150: a064 25be 5ebf b6bc e52f 74be 0249 0f3d
00000160: cc70 2c3e 677d 4c3d ec31 e9bd 5e82 8b3e
00000170: f010 e73d bdfc 03be 91d2 f2bd f40e 5b3d
00000180: bb8c 6a3d 0000 0000 139b f73d c35d 83be
00000190: c2e1 3e3d cfbb 5a3c 3f8c bdbd 0000 0000
000001a0: 9f44 ffbc 0000 0000 8536 d2bd 0076 f43d
000001b0: 956f d13b 07d8 ccbd a429 743d 9378 9ebd
000001c0: 0000 0000 0464 86bd 4d67 86bd e367 2ebe
000001d0: ebda 30be ce43 093d 8cee 3fbc 3339 d1bd
000001e0: 10b9 8c3b cda0 5e3d 7326 03bc 6fa4 c5bc
000001f0: 2c01 44be 65ea d0bd 0000 0000 b271 5abe
00000200: 0000 0000 960a 4abd 209d 553d 416e e33c
00000210: b05a 0e3e 0000 0000 f69d 34bc d2ee 26be
00000220: e8c1 debd 9449 873c e864 43bf e210 84bd
00000230: 8ca1 ad3d 5f69 4ebe a02b 45bc b1dd e9bd
00000240: 2428 9b3c e364 68bd b84c 84be cd65 87bd
00000250: 5283 febe f3bf 373c 4e0b 1dbe a099 87bd
00000260: 1284 11be cd11 053e 283c 08be bc48 673e
00000270: 0ea6 85bd e1af 833d d2ab d6bd 57ef 23bc
00000280: aedd 923d a2bc 88be 1aff 863d 1762 6bbd
00000290: 293e b2bd 6219 f33d 7db6 8a3c 100a d031
000002a0: c943 04bd 9d37 db3c e7b7 2bbe cbc0 963d
000002b0: 2440 b23b cc5f d33d f43e 2dbd c6a6 e2bd
000002c0: eecc 203e 9966 8b3e 79ba 30bd 68ab 503d
000002d0: 38c5 003e d6ef a7bc 7ec3 41be 70a7 063e
000002e0: 2845 02be ab32 9dbd 43b5 81bd 8331 143d
000002f0: ce5d b43d 7368 b13c 601d 0dbe d25e 08bd
00000300: b4eb 12bd 0b79 383e 570c bcbd 4a39 01be
00000310: 0736 45bc 0000 0000 6235 083d f893 6c3c
00000320: 5f0f 813d c0cd 74bd 74f1 94bd 0000 0000
00000330: c7a8 1fbe 0000 0000 20c9 cd3d 1fd8 b6bd
00000340: a38c c73b 6dc2 d5bd 3c56 dfbd e180 b6bd
00000350: 0000 0000 3f6a cfbc 7d87 14bd 021d 83bd
00000360: e7e8 5ebe 400f 24be 1b44 92bd e6b3 c13c
00000370: e7fd 9d3d 9b30 87be 8fe6 423c 5f6e c6bd
00000380: a8c0 ff3d 8a0b d13b 0000 0000 ad4a 18be
00000390: 0000 0000 9043 2abe e4a3 853e 9eea 2a3d
000003a0: afa2 123e 0000 0000 f037 9cbc 6535 1e3d
000003b0: d5ea 61be 2b36 56be 2885 0ebd 5c1e 123e
000003c0: 9b19 f43b 58d5 1bbe f0ff 45bd 7d46 a0bd
000003d0: 05e7 e1bd c513 5abe ba6b 46bd 312e 6dbe
000003e0: 2ba4 19be 8830 4d33 481d 2d3d 3c89 bc3d
000003f0: 0637 1cbe c046 2dbd bb3d 38bd cf0e 21bd

2.bias_mu f4 [100]
0.07677311 -0.36493346 -0.18313946 -0.34791717 0.093147986 -0.2591441 -0.14947867 -0.07494065
-0.089970976 -0.36420166 -0.04236754 -0.34327117 -0.2657525 -0.056446925 0.042214885 -0.18782182
-0.192264 -0.3257464 -0.19782527 0.033769 -0.07334004 0.27818713 -0.1870633 -0.5208086
2.105579 -0.24297005 -0.15745685 -0.12850025 -0.09989524 -0.20262371 -0.3261646 -0.13020387
-0.123760246 -0.21361257 -0.070333146 0.24837257 -0.24479325 -0.21694043 -0.42800024 -0.26083553
-0.24485552 -0.3969761 0.57059026 0.012286997 -0.27744123 -0.14264776 -0.30971763 -0.088639714
-0.36911267 -0.12407897 -0.36019418 -0.199193 0.12143239 -0.2460052 -0.29924157 -0.15354314
-0.09159056 -0.074562944 -0.16819808 -0.12159953 -0.48323166 -0.10325306 -0.301432 -0.14843132
-0.16127709 -0.066564694 -0.079039276 -0.043501116 -0.21642785 -0.20596746 -0.1247997 -0.10791915
-0.27864215 -0.049104646 -0.107734576 -0.23921318 -0.30213884 -0.302594 -0.37962955 -0.115292735
-0.050997384 -0.24127194 -0.3224164 -0.32169682 -0.3056452 -0.15289484 -0.13106228 -0.31708664
-0.34118563 -0.45463094 -0.13690166 -0.3776924 -0.36488995 -0.16462268 -0.2761317 -0.25442687
-0.27317527 -0.22081213 -0.14040366 -0.29878944
00000000: 383b 9d3d 8fd8 babe e988 3bbe 3322 b2be
00000010: 5fc4 be3d 89ae 84be f010 19be 7c7a 99bd
00000020: b442 b8bd a478 babe 9689 2dbd 3dc1 afbe
00000030: b610 88be e434 67bd 84e9 2c3d 5d54 40be
00000040: dbe0 44be 3bc8 a6be b592 4abe 5d51 0a3d
00000050: 4e33 96bd 8b6e 8e3e 868d 3fbe b653 05bf
00000060: cec1 0640 24cd 78be 5e3c 21be 9295 03be
00000070: e095 ccbd 977c 4fbe 0cff a6be 2a54 05be
00000080: 0376 fdbd 41bd 5abe d30a 90bd 6155 7e3e
00000090: 15ab 7abe a225 5ebe d922 dbbe 3c8c 85be
000000a0: 68bb 7abe 7440 cbbe 3412 123f 674f 493c
000000b0: c70c 8ebe 4112 12be 4f93 9ebe bd88 b5bd
000000c0: 56fc bcbe 1d1d febd 5f6b b8be 40f9 4bbe
000000d0: 8bb1 f83d cae8 7bbe 3136 99be 6a3a 1dbe
000000e0: d593 bbbd 75b4 98bd 1e3c 2cbe 2d09 f9bd
000000f0: 246a f7be 5776 d3bd 4c55 9abe 61fe 17be
00000100: d225 25be 1253 88bd 58df a1bd 3a2e 32bd
00000110: 439f 5dbe 22e9 52be fc96 ffbd b704 ddbd
00000120: 2faa 8ebe f421 49bd f2a3 dcbd 4df4 74be
00000130: f1b1 9abe 9aed 9abe ce5e c2be 991e ecbd
00000140: a2e2 50bd fe0f 77be c313 a5be 72b5 a4be
00000150: 877d 9cbe 7790 1cbe 3135 06be 2e59 a2be
00000160: e2af aebe 63c5 e8be f32f 0cbe e660 c1be
00000170: dbd2 babe d992 28be 2261 8dbe 3d44 82be
00000180: a1dd 8bbe 931c 62be fac5 0fbe eefa 98be

2.bias_log_sigma f4 [100]
-0.1785543 0.06765618 -0.1074959 -0.10966587 -0.22213984 -0.32188377 0.056095924 0.104518734
0.112716354 -0.099402435 -0.09473242 -0.09582804 -0.06763806 -0.046840593 -0.35571456 -0.12771973
0.06667694 -0.033495836 -0.12573515 -0.041761145 -0.017117111 -0.5067723 -0.04392622 -0.22511497
-2.2556179 -0.09717019 -0.15290195 0.039566122 -0.11725541 -0.007370555 -0.16546033 -0.10788863
0.038598426 0.04310609 -0.0053554047 -0.4678549 -0.025715236 -0.3751983 -0.07979881 -0.13085018
-0.04981263 -0.36835787 -0.83253354 0.05945595 -0.15097009 -0.14054117 -0.0795964 -0.10504014
-0.23053463 -0.055074736 -0.2815007 -0.95828575 -0.06755838 -0.07762069 -0.044524048 -0.096409194
-0.081315786 -0.07153071 0.00083894504 -0.11927255 -0.104043394 -0.019110953 -0.26386124 -0.10567263
-0.08400556 -0.13704395 -0.089796804 0.08039685 -0.22115017 -0.15590933 -0.21719474 -0.074019805
-0.10266171 -0.22794077 -0.12431355 -0.03340669 -0.18604198 -0.06564149 0.035916246 -0.09512407
0.13097233 -0.11204685 0.035374794 -0.19148588 -0.10484713 0.00554027 -0.08824298 -0.0040200953
-0.053540036 -0.312893 -0.0086055845 -0.23210491 -0.29788694 -0.14846593 -0.16959484 -0.05756754
-0.22121772 -0.14022963 -0.121702716 -0.0036861848
00000000: f0d6 36be 538f 8a3d cf26 dcbd 8098 e0bd
00000010: a078 63be f3cd a4be d7c4 653d eb0d d63d
00000020: d5d7 e63d 8193 cbbd 1203 c2bd 7e41 c4bd
00000030: d385 8abd ecdb 3fbd 3820 b6be f6c8 02be
00000040: eb8d 883d ee32 09bd b7c0 00be bc0d 2bbd
00000050: 2f39 8cbc d4bb 01bf fbeb 33bd 8a84 66be
00000060: 0b5c 10c0 2a01 c7bd 5492 1cbe 1610 223d
00000070: 9b23 f0bd b284 f1bb 6f6e 29be b7f4 dcbd
00000080: 6219 1e3d 0390 303d 647c afbb ad8a efbe
00000090: c2a8 d2bc fe19 c0be 8f6d a3bd 97fd 05be
000000a0: 5408 4cbd 6799 bcbe eb20 55bf 1588 733d
000000b0: e797 1abe 06ea 0fbe 7003 a3bd 491f d7bd
000000c0: 4511 6cbe 0c96 61bd dc20 90be 3752 75bf
000000d0: 0c5c 8abd 99f7 9ebd d95e 36bd 2f72 c5bd
000000e0: e488 a6bd b17e 92bd a6ec 5b3a 2b45 f4bd
000000f0: b414 d5bd 938e 9cbc d218 87be e46a d8bd
00000100: 1b0b acbd 4055 0cbe 63e7 b7bd 1ba7 a43d
00000110: 3175 62be b2a6 1fbe 4c68 5ebe b297 97bd
00000120: 4d40 d2bd 4e69 69be 1a98 febd 74d5 08bd
00000130: ca81 3ebe 0c6f 86bd ea1c 133d 69d0 c2bd
00000140: 9c1d 063e d278 e5bd 29e5 103d e014 44be
00000150: 18ba d6bd 278b b53b bcb8 b4bd 01bb 83bb
00000160: cc4c 5bbd 8333 a0be 70fe 0cbc e9ac 6dbe
00000170: a384 98be 7407 18be 45aa 2dbe f1cb 6bbd
00000180: e686 62be 5b98 0fbe 463f f9bd eb93 71bb

4.weight f4 [1, 100]
-5.7630532e-05 0.017734874 0.011480923 -0.0061078933 -0.004807916 0.01309206 -0.0044921674 -0.015303304
0.008254331 -0.005950982 0.007346722 0.004504757 0.02112718 0.004375571 -0.006092804 0.0012540173
-0.010661123 0.011490556 -0.011762963 -0.00047061237 -0.0035469946 0.009886266 0.0037892258 0.0070180763
0.19463633 -0.0023078779 0.001963574 -0.0011252009 -0.0030716972 -0.008166695 0.005830963 -0.005322078
-0.0028166552 0.006381452 0.019958993 0.010958117 -0.0028430563 -3.5642588e-05 -0.024314329 -0.0049068877
0.0030672592 -0.002743344 0.04459408 -0.0053599463 0.007947226 0.014816802 -0.00062680803 0.0069613466
0.019559184 0.004834497 -0.0022362482 -0.04762661 0.011680094 -0.006745942 -0.0022764322 -0.00020276647
0.006102526 -0.006398788 0.0090977475 -0.0003388385 -0.0014247587 -0.006689223 -0.0061787907 0.011330339
-0.009961025 0.008502209 0.00367991 0.0001914395 0.0069840318 0.01580839 0.004566365 -0.0030482993
0.012758507 0.005159752 -0.008655133 0.017479666 0.01802673 -0.0016872385 -0.0030531078 0.014377413
-0.007426456 -0.0008553552 0.00068790105 -0.0028755742 0.0018962013 0.004541095 -0.02206761 3.0245312e-05
-0.0041652853 0.004682676 -0.012959127 0.0050514373 0.022987122 0.015325138 -0.0018516587 -0.004394551
0.008341803 0.024105262 0.0038126325 0.002081078
00000000: 50b8 71b8 ba48 913c 7b1a 3c3c b924 c8bb
00000010: b98b 9dbb 1480 563c 0833 93bb b6ba 7abc
00000020: 2c3d 073c 7500 c3bb c5bc f03b a49c 933b
00000030: e812 ad3c f360 8f3b 25a6 c7bb d75d a43a
00000040: feab 2ebc e342 3c3c 71b9 40bc 86bc f6b9
00000050: b274 68bb 01fa 213c a954 783b e4f7 e53b
00000060: bf4e 473e c43f 17bb 4eaf 003b 7a7b 93ba
00000070: 874e 49bb 9acd 05bc aa11 bf3b d364 aebb
00000080: a297 38bb 801b d13b 0b81 a33c ad89 333c
00000090: 9252 3abb f07e 15b8 d82e c7bc f5c9 a0bb
000000a0: 1204 493b adc9 33bb 48a8 363d 7da2 afbb
000000b0: 1535 023c 2cc2 723c 6050 24ba 021c e43b
000000c0: 953a a03c b36a 9e3b 058e 12bb 1f14 43bd
000000d0: dd5d 3f3c 100d ddbb 3230 15bb b69d 54b9
000000e0: b3f7 c73b edac d1bb b80e 153c 22a6 b1b9
000000f0: f8be baba 4531 dbbb 7477 cabb e3a2 393c
00000100: 9133 23bc d94c 0b3c a52a 713b 26bd 4839
00000110: 4eda e43b 9980 813c 72a1 953b fac5 47bb
00000120: 0f09 513c 2313 a93b 42ce 0dbc 8431 8f3c
00000130: cbac 933c 5426 ddba a616 48bb 3e8f 6b3c
00000140: a159 f3bb ea39 60ba 4254 343a 2174 3cbb
00000150: f589 f83a 77cd 943b 22c7 b4bc 50b7 fd37
00000160: f27c 88bb 2271 993b 8552 54bc 8786 a53b
00000170: 7d4f bc3c 4a16 7b3c 5bb3 f2ba 2a00 90bb
00000180: 0fac 083c 6678 c53c 5cdd 793b b262 083b
