code/storage/vi_bnn--problem_A--weights.pth (torch, 24420 bytes, 7 tensors)

0.weight f4 [50, 1]
0.00034455143 -0.03335563 -0.2462086 0.26236165 0.2298737 0.01984634 0.0001434614 0.37869954
0.017660346 -0.36205652 0.17089581 0.5692061 0.7595438 -0.5328788 -0.071891055 0.08655898
0.13099143 -0.008992791 0.45852935 0.31030327 0.10415119 0.22819065 0.7773455 -0.10402789
-0.70136136 -0.118386425 0.6254551 -0.45082527 -0.6068407 0.45594442 0.46647048 0.49141255
-0.432785 -0.20307799 -0.081380844 -0.037184358 -0.615906 -0.34949794 0.014791293 -0.7034105
0.32002926 -0.14210999 -0.28561437 -0.11783725 -0.16162647 -0.19996855 -0.16609493 -0.26312217
-0.32645 -0.37767506
00000000: e9a4 b439 ea9f 08bd 1b1e 7cbe 4454 863e
00000010: 0364 6b3e cb94 a23c 206e 1639 e8e4 c13e
00000020: 6eac 903c 795f b9be 50ff 2e3e 7eb7 113f
00000030: 7671 423f bf6a 08bf 9e3b 93bd d645 b13d
00000040: 9e22 063e 8056 13bc 5cc4 ea3e 12e0 9e3e
00000050: 384d d53d cfaa 693e 1d00 473f 930c d5bd
00000060: 6b8c 33bf 9574 f2bd d31d 203f 92d2 e6be
00000070: ea59 1bbf 8c71 e93e 38d5 ee3e 6d9a fb3e
00000080: ff95 ddbe adf3 4fbe 00ab a6bd a04e 18bd
00000090: 04ac 1dbf 65f1 b2be 2e57 723c b612 34bf
000000a0: e0da a33e 4885 11be 0c3c 92be a854 f1bd
000000b0: 6981 25be 8ec4 4cbe ca14 2abe f3b7 86be
000000c0: 7424 a7be a05e c1be

0.bias f4 [50]
-0.015584068 0.029428737 0.06523406 -0.18861315 -0.9046719 0.05233609 0.22145878 -0.5267518
-0.11429383 0.08926484 -0.6884707 -0.79552007 -0.5859599 0.20473747 -0.3192183 0.061718676
-0.24640284 -0.043302774 -0.6417783 0.61060715 0.21032605 -0.31644022 -0.7732524 0.24143207
-1.3837361 0.033928733 -0.8741479 -0.5519891 -0.80994827 -0.64060736 -0.35607395 -0.48490062
0.11545917 0.050332088 -0.784703 -0.9142399 -1.3861171 -0.44942173 0.036285046 -0.41219524
-0.9935038 -0.7203821 -0.9570607 0.27212438 0.047122747 -0.11220612 0.041322786 -0.34621727
-0.41152465 -0.38032955
00000000: 5254 7fbc 8914 f13c 6f99 853d ce23 41be
00000010: 9498 67bf 5e5e 563d 17c6 623e 35d9 06bf
00000020: e212 eabd 7cd0 b63d 9e3f 30bf 34a7 4bbf
00000030: 7801 16bf b3a6 513e 9570 a3be b9cc 7c3d
00000040: 0751 7cbe 405e 31bd 954b 24bf c050 1c3f
00000050: b65f 573e 7404 a2be dff3 45bf f839 773e
00000060: 441e b1bf dbf8 0a3d 28c8 5fbf 284f 0dbf
00000070: c558 4fbf d8fe 23bf 534f b6be e544 f8be
00000080: db75 ec3d 0529 4e3d 4ce2 48bf a00b 6abf
00000090: 496c b1bf 9b1a e6be a19f 143d 410b d3be
000000a0: 4456 7ebf f66a 38bf ee01 75bf e353 8b3e
000000b0: c803 413d 52cc e5bd 1542 293d 6443 b1be
000000c0: 5cb3 d2be 8eba c2be

2.weight_mu f4 [50, 50]
-0.20407787 -0.24536641 -0.32411093 -0.12206532 -2.830155e-39 -0.22415869 -0.43080345 0.15793616
0.06590161 -0.3098895 1.7373315e-38 0.15688343 0.095865674 -0.52555585 4.962184e-39 -0.23106836
-0.07644275 -4.499412e-39 -0.10069207 -0.7651991 -0.3145939 -0.21880212 -0.028220324 -0.33545408
-0.24152268 -0.29016528 0.16340762 -0.66388375 -0.3455787 0.025618523 0.1775303 0.10547068
-0.21951702 -0.14344527 -8.339469e-39 1.4222339e-38 -0.011458897 -0.35124627 -0.29160652 -0.34558886
-1.4116081e-38 3.8683326e-38 4.5180228e-38 -0.446572 -0.16681595 -0.2452668 -0.023428215 -0.27657616
-0.29424584 -0.15178728 -0.18162914 -0.19826238 -0.41129896 -0.27875024 3.1866256e-38 -0.14428377
-0.24208882 -0.14495045 -0.00066869525 -0.0067965933 1.4422141e-38 -0.061154753 -0.43481272 -0.6923072
4.1667106e-17 -0.13133352 -0.14104941 -6.613399e-38 -0.10633723 -0.4362305 -0.1468097 -0.18279766
-0.22988826 -0.0031944283 -0.11570283 -0.023801861 -0.17162034 -0.38205957 -0.1775672 -0.07528974
-0.30832008 -0.37760076 -0.0399969 -0.007124591 1.596042e-38 1.6365008e-38 -0.1434486 -0.21439664
-0.15161861 -0.0890227 4.2835836e-38 8.498227e-38 4.77859e-39 0.009530528 -0.14373721 -0.12247137
-0.06429228 -0.2723005 -0.17577088 -0.15060921 -0.13102154 -0.08799353 -0.10982435 -0.03616319
-7.301034e-39 -0.18702264 -0.2805622 0.37474245 0.0947096 0.015027291 -1.1959769e-38 0.17096832
0.35240293 -0.77620184 -0.010008151 -0.14882763 0.026446456 1.2765325e-38 0.2450473 -0.43321383
-0.4130297 0.10108029 0.35662386 -0.15795687 -0.2187381 -0.22210123 0.1556982 -0.68345803
-0.2881017 0.023277111 0.587082 0.4723677 -0.020139413 -0.004988135 -2.991322e-38 -1.868603e-39
-0.048856415 -0.24794422 -0.15845928 -0.045588616 -6.0710337e-38 -3.059298e-38 -1.3361762e-38 -0.2768027
-0.051602297 0.028021252 0.017222134 -0.26166308 -0.21408698 -0.23275863 -0.06937948 -0.14358188
-0.23592646 -0.106607355 3.8495664e-38 -0.2505998 -0.15319866 0.15550287 -0.009066628 -0.2787164
-4.9898484e-38 0.020307295 0.21151449 -0.36820066 -7.958173e-21 -0.17565073 -0.019284502 5.257549e-38
0.018256383 -0.4447973 -0.28459063 -0.030008506 0.31781575 -0.35476983 -0.2854823 -0.24429561
0.17719437 -0.51387566 -0.17833097 0.108238384 0.15412603 0.29494795 -0.26200485 -0.09180921
-9.597891e-39 -3.264775e-38 -0.09392072 -0.21247335 -0.12945144 -0.15762855 -1.3593823e-38 -6.782733e-39
5.738511e-38 -0.32651043 -0.19696581 -0.13150807 -0.23794259 -0.21418019 -0.18478674 -0.20816813
0.03744445 -0.23223265 -0.16986643 -0.20549038 4.17144e-40 -0.11407401 -0.15168212 -0.054613914
0.010274561 -0.04874676 -6.7720114e-38 -0.05888735 -0.12452874 -0.30440846 0.005127592 -0.15760791
-0.07562538 -3.753501e-39 -0.045567233 -0.45891568 -0.30067724 -0.058783792 -0.14469914 -0.16313496
-0.17015684 -0.22645599 -0.04026103 -0.18383312 -0.08165532 0.027912505 -0.18907705 -0.10940998
-0.13834552 -0.1277945 4.4321748e-38 -9.55014e-39 -0.46920732 -0.24331135 -0.072731875 -0.2681502
-6.025988e-38 7.1920545e-38 3.4024174e-38 -0.18576537 0.02516011 0.020796377 -0.043598376 -0.008159835
-0.03373364 -0.032782625 -0.027621558 0.1825683 -0.52987766 -0.5080321 -9.168285e-39 0.13674626
00000000: caf9 50be 5541 7bbe def1 a5be 62fd f9bd
00000010: 52d1 1e80 db89 65be 4592 dcbe 04ba 213e
00000020: 6cf7 863d d6a9 9ebe bc2d bd00 0da6 203e
00000030: 3955 c43d d48a 06bf 8d08 3600 2f9d 6cbe
00000040: 048e 9cbd 88fe 3080 a537 cebd 17e4 43bf
00000050: 7412 a1be aa0d 60be 4f2e e7bc a3c0 abbe
00000060: b951 77be 8b90 94be 5454 273e 49f4 29bf
00000070: b1ef b0be f0dd d13c 81ca 353e 0301 d83d
00000080: 12c9 60be 51e3 12be 0ccf 5a80 18de 9a00
00000090: 19be 3bbc 8dd6 b3be 734d 95be 06f1 b0be
000000a0: e4b5 9980 b09c 5201 0cfc 7501 16a5 e4be
000000b0: cdd1 2abe 3827 7bbe 87ec bfbc 649b 8dbe
000000c0: 64a7 96be 206e 1bbe fdfc 39be 4b05 4bbe
000000d0: c795 d2be 5ab8 8ebe 147f 2d01 20bf 13be
000000e0: 22e6 77be e46d 14be 614b 2fba f5b5 debb
000000f0: 100b 9d00 687d 7abd c69f debe 0b3b 31bf
00000100: d627 4024 4b7c 06be 426f 10be aa08 b481
00000110: 55c7 d9bd 9b59 dfbe 4855 16be 4f2f 3bbe
00000120: d467 6bbe 9d59 51bb 9bf5 ecbd 1ffc c2bc
00000130: 3ebd 2fbe 509d c3be 2dd4 35be 8231 9abd
00000140: 21dc 9dbe e354 c1be cad3 23bd 6775 e9bb
00000150: 28cb ad00 fc32 b200 31e4 12be cb8a 5bbe
00000160: e941 1bbe 8951 b6bd 7138 6901 0058 e701
00000170: c408 3400 ef25 1c3c d92f 13be 45d2 fabd
00000180: acab 83bd f96a 8bbe 48fd 33be 4d39 1abe
00000190: 832a 06be f435 b4bd 97eb e0bd da1f 14bd
000001a0: 5080 4f80 dd82 3fbe d9a5 8fbe 3ede bf3e
000001b0: 1bf7 c13d 0735 763c f83a 8280 5212 2f3e
000001c0: 286e b43e 2ab5 46bf 3af9 23bc 4566 18be
000001d0: 3da6 d83c 8800 8b00 aeed 7a3e 34ce ddbe
000001e0: a178 d3be 2f03 cf3d 6797 b63e 72bf 21be
000001f0: e1fc 5fbe 816e 63be 596f 1f3e 1bf7 2ebf
00000200: 1182 93be a4af be3c 024b 163f 2eda f13e
00000210: 69fb a4bc 8273 a3bb f2dc 2281 e858 1480
00000220: aa1d 48bd 17e5 7dbe 2643 22be 21bb 3abd
00000230: ee44 a581 6490 2681 287f 9180 15b9 8dbe
00000240: ee5c 53bd d38c e53c 6f15 8d3c b4f8 85be
00000250: 9e39 5bbe 4758 6ebe d416 8ebd 2107 13be
00000260: b596 71be f554 dabd 2097 5101 9e4e 80be
00000270: 1ce0 1cbe 253c 1f3e 328c 14bc eab3 8ebe
00000280: 2bd6 8781 7c5b a63c 4197 583e cc84 bcbe
00000290: 5d53 169e c9dd 33be 88fa 9dbc c51f 8f01
000002a0: 698e 953c 79bc e3be ddb5 91be 66d4 f5bc
000002b0: bfb8 a23e 64a4 b5be bc2a 92be a128 7abe
000002c0: 7172 353e 5b8d 03bf 659c 36be 16ac dd3d
000002d0: 37d3 1d3e 6b03 973e 8025 86be 7806 bcbd
000002e0: 0483 6880 52c0 3181 8259 c0bd 9d92 59be
000002f0: eb8e 04be 6169 21be 0c06 9480 80db 4980
00000300: 9637 9c01 602c a7be 68b1 49be 0daa 06be
00000310: 39a7 73be 0d52 5bbe bc38 3dbe 072a 55be
00000320: 5a5f 193d 65ce 6dbe 77f1 2dbe 126c 52be
00000330: d48a 0400 a29f e9bd 8f52 1bbe d7b2 5fbd
00000340: a256 283c afaa 47bd 085a b881 dd33 71bd
00000350: ed08 ffbd 6ddb 9bbe 5c05 a83b f863 21be
00000360: 7be1 9abd 3cdf 2880 b5a4 3abd fff6 eabe
00000370: 5ef2 99be 46c7 70bd 032c 14be da0c 27be
00000380: 983d 2ebe 14e4 67be c0e8 24bd c03e 3cbe
00000390: e83a a7bd c4a8 e43c 6a9d 41be 5712 e0bd
000003a0: 73aa 0dbe 90dc 02be 804f 7101 e8fd 6780
000003b0: f13b f0be 9c26 79be 73f4 94bd fc4a 89be
000003c0: 020b a481 4ec9 c301 c73e 3901 4739 3ebe
000003d0: 931c ce3c 2a5d aa3c 3694 32bd d4b0 05bc
000003e0: 492c 0abd 1347 06bd 9b46 e2bc 2ff3 3a3e
000003f0: 10a6 07bf 640e 02bf 73d5 6380 3607 0c3e

2.weight_log_sigma f4 [50, 50]
-0.1655759 -0.109671146 0.12440922 -0.14319952 -5.272448e-09 -0.19227564 -0.29556793 -0.1288203
0.044859488 -0.13585387 0.0 -0.022592409 0.0072120233 -0.054947585 5.7992238e-09 -0.30842957
0.063909434 0.0 0.17928907 -0.35374752 -0.303702 -0.06500411 -0.2517409 0.017959708
0.0009686154 -0.20454624 -0.3312617 -0.18036556 -0.13749714 -0.03466785 -0.15419123 0.045851745
-0.062026255 -0.2539243 0.0 0.0 -0.011331138 -0.1005418 -0.18917017 -0.28732887
0.0 0.0 0.0 0.0057831053 -0.05856942 -0.07161057 0.0034886023 0.17734304
-0.114575185 0.027311988 -0.07173086 -0.06229728 -0.10881423 0.10105908 0.0 0.0009543646
-0.10187404 -0.0009905839 -0.026696539 -0.08568015 0.0 -0.04636146 -0.012336063 -0.30352473
4.2220258e-08 -0.18873447 -0.013307919 0.0 0.016913565 -0.2431156 -0.009774144 -0.1331253
-0.20297475 -0.080680594 -0.022139147 -0.01896568 -0.034210633 -0.07516946 0.019388374 -0.0073243906
-0.19615345 -0.024757266 -0.096900076 0.09356568 0.0 0.0 -0.0035679888 -0.09907156
-0.008728284 -0.07011354 0.0 0.0 0.0 0.044092666 -0.007569636 -0.08702629
0.011839026 0.0584765 0.030474754 -0.12832953 -0.20200072 -0.15120153 -0.15364794 -0.17072001
0.0 -0.2736217 -0.201047 -0.14702517 -0.03160556 -0.2302401 0.0 0.17862673
-0.017425524 -0.009420865 -4.7540183e-05 -0.16146281 0.016285757 0.0 -0.012580185 0.11209706
-0.123381995 -0.25557616 0.10884557 0.015612715 0.011794345 -0.031784475 -0.037871048 -0.20932566
0.11880532 0.02191356 0.008523694 0.2104389 0.03172537 -0.20767905 0.0 0.0
-0.059330553 0.017123722 -0.06901672 -0.083190516 0.0 0.0 0.0 -0.085998
-0.114980355 -0.07576079 -0.001494292 0.026541952 -0.050324813 0.02896418 -0.269915 -0.07053744
-0.19900209 0.29927215 0.0 -0.2177322 -0.061621748 0.03718609 -0.065504916 -0.028119398
0.0 0.12252457 -0.11715334 -0.069937535 3.685833e-08 -0.4037474 -0.086543985 0.0
0.19711459 -0.32807225 -0.04079523 0.09335185 -0.15347068 -0.086230576 -0.016758425 0.048722856
0.085313365 -0.024740621 0.086606964 0.030609313 -0.26395214 -0.26229015 -0.03938109 -0.13553521
0.0 0.0 0.038660064 0.05796148 -0.12126376 -0.21211459 0.0 0.0
0.0 -0.13174371 -0.05200605 -0.06577279 -0.1550611 -0.017589299 0.03826877 0.040183384
-0.07030789 -0.053512037 -0.08643573 -0.10390924 0.0 -0.04867073 -0.052578934 -0.08695604
-0.008727322 -0.050852537 0.0 0.050150633 0.035249017 0.07754459 4.8470188e-08 -0.009758902
0.044185888 0.0 -0.01610802 0.024964062 -0.088559695 -0.03373393 -0.060637712 0.0065547163
0.026779888 0.053770877 -0.025665661 -0.021244267 -0.037799235 -0.07831873 0.035038225 0.15223931
0.026545513 -0.07206111 0.0 0.0 -0.11890776 -0.09064199 -0.10845081 0.0075659645
0.0 0.0 0.0 -0.09744984 -0.10451851 -0.0772667 0.006767644 0.036710236
-0.079889946 -0.02359397 -0.112168856 0.09337865 0.08310235 0.06599343 2.6851009e-08 -0.034380253
00000000: bb8c 29be 449b e0bd 43ca fe3d e5a2 12be
00000010: f128 b5b1 e8e3 44be ae54 97be 78e9 03be
00000020: 95be 373d 471d 0bbe 0000 0000 b713 b9bc
00000030: d652 ec3b b810 61bd 8342 c731 7bea 9dbe
00000040: f3e2 823d 0000 0000 8e97 373e 651e b5be
00000050: d47e 9bbe e020 85bd 2fe4 80be 3d20 933c
00000060: aeea 7d3a 9274 51be 229b a9be c0b1 38be
00000070: 0dcc 0cbe e0ff 0dbd 4ee4 1dbe 0acf 3b3d
00000080: 3e0f 7ebd 5e02 82be 0000 0000 0000 0000
00000090: 3da6 39bc dce8 cdbd d3b5 41be c51c 93be
000000a0: 0000 0000 0000 0000 0000 0000 3480 bd3b
000000b0: 7de6 6fbd 90a8 92bd 09a1 643b 6a99 353e
000000c0: 65a6 eabd 64bd df3c a1e7 92bd 6f2b 7fbd
000000d0: ffd9 debd 10f8 ce3d 0000 0000 532e 7a3a
000000e0: 56a3 d0bd 7bd6 81ba b3b2 dabc 1379 afbd
000000f0: 0000 0000 84e5 3dbd 331d 4abc 9867 9bbe
00000100: aa55 3533 9c43 41be 7509 5abc 0000 0000
00000110: 518e 8a3c 4cf3 78be bb23 20bc 0052 08be
00000120: 9dd8 4fbe de3b a5bd 285d b5bc ea5d 9bbc
00000130: 7320 0cbd 72f2 99bd 5ed4 9e3c 7101 f0bb
00000140: 73dc 48be c0cf cabc 8c73 c6bd 5d9f bf3d
00000150: 0000 0000 0000 0000 ebd4 69bb 08e6 cabd
00000160: 1401 0fbc b097 8fbd 0000 0000 0000 0000
00000170: 0000 0000 839a 343d b60a f8bb d73a b2bd
00000180: 79f8 413c 0e85 6f3d 31a6 f93c d168 03be
00000190: 47d9 4ebe 93d4 1abe e355 1dbe 3ad1 2ebe
000001a0: 0000 0000 2518 8cbe 44df 4dbe c48d 16be
000001b0: d574 01bd 10c4 6bbe 0000 0000 ede9 363e
000001c0: f9bf 8ebc f959 1abc e265 47b8 8256 25be
000001d0: b569 853c 0000 0000 1f1d 4ebc 2593 e53d
000001e0: b3af fcbd e1da 82be 6dea de3d 79cc 7f3c
000001f0: 123d 413c 7030 02bd ac1e 1bbd 7759 56be
00000200: 3450 f33d 1184 b33c f7a6 0b3c 4c7d 573e
00000210: 76f2 013d d1a9 54be 0000 0000 0000 0000
00000220: 9804 73bd 0c47 8c3c a358 8dbd ca5f aabd
00000230: 0000 0000 0000 0000 0000 0000 b81f b0bd
00000240: d27a ebbd 7928 9bbd 1fdc c3ba 826e d93c
00000250: 6421 4ebd 4a46 ed3c 4d32 8abe ef75 90bd
00000260: 34c7 4bbe 333a 993e 0000 0000 31f5 5ebe
00000270: 1667 7cbd 7150 183d 7127 86bd a75a e6bc
00000280: 0000 0000 29ee fa3d 17ee efbd 693b 8fbd
00000290: 2a4e 1e33 fbb7 cebe f93d b1bd 0000 0000
000002a0: 68d8 493e 16f9 a7be e618 27bd 412f bf3d
000002b0: 6b27 1dbe a899 b0bd f748 89bc 9e91 473d
000002c0: c6b8 ae3d d8ac cabc fe5e b13d 62c0 fa3c
000002d0: bc24 87be e54a 86be 114e 21bd bec9 0abe
000002e0: 0000 0000 0000 0000 045a 1e3d 0469 6d3d
000002f0: 2259 f8bd 9134 59be 0000 0000 0000 0000
00000300: 0000 0000 d3e7 06be 4c04 55bd e2b3 86bd
00000310: 56c8 1ebe 6f17 90bc b7bf 1c3d 5597 243d
00000320: 95fd 8fbd 702f 5bbd 3705 b1bd 5ece d4bd
00000330: 0000 0000 f65a 47bd 025d 57bd 0216 b2bd
00000340: 0bfd 0ebc c04a 50bd 0000 0000 c06a 4d3d
00000350: 4661 103d b3cf 9e3d 892d 5033 cde3 1fbc
00000360: 43fc 343d 0000 0000 f7f4 83bc 6f81 cc3c
00000370: c95e b5bd 972c 0abd 405f 78bd f2c8 d63b
00000380: 7f61 db3c da3e 5c3d cb40 d2bc 7508 aebc
00000390: 5fd3 1abd 9265 a0bd 3e84 0f3d 9fe4 1b3e
000003a0: fa75 d93c c694 93bd 0000 0000 0000 0000
000003b0: e985 f3bd 82a2 b9bd 751b debd e9eb f73b
000003c0: 0000 0000 0000 0000 0000 0000 c893 c7bd
000003d0: cd0d d6bd 013e 9ebd 1dc3 dd3b 795d 163d
000003e0: 579d a3bd 2448 c1bc c9b8 e5bd 4e3d bf3d
000003f0: 9131 aa3d 9027 873d fea5 e632 4fd2 0cbd

2.bias_mu f4 [50]
-0.5942186 -0.13646558 -0.5411313 -0.48983648 -0.3842683 0.06774123 -0.21858664 0.1296951
-0.12795466 1.3583007 -0.29806244 -0.19692592 -0.19069001 -0.09549074 -0.35139325 -0.0096259955
-0.10865087 -0.4135731 -0.4576128 -0.27592835 0.07639209 2.2634497 -0.46650097 0.14694594
0.1254333 -0.20603 -0.5134685 -0.48138282 0.01144626 -0.55375093 -0.0045433235 -0.14763588
-0.21430275 -0.24012616 -1.0966821 -0.33677742 -0.78721493 -0.21613146 -0.57316715 1.2436076
-0.053223908 -0.33867607 0.6138034 -0.19210392 -0.3045115 -0.5941424 -0.48376647 -0.15622328
-0.043560784 -0.6228282
00000000: b61e 18bf a2bd 0bbe 9587 0abf d9cb fabe
00000010: d1be c4be eabb 8a3d 2dd5 5fbe cbce 043e
00000020: 8c06 03be ccdc ad3f a49b 98be f3a6 49be
00000030: 3e44 43be a690 c3bd d1e9 b3be 5ab6 1dbc
00000040: 5984 debd dabf d3be 3a4c eabe 7b46 8dbe
00000050: 7573 9c3d 5cdc 1040 37d9 eebe ff78 163e
00000060: 9671 003e 87f9 52be ac72 03bf cf77 f6be
00000070: 1889 3b3c 9fc2 0dbf 29e0 94bb dc2d 17be
00000080: 2e72 5bbe a2e3 75be 1460 8cbf 176e acbe
00000090: eb86 49bf 9151 5dbe 15bb 12bf 892e 9f3f
000000a0: 5001 5abd f366 adbe 3822 1d3f e4b6 44be
000000b0: eee8 9bbe b719 18bf 3db0 f7be fff8 1fbe
000000c0: cb6c 32bd ab71 1fbf

2.bias_log_sigma f4 [50]
-0.16308779 -0.101843245 -0.18884027 -0.20031779 -0.21232596 -0.18749309 -0.33000967 0.005283988
-0.14477259 -1.8713024 -0.20332286 -0.16548769 -0.23493887 -0.06429291 -0.21396996 -0.022386884
-0.21177706 -0.04572341 -0.23079413 -0.5979242 -0.073920056 -2.6274061 -0.2229863 -0.1842096
-0.25360873 -0.13957363 -0.42765954 -0.34029034 -0.19182143 -0.20466545 -0.046569355 -0.26771498
-0.14735816 -0.23604967 -1.8873043 -0.26310956 -0.09426333 -0.1655771 -0.18154801 -1.5149016
-0.020440502 -0.2306868 -1.9974973 -0.08005785 -0.036043264 -0.3376771 -0.15187743 -0.15207997
0.01844278 -0.2586548
00000000: 7c00 27be 3193 d0bd 585f 41be 1b20 4dbe
00000010: fa6b 59be 30fe 3fbe 07f7 a8be 4e25 ad3b
00000020: 443f 14be d686 efbf de33 50be 9b75 29be
00000030: d193 70be 00ac 83bd f11a 5bbe b364 b7bc
00000040: 16dc 58be 7848 3bbd 4c55 6cbe 8f11 19bf
00000050: 6663 97bd 6c27 28c0 8556 64be 71a1 3cbe
00000060: 01d9 81be 64ec 0ebe 31f6 dabe 893a aebe
00000070: d66c 44be d293 51be 82bf 3ebd f011 89be
00000080: 0fe5 16be 01b7 71be 3093 f1bf 4cb6 86be
00000090: 220d c1bd 0b8d 29be b9e7 39be 4ce8 c1bf
000000a0: d772 a7bc 2939 6cbe fead ffbf 5ff5 a3bd
000000b0: 1aa2 13bd 03e4 acbe c285 1bbe daba 1bbe
000000c0: 5015 973c 676e 84be

4.weight f4 [1, 50]
-0.0012368627 0.016941706 -0.007930125 -0.007347333 0.0011303261 -0.00601997 -0.003032891 -0.0027681522
0.004660024 0.10568869 0.01583274 -0.0053428644 0.0013531579 0.008618981 0.0056145666 -0.0047467896
0.0045948555 -0.013950982 0.013531565 -0.00603871 0.010918055 0.25762132 -0.0036690773 0.010290603
0.0039534164 0.005067967 0.015480741 -0.0048030205 -0.010204293 0.014936682 0.007633023 0.0054808115
0.0076952884 0.003536155 0.1818645 0.01390454 0.007287825 -0.00083878974 -0.0034639812 0.05797573
0.0059204735 0.012124526 -0.07690628 -0.0033417647 0.0048396187 -0.009023743 0.005885265 -0.00869829
-0.0073583415 -0.0018495643
00000000: 3a1e a2ba 55c9 8a3c 5bed 01bc e5c1 f0bb
00000010: 7327 943a 2b43 c5bb 78c3 46bb e369 35bb
00000020: 1db3 983b 5073 d83d aab3 813c 3213 afbb
00000030: 725c b13a a036 0d3c 66fa b73b f58a 9bbb
00000040: 7190 963b a992 64bc 7fb3 5d3c 5fe0 c5bb
00000050: a4e1 323c f1e6 833e e774 70bb eb99 283c
00000060: a98b 813b 3011 a63b efa2 7d3c a862 9dbb
00000070: e82f 27bc fcb8 743c 701e fa3b 6198 b33b
00000080: c228 fc3b d6be 673b b03a 3a3e decf 633c
00000090: b5ce ee3b 3ae2 5bba f603 63bb f677 6d3d
000000a0: 8800 c23b f3a5 463c 0a81 9dbd 8201 5bbb
000000b0: aa95 9e3b 52d8 13bc 2ed9 c03b 4683 0ebc
000000c0: 3e1e f1bb 146d f2ba
