code/storage/vi_bnn--problem_B--weights.pth (torch, 24420 bytes, 7 tensors)

0.weight f4 [50, 1]
00000000: 593e 7f3d 7798 8b3e ac7a a7bc 694d 9c3b
00000010: 0578 2a3f 4502 be3c cf91 78bc 137e a13e
00000020: a48f 233c 3664 f4bd 50ff 2e3e b039 f83e
00000030: 6a95 fd3e 1ca4 24be 9d87 11bd 8781 013f
00000040: 334f 2b3e 8056 13bc 036e de3e f8c2 c53a
00000050: a6a1 293b 81d3 3b3e 6cc5 f83e f45d 80bc
00000060: d195 11bf b0e1 5139 a229 fc3e 4270 e3be
00000070: a5cf d9be 193d cb3e 3fbe ac3e dd23 d23e
00000080: c614 45be fa41 43bd 00ab a6bd a04e 18bd
00000090: 105b febe f000 97be db23 8b3e 6883 d3be
000000a0: d7b7 343f 4885 11be 7a10 70be 80b8 92bc
000000b0: e6fc 2f39 7f5b 20be aa85 47bd 466c 6dbe
000000c0: 1ff8 75be 7e5a 71be
0.06231532 0.2726476 -0.020444237 0.00476997 0.66589385 0.023194442 -0.015171482 0.315415
0.009982977 -0.11933176 0.17089581 0.48481512 0.49528056 -0.16078228 -0.03552972 0.5058827
0.16729431 -0.008992791 0.43443307 0.0015088012 0.0025883703 0.18342401 0.4858812 -0.0156698
-0.56869227 0.00020015868 0.49250513 -0.44421583 -0.42541233 0.3969505 0.33738896 0.41042987
-0.19246206 -0.047670342 -0.081380844 -0.037184358 -0.4967885 -0.29492903 0.27175793 -0.41311193
0.7059302 -0.14210999 -0.23443785 -0.017910242 0.00016783513 -0.15659903 -0.048711456 -0.23185834
-0.24020432 -0.23569676

0.bias f4 [50]
00000000: 6536 843c 4de3 c83e 3d46 053d 6d4c d2bd
00000010: e073 b0bf ef2c b53c 3e65 a8ba 582f 8cbf
00000020: 7a02 ebbd d583 1d3e 9e3f 30bf fb17 a0bf
00000030: 28b9 abbf 807a 13bf f5c3 b6be 7d06 0a3f
00000040: 2c6a 15bf 405e 31bd a357 91bf c6f5 7abc
00000050: 6c50 eabc 0d8c 21bf 0590 d4bf f4f7 473d
00000060: 07b3 c5bf c3e1 11bc afd5 aebf 18c6 b3bf
00000070: 3ebf aabf 1d8d 8ebf 9449 3abf c518 8bbf
00000080: 2df1 1bbf edf9 083d 4ce2 48bf a00b 6abf
00000090: cf19 68bf 87f5 86bf cdad c63e 96c5 90bf
000000a0: ef65 c8bf f66a 38bf 4233 81bf 17b6 a43d
000000b0: ca9b 2ebd 9df8 15bf 503b 57be 7204 55bf
000000c0: ff42 5bbf b63c 36bf
0.016139219 0.39235917 0.032537688 -0.10268483 -1.3785362 0.022116153 -0.0012847555 -1.0951948
-0.11475082 0.15382321 -0.6884707 -1.2507318 -1.341588 -0.57608795 -0.35696378 0.5391615
-0.5836513 -0.043302774 -1.135487 -0.015317386 -0.028602801 -0.63104326 -1.6606451 0.04882045
-1.544526 -0.008903923 -1.3658961 -1.4044828 -1.3339612 -1.1136814 -0.7276852 -1.0866934
-0.6091488 0.033441473 -0.784703 -0.9142399 -0.9066438 -1.0543679 0.38804474 -1.1310298
-1.5656108 -0.7203821 -1.0093768 0.080425434 -0.04262904 -0.5858248 -0.2101872 -0.8320991
-0.856491 -0.7118639

2.weight_mu f4 [50, 50]
00000000: af10 82be 71f0 6ebe ae77 cabe 13f6 253d
00000010: 1d6d 003c cda3 5dbe 7555 aabe 8ef1 f03d
00000020: 8e57 c73d a8fa bfbe bc2d bd00 81e6 6e3d
00000030: a1f0 2f3d 4863 1cbe 5311 a1bb 40c6 5fbe
00000040: e057 7abd 88fe 3080 f805 00be 5d13 c3be
00000050: 3caf 4bbe 3071 1fbe 9350 07be ade8 8bbe
00000060: 8f42 e2bd b5f5 a3be 86d2 f13d d0b8 3bbe
00000070: ec45 5dbe 149a b73c bf8f 02bd ed2c 3dbd
00000080: e793 90be 9c23 53be 0ccf 5a80 18de 9a00
00000090: 468f d4be c4f6 3dbe ca2b 9dbe dc20 81be
000000a0: 7c6c 09be 1c5c 4f01 94c1 e4bc e276 c5be
000000b0: cec2 53be 233c 78be 7f05 b4bd dfac a0bd
000000c0: a014 3cbe c83e cfbd 7da9 72be 124c 75be
000000d0: c26c 65be f223 273c 7de1 e1be c482 58be
000000e0: 508d 6fbe 56d1 033e 47f7 3c3d cc54 76bc
000000f0: 100b 9d00 371d f53d 730a d3bd c1ae a0bd
00000100: 84a4 863b ae42 33be a7a7 42bd b8d7 b081
00000110: aa3d a43c 4d74 64be 4b68 93bd bb1b 9ebd
00000120: 4809 c03d 742b b43c bb94 6bbe 2da8 ccbc
00000130: 4f9a f13b 5e6e 49be 0340 18be 23ad 423d
00000140: 2029 82bb bdfb 5ebd 1e1d ddbc 3282 aebc
00000150: 28cb ad00 fc32 b200 22b5 5bbe 1f60 55be
00000160: 26f2 59be 03ab 9ebd d04f 79be 901e e401
00000170: 338c 04be 95b6 9b3c e842 0fbe bbb9 07be
00000180: 58a6 7fbd d53c 7dbe 6fa5 1abe f426 1bbe
00000190: 5f99 43bd 40e9 a53c fb1e adbc a6dd ee3c
000001a0: 5375 0cbf a091 4abd 966f ddbd 6b70 6fbe
000001b0: 4e37 6c3d cc68 223d f83a 8280 df1f a9be
000001c0: a60f 36be 817a 22bc 3fc1 c5bd 30c8 cdbc
000001d0: 3005 67be 8800 8b00 7077 ccbd b061 a33c
000001e0: 591d a0be 9852 b7bd 2df2 93be 183f b1bb
000001f0: b869 b63d 38ab 35be b88f a1be 930c 2a3e
00000200: 3b8a 6bbd b83f 93be 1a3a 39be 7924 82be
00000210: ce8d ab3c 440e 6a3c 6288 1b81 e858 1480
00000220: a3f8 933d 7ccd a13b 1783 34bd 9218 123e
00000230: 3629 3bbf 5e83 e201 850a 3a3e 1212 0dbe
00000240: e71e 07bd 11de 003e 531e 1c3d 99ad 033d
00000250: f27f 2b3d c66b d8bd 9d1a 67bd 2d10 f0bd
00000260: 43d2 40be c8e3 21be 7d47 40bf 02b4 57be
00000270: f76f 9f3c a90d 86be be97 20bd d2bd 74be
00000280: f363 8c01 5e98 e1be 8922 a5be f929 cd3d
00000290: 9a3f ae3c ea25 27be e07a 7dbe 5c26 6a81
000002a0: 940b a6be 0dab 10be 163e 9ebe 7309 73be
000002b0: 8e7c 8abe 6bdc 3ebe c106 8f3e 374e 27be
000002c0: 1e98 70be f824 023f dfdd 743e 3875 2abe
000002d0: cc25 18bf 63b5 cabe 3fe0 06be 8fec 18bd
000002e0: 0483 6880 922c 2d81 4650 b43e 6897 293e
000002f0: e7a7 b0bd d930 163e 1e79 82bf 80db 4980
00000300: eb53 883d 91a7 3dbe 039c 03be 7e01 8d3d
00000310: 6891 1ebe 864c 4a3e edf2 803e a034 d53c
00000320: 22e5 dfbc 135e 95be 0675 83bd ba4a 97bd
00000330: 7d0a f6be e2c4 2abe 5e16 25bd cc12 67be
00000340: 72df f4bc 8c0e 003c 8403 8701 ebd4 87be
00000350: 9ce4 85be 7829 3c3e 287a c73d f83b 68be
00000360: 5474 4fbe 3cdf 2880 f025 54be dfab 35be
00000370: fca9 babe cc14 2bbe 486e a2be 2176 8dbd
00000380: f335 ed3d c552 1fbe e026 6dbe d2aa 663e
00000390: 5db5 e43d 8c0d e1bd 80c0 89be bb0c 95be
000003a0: af55 52bc 4b4d 8cbd 9815 6e01 e8fd 6780
000003b0: 6b32 36bd 9206 84bd 7e9c 09be 36c9 ccbd
000003c0: c8a6 35bf f8a5 8c81 5020 3d3e 9bb6 d7bd
000003d0: 635e ca3d 0360 253e aaa2 3b3d dce0 3e3e
000003e0: 49ab 243e 050c d43d 0ede 8dbe ecde e8bd
000003f0: 92d4 80bd a275 d2bc 750c 91bc 5eee 21be
-0.25403354 -0.23333909 -0.39544433 0.040517878 0.007838515 -0.21644516 -0.33268324 0.11764823
0.097334966 -0.37495923 1.7373315e-38 0.058325294 0.04295409 -0.15272248 -0.0049153953 -0.2185297
-0.06111896 -4.499412e-39 -0.12502277 -0.3810071 -0.19891065 -0.15570521 -0.1321433 -0.27325955
-0.11047851 -0.32023397 0.11807732 -0.18332219 -0.21608704 0.022412337 -0.03187537 -0.046185423
-0.2823784 -0.20619053 -8.339469e-39 1.4222339e-38 -0.4151556 -0.18551165 -0.3069747 -0.25220382
-0.1342029 3.808598e-38 -0.027924336 -0.38567263 -0.20679781 -0.2424169 -0.08790111 -0.078454725
-0.18367243 -0.101193964 -0.23697467 -0.239548 -0.22404769 0.010201441 -0.44117346 -0.21143633
-0.2339375 0.12872824 0.04613426 -0.015034866 1.4422141e-38 0.11968463 -0.103047274 -0.07845832
0.0041089673 -0.17505905 -0.047523167 -6.496173e-38 0.020048935 -0.2230999 -0.07197627 -0.07720133
0.0937677 0.021993376 -0.23005955 -0.024982536 0.0073731313 -0.19671008 -0.14868169 0.047528397
-0.0039721876 -0.054439295 -0.026991423 -0.021302316 1.596042e-38 1.6365008e-38 -0.21455815 -0.20837449
-0.21283779 -0.07747462 -0.24346852 8.379783e-38 -0.12944107 0.01900796 -0.13990366 -0.13254444
-0.062414497 -0.24730237 -0.1510217 -0.15151578 -0.047753688 0.020252824 -0.021132937 0.029158425
-0.5486652 -0.049455285 -0.10812299 -0.23382728 0.05766993 0.039650723 -1.1959769e-38 -0.33032128
-0.17779407 -0.0099169025 -0.096559994 -0.02511987 -0.22560573 1.2765325e-38 -0.099837184 0.019944042
-0.3127239 -0.089513004 -0.28895703 -0.0054091327 0.08906883 -0.17741096 -0.3155496 0.16606359
-0.057504874 -0.2875955 -0.1808857 -0.2541845 0.020941641 0.014285628 -2.8566854e-38 -1.868603e-39
0.07225158 0.0049378257 -0.04407033 0.14267185 -0.7310976 8.320779e-38 0.18168075 -0.13776425
-0.032988455 0.12584712 0.038114857 0.032147978 0.041870065 -0.10567431 -0.056421865 -0.11721835
-0.18830208 -0.15809548 -0.7510908 -0.21064761 0.019462569 -0.26182297 -0.039207213 -0.23900536
5.15713e-38 -0.4406156 -0.3225291 0.10017771 0.021270562 -0.16323057 -0.24753904 -4.3006534e-38
-0.32430708 -0.1412775 -0.30906743 -0.23734073 -0.27048153 -0.1863877 0.2793484 -0.1633843
-0.23495528 0.5083766 0.23912762 -0.16646278 -0.59432673 -0.39591512 -0.1317148 -0.037334975
-9.597891e-39 -3.180706e-38 0.35217494 0.16561663 -0.08625775 0.14667071 -1.0193212 -6.782733e-39
0.06656631 -0.18520953 -0.12852482 0.0688505 -0.15485156 0.19755754 0.25185338 0.02602607
-0.027330939 -0.29173335 -0.06418805 -0.073873 -0.48054877 -0.16676667 -0.040304534 -0.22565764
-0.029891703 0.007815968 4.959621e-38 -0.2652963 -0.26150978 0.18375194 0.09740096 -0.22679126
-0.2025922 -3.753501e-39 -0.20717597 -0.17741345 -0.36457813 -0.16707152 -0.31724763 -0.06907297
0.115825556 -0.15558918 -0.23159361 0.225261 0.11167405 -0.10988912 -0.26904678 -0.29111275
-0.012837811 -0.0685068 4.372919e-38 -9.55014e-39 -0.044481676 -0.06446566 -0.13438603 -0.099993154
-0.70957613 -5.166603e-38 0.18469357 -0.10532876 0.09881284 0.16149907 0.045809425 0.18640465
0.16080965 0.10353855 -0.27708477 -0.11370644 -0.062905446 -0.025690857 -0.017706135 -0.15813586

2.weight_log_sigma f4 [50, 50]
00000000: b093 04bd 01b3 35bd 2634 303e 1dc7 0bbd
00000010: 6c84 3e3d b241 a6bd b17b e4bd 0031 10be
00000020: 8220 073d 644d 43be 0000 0000 b327 42be
00000030: e5a7 5e3e 73a0 ae3c 118c a63a 8538 d9be
00000040: 2882 943e 0000 0000 809c 753e d64e 60be
00000050: 7060 77bd 78ed a33c 8208 b03c 5989 bb3b
00000060: c6cb a1bd 4355 ff3b f845 32bd 99b7 a83c
00000070: 1739 c7bd 3d7f 7f3c 81e2 babe 6e09 a83d
00000080: 38ce 323d 370a 56be 0000 0000 0000 0000
00000090: 92a9 2bbe 76fc debd 4318 83be 579f 49be
000000a0: 617e babe 0000 0000 f981 24bb b09b 773d
000000b0: af95 d13d 65d8 86bc 58a6 87bd 6d04 103e
000000c0: ac4b 51be dbaa d0bd 439e efbd 876c b7bd
000000d0: bb37 833d f442 723c a2db 42bc bb2c 72bd
000000e0: b9fa a4bd a502 093d aa49 80bc 2406 9abd
000000f0: 0000 0000 66be 1a3d d856 173e fdab 74bd
00000100: e4d6 9d3b 3665 bcbe 3b3a b0bd 0000 0000
00000110: c715 fa3c 9a8d b7bc a0f4 023d c0a2 aa3c
00000120: 24f0 353d a068 2d3b 1d28 b739 3f58 36bd
00000130: 1091 20bd d4d0 2e3c 70e7 85bd 4726 8cbc
00000140: ef6b 45be 82db 81bd 3d4c 89bd 268f db3d
00000150: 0000 0000 0000 0000 5557 1fbd 1fa4 abbd
00000160: 0b33 bdbd e9a4 c0bd 1f87 6e3e 0000 0000
00000170: 5749 69bb ce1f 093e c563 373d 6a2b 8cbd
00000180: b3be 1cbc cc52 0e3d 3fee 54bd df8c fdbd
00000190: 3cdc 31be 3868 b5bd 98a8 16bd 2801 12bd
000001a0: 98df 44be ab0a 83bd 10bb 07be 8d63 e1bc
000001b0: 57a3 803c 5063 92bd 0000 0000 0cb5 63bc
000001c0: 5d14 1dbd 1a27 a4bc 78bd 92bb c8ea 0bbd
000001d0: f540 84bd 0000 0000 3651 12bd 44be 3e3d
000001e0: 1830 683d e751 23be beeb 093d 3d8a 1bbd
000001f0: 54a6 d43c dcf3 a93c bc15 cbbd adba d9bd
00000200: 8505 ab3d 1b8c eeba 4105 123d d89b e73c
00000210: e344 913d 01bf 2abe 0000 0000 0000 0000
00000220: d9ef 0abe d9bc e93a 8555 973d f0dd e3bc
00000230: c1b8 07bd 0000 0000 ee0e 5ebd 48ce 453d
00000240: 43e1 893d 279e ccbd 0597 1fbb 5271 2dbd
00000250: 8e01 88bc fe97 2e3e 1fb4 443b f9f0 acbd
00000260: 4115 8cbd 84e3 603d 2172 333d 3056 8f3d
00000270: 189b c4bd aab1 acbd 1979 eebc 1dd0 69bd
00000280: 0000 0000 1f27 733b d0bf 92bd 2f97 b4bd
00000290: 5e73 18bc 5232 78be 1996 32be 0000 0000
000002a0: 4b4d 13bd d40b c13d 14de cfbd c4aa 613c
000002b0: f02b 1fbd cf24 fabd 6642 ad3c 647a 0d3d
000002c0: 9ee9 62bd 8fa8 60bd fcfc 3c3e 1fc9 11be
000002d0: 75cb 59bc e8b8 033d be9e 953d 3838 17be
000002e0: 0000 0000 0000 0000 cebf f9bc 5dd3 8e3c
000002f0: 1648 2cbe 4e04 87bd 957f afbd 0000 0000
00000300: e3a9 b53c 5536 4dbe 2816 f7bd 6735 09bd
00000310: 4bc2 debd 5d3c 653d 75a8 973c 2878 eb3d
00000320: 7f38 a2bd 64ba 2fbd 5ab2 153d cd7a dcbc
00000330: f8c6 9cbc bd28 42bd 3324 83bc 9a0a 88bd
00000340: 5c0f 35bd 3904 61bd 0000 0000 69fb 26bc
00000350: 5bcf e53c c3c6 f2bc 834f 013d 9543 d4bd
00000360: 3f6e b03d 0000 0000 8375 b3bb ec20 da3d
00000370: c1ad 97bd aa75 73bd ce97 9fbd ca37 d0bb
00000380: b16d 083e 180b 4cbb dc9c 3ebd 41dc 8d3d
00000390: 1b7c ffbc b79d ccbd fef4 433d d28e 8b3d
000003a0: 97d6 593d 455d 48bd 0000 0000 0000 0000
000003b0: 021f d7bd 5052 d7bd e1b4 07be 34e0 4c3b
000003c0: 79f1 8cbd 0000 0000 76a2 b53c d03f f9bd
000003d0: 5924 a4bd 7b19 b0bc c1f1 32bd 3741 803d
000003e0: 73e1 85bd 3c2d a33d 7ae0 cebd 7c22 253d
000003f0: 220b 3abd e8c5 1ebd fe56 94be 2272 c3bd
-0.03236741 -0.044360165 0.17207393 -0.034125436 0.046513006 -0.08117999 -0.11156405 -0.14081192
0.032989986 -0.19072491 0.0 -0.18960457 0.21743734 0.021316743 0.0012706538 -0.42425933
0.2900555 0.0 0.23985481 -0.21905074 -0.060394704 0.020010695 0.021488432 0.00572316
-0.07900195 0.0077921464 -0.04352376 0.020595359 -0.09727686 0.015594301 -0.36500934 0.082049236
0.043653697 -0.20902334 0.0 0.0 -0.16763905 -0.10887997 -0.25604448 -0.1968969
-0.36424544 0.0 -0.0025101884 0.06045121 0.10233628 -0.016460607 -0.066235244 0.14064188
-0.20439023 -0.10188838 -0.11700108 -0.08956247 0.06407114 0.014786471 -0.011893185 -0.05912469
-0.08055634 0.033449788 -0.015660126 -0.075207025 0.0 0.037779234 0.14779222 -0.059734333
0.0048168767 -0.36795968 -0.086048566 0.0 0.030527962 -0.022406388 0.031971574 0.020829558
0.04441847 0.0026460066 0.00034934367 -0.04451775 -0.039200842 0.010669906 -0.06538284 -0.017108096
-0.19279455 -0.06340696 -0.067039944 0.10720663 0.0 0.0 -0.038901646 -0.08380913
-0.09238251 -0.09406454 0.23293732 0.0 -0.0035596692 0.13391039 0.044772882 -0.06844218
-0.009566951 0.03474693 -0.05198502 -0.12380385 -0.17369169 -0.08857769 -0.036781877 -0.035645634
-0.19225919 -0.06398519 -0.13254952 -0.02751329 0.015702887 -0.071478486 0.0 -0.013898145
-0.038349498 -0.020038176 -0.004478153 -0.03415945 -0.06457702 0.0 -0.03572198 0.04656817
0.05668649 -0.15949212 0.033672087 -0.03797363 0.025958218 0.020746164 -0.09916255 -0.10631309
0.08350662 -0.0018199714 0.03564954 0.028272554 0.07093217 -0.16674425 0.0 0.0
-0.13568057 0.001783277 0.073893584 -0.027815789 -0.03313518 0.0 -0.054213457 0.04829243
0.067324184 -0.09991103 -0.002435149 -0.0423444 -0.016602304 0.17050168 0.0030014587 -0.084443994
-0.06839991 0.054904476 0.043810014 0.06998861 -0.09599894 -0.08432324 -0.029110478 -0.057083238
0.0 0.0037102175 -0.071654916 -0.088178985 -0.009304849 -0.24237946 -0.1744007 0.0
-0.035962384 0.09426084 -0.1014978 0.013773624 -0.03886026 -0.12214052 0.021149825 0.03454055
-0.055398576 -0.05484825 0.18455881 -0.14236878 -0.013293137 0.032158762 0.07305668 -0.1476754
0.0 0.0 -0.030486967 0.01743477 -0.16824374 -0.06592618 -0.08569256 0.0
0.022175735 -0.20040257 -0.12064773 -0.033498194 -0.10876902 0.05596577 0.018512944 0.11497527
-0.07920932 -0.042902365 0.036547042 -0.026914025 -0.019137844 -0.047402132 -0.016008472 -0.06642647
-0.0442041 -0.054935668 0.0 -0.010191777 0.028052976 -0.029635793 0.03156997 -0.10364453
0.08614778 0.0 -0.005476655 0.106508106 -0.07406188 -0.059438385 -0.07792626 -0.006354307
0.13323094 -0.0031134542 -0.04653631 0.06926776 -0.031187108 -0.09991019 0.047841065 0.0681435
0.053183164 -0.048917074 0.0 0.0 -0.10503961 -0.10513747 -0.13252594 0.0031261565
-0.06881995 0.0 0.022172194 -0.121703744 -0.08014745 -0.021496525 -0.043687586 0.06262439
-0.06537142 0.07967612 -0.10101409 0.04031609 -0.045420773 -0.038762957 -0.2897262 -0.095432535

2.bias_mu f4 [50]
00000000: ac55 1dbf f4f6 72bd 1f4a 9cbe 2074 e1be
00000010: bc74 a1be ad05 d3be ee12 75be 4296 a8bd
00000020: a167 c8bd c324 39be 8ec5 65bd caed 56be
00000030: cb69 a8bd 5e01 09be 1ff2 56be 2d03 28be
00000040: 6ca2 bfbd 42fb f2be ce29 89be f5d3 1ebf
00000050: 18b2 c13c 0f6c 72be dc5e aebe 0a2b f1bc
00000060: 339e fdbc cf35 67be 9544 613e 3e50 1b40
00000070: e1cc 9cbe 5537 6dbe 83f3 65bd 3df9 25be
00000080: 4ee3 41be a73a afbd e9d1 8abe 3a24 58be
00000090: 87c5 0e3e 4618 5ebe 5d7e e1be 8e8d 333e
000000a0: e1f2 0dbe 849c a8be 5b97 b6be 57c2 b1be
000000b0: a488 9dbe e3fa 0cbf 0702 0fbf ccaa 78be
000000c0: 248e 2abd e535 d4be
-0.6145885 -0.059317544 -0.305253 -0.4403391 -0.31534374 -0.41215268 -0.23933002 -0.082317844
-0.09785391 -0.1808043 -0.056096606 -0.20989147 -0.082233034 -0.13379428 -0.209908 -0.16407461
-0.093571514 -0.4745732 -0.26789707 -0.6204217 0.023644492 -0.23674034 -0.34056747 -0.029439468
-0.030959224 -0.2257912 0.21998818 2.4267726 -0.3062506 -0.23165639 -0.056140434 -0.16208358
-0.18934366 -0.08556109 -0.27113274 -0.2110757 0.13942538 -0.21688947 -0.4404172 0.17534468
-0.13862182 -0.32931912 -0.3566235 -0.34718582 -0.3076831 -0.5507032 -0.5586247 -0.24283904
-0.041639462 -0.41447368

2.bias_log_sigma f4 [50]
00000000: 2746 08be e6fa 27be fe95 c6b8 e8f1 adbd
00000010: c842 1abe 112c 7ebe c910 f3bd 412a eebd
00000020: c013 dbbd 4fd3 53be 5d5a 93be fdde ecbd
00000030: 9f1d 09be 0dc7 34bd 61aa 82bd 8264 70be
00000040: f035 56be 4105 2abe 6481 f2bd 2b3d 4bbe
00000050: 71a6 2fbe c918 68be df16 e4bd 17f9 49be
00000060: c0db 19bf 879c 6dbe 5b05 f9be 7e33 27c0
00000070: 5008 b3be a2c0 8abd bedb 9dbd 22b6 c9bd
00000080: 8c9c 25be 70c5 1b3d f233 80be 8ec1 fabe
00000090: 7e1f 26c0 0927 54ba 210b c2bd 4734 cdbf
000000a0: 6456 5bbd 4a77 86be 4d98 fbbd 28c6 0ebe
000000b0: 65d7 4f3d cda2 25be 5020 f7bd 36b7 65be
000000c0: f871 59be 177b 91bd
-0.13308011 -0.16404304 -9.469314e-05 -0.084934056 -0.15064538 -0.24821497 -0.11868436 -0.11629153
-0.106971264 -0.20686077 -0.2877988 -0.11565969 -0.13390206 -0.044135142 -0.063801534 -0.2347584
-0.20919013 -0.16603567 -0.118410856 -0.19847552 -0.17153336 -0.22665705 -0.11137175 -0.19723926
-0.60100937 -0.23204242 -0.48636898 -2.6125178 -0.3496728 -0.06775023 -0.07707928 -0.09849192
-0.16172999 0.038030088 -0.2503963 -0.48975796 -2.5956721 -0.0008092975 -0.09474779 -1.6031579
-0.053549185 -0.26262885 -0.122849084 -0.13942778 0.050742526 -0.16175385 -0.1206671 -0.2243317
-0.21234882 -0.07103556

4.weight f4 [1, 50]
00000000: 7b15 81bb 6ade 2a3c 975f ab3b 0655 723a
00000010: 08ec e73a ce19 673b 2ff1 32ba d013 5339
00000020: ab72 d5bb 4de2 20ba 7550 55ba 2344 0cbb
00000030: d01e 8c3b f1d6 c0b9 fa9d 073a 4e4a b5bb
00000040: ab65 aebb b8bb 37bc b3ba 353b 2ebb b03a
00000050: 9e00 eeba e090 713b b406 81bb e55c af3b
00000060: 064f 3a3b 7e24 06bb 1c46 f83b 9119 293e
00000070: e534 a5bb 2866 e03a 3dc6 b0bb cdd2 68bb
00000080: 6205 183c b0eb b93b 4fee b6bb 46ed 2a3b
00000090: 2ae3 76be ed85 ebbb c907 5f3b 6260 9f3d
000000a0: 9a92 45bc 5a24 67bb 9944 5bbb 6d70 91bb
000000b0: 235a 4b3c 2d4f 0e39 a123 dbbb 50dc a0bc
000000c0: 1384 843a 9e8f a73a
-0.0039393282 0.010429004 0.005229901 0.0009244237 0.0017694244 0.0035263184 -0.00068261 0.00020129909
-0.0065139136 -0.0006137237 -0.0008137294 -0.0021402917 0.004276134 -0.00036781238 0.00051733817 -0.0055325394
-0.0053221784 -0.011214189 0.002772969 0.0013483518 -0.0018158143 0.0036860034 -0.0039375667 0.00535165
0.002842845 -0.0020468528 0.007576717 0.16513659 -0.005041706 0.0017120289 -0.0053947256 -0.0035526038
0.009278627 0.005673848 -0.005582608 0.0026081367 -0.24110094 -0.007187596 0.003403174 0.077820554
-0.012058878 -0.003526947 -0.0033457635 -0.004438451 0.012411627 0.0001357167 -0.006687597 -0.019636303
0.0010110162 0.001278389
