code/storage/vi_bnn--problem_C--weights.pth (torch, 85412 bytes, 7 tensors)

0.weight f4 [100, 1]
-0.39192912 -0.02185445 -0.042313915 0.453292 -0.16511296 0.2673082 0.054238748 -0.12682298
0.47065577 0.07616615 -0.15701558 -0.49921107 -0.12620836 -0.02731798 0.00709885 -0.19591396
-0.041204296 0.22717473 -0.0048249676 0.015380635 -0.09269604 -0.14394715 -0.29556832 -0.022331407
0.07888964 -0.111811064 0.535766 -0.03615446 0.23261331 0.58679414 -0.29022458 0.03824601
-0.019210862 -0.032259565 0.29617065 -0.015622022 0.37893113 0.255389 -0.2777893 -0.1263836
0.003550549 -0.49491978 0.28959876 0.115904756 -0.36839998 0.025767883 -0.14233932 -0.18311825
-0.01233762 -0.07381046 -0.40960786 -0.061305225 -0.08413477 -0.115219906 0.30009997 0.15161619
-0.016071953 0.02100883 0.3439413 -0.21373408 -0.025086556 -0.5033323 -0.024998518 0.03425451
0.020646589 0.07109952 -0.26390642 -0.3254925 -0.009747321 -0.42610696 -0.11959 0.07549024
-0.18694572 -0.3532041 -0.40459275 0.7007525 -0.09724257 -0.1409933 -0.16651508 0.08619563
-0.24257806 0.3307596 -0.07559805 0.051589943 0.40075293 -0.58353704 -0.040498484 -0.5277485
-0.058385596 -0.025927823 0.2882566 0.40662822 0.2024367 -0.3103775 -0.3548317 0.34699214
0.4414114 0.051008336 -0.34311357 0.14500886
00000000: efaa c8be 1b08 b3bc 5b51 2dbd e415 e83e
00000010: 5f13 29be 9fdc 883e 7329 5e3d e2dd 01be
00000020: cbf9 f03e 00fd 9b3d b1c8 20be 9898 ffbe
00000030: c43c 01be f5c9 dfbc 789d e83b ab9d 48be
00000040: d6c5 28bd 7ea0 683e c31a 9ebb 0fff 7b3c
00000050: 6cd7 bdbd e266 13be bb54 97be 5bf0 b6bc
00000060: e490 a13d 33fd e4bd f627 093f b316 14bd
00000070: 2f32 6e3e 2438 163f 5198 94be d9a7 1c3d
00000080: 1960 9dbc 9b22 04bd aea3 973e 82f3 7fbc
00000090: 4303 c23e 59c2 823e 663a 8ebe b46a 01be
000000a0: 54b0 683b 2066 fdbe 4a46 943e 795f ed3d
000000b0: ec9e bcbe 2b17 d33c 66c1 11be 5a83 3bbe
000000c0: bb23 4abc f029 97bd 1fb8 d1be 301b 7bbd
000000d0: da4e acbd 6af8 ebbd b4a6 993e 4641 1b3e
000000e0: 54a9 83bc b61a ac3c 1319 b03e 1bdd 5abe
000000f0: 5282 cdbc 63da 00bf b1c9 ccbc 754e 0c3d
00000100: 0923 a93c a09c 913d be1e 87be f4a6 a6be
00000110: 3ab3 1fbc b12a dabe 9aeb f4bd a09a 9a3d
00000120: b36e 3fbe 2bd7 b4be c826 cfbe 8464 333f
00000130: 1d27 c7bd 8c60 10be ee82 2abe 5687 b03d
00000140: 6266 78be 5359 a93e 27d3 9abd fa4f 533d
00000150: 7d2f cd3e af62 15bf bde1 25bd 871a 07bf
00000160: bc25 6fbd 9666 d4bc 5e96 933e 9331 d03e
00000170: 914b 4f3e cde9 9ebe 80ac b5be f4a8 b13e
00000180: ad00 e23e 1eee 503d 95ac afbe 347d 143e

0.bias f4 [100]
-1.0960981 0.04820349 0.16140808 -1.0876617 -0.42775756 -0.76662576 -0.3995823 -0.57019013
-1.0762569 -0.67424536 0.32099316 -1.3771788 -0.8625956 -0.2883027 0.89090747 -0.9861648
0.111984454 -1.0667163 -0.05824638 0.10068164 -0.4555791 1.4223475 -1.4105873 -0.5146702
-0.6210023 0.2339908 -2.0972764 0.2285237 -0.5153438 -1.438898 -1.0448371 0.13657016
-0.2566352 0.015085508 -0.68341964 -0.12263453 -0.8726456 -0.7352692 -1.1476305 -0.54356056
-0.2609459 -1.3982911 -1.2181969 -0.2961319 -1.0729127 -0.26243833 -0.2694301 1.1956868
0.16013402 -0.8103567 -1.4455798 0.11267852 0.16359149 -0.36787036 -1.3472416 -0.89986336
0.12199812 -0.2772385 -1.6035686 0.43851236 0.90282935 -1.4390855 0.095543094 0.13642325
-0.18529575 0.4753534 -1.2383239 -1.5082903 0.028725278 -1.5833898 0.8764322 0.605443
1.0059794 -1.2703167 -1.1342671 -1.5861588 0.16878507 -0.19780697 0.9292412 -0.59808207
0.09386514 -1.3819693 -0.19809835 -0.37085807 -0.96583396 -1.557551 -0.27129886 -1.5542606
0.088338226 0.87063974 -0.63716483 -0.95619565 -0.70528704 -0.9847672 -1.1589034 -1.6766119
-0.9887797 -0.44877836 -0.96961725 -0.35481593
00000000: f14c 8cbf 0671 453d 2948 253e 8038 8bbf
00000010: 0a03 dbbe 9641 44bf 0d96 ccbe fbf7 11bf
00000020: c9c2 89bf 589b 2cbf 3759 a43e 6547 b0bf
00000030: 11d3 5cbf 699c 93be 8312 643f 4c75 7cbf
00000040: 1b58 e53d 298a 88bf c293 6ebd 2d32 ce3d
00000050: aa41 e9be 7c0f b63f 208e b4bf 6dc1 03bf
00000060: 02fa 1ebf 499b 6f3e c739 06c0 1e02 6a3e
00000070: 92ed 03bf cf2d b8bf 39bd 85bf 0cd9 0b3e
00000080: b065 83be 3529 773c 97f4 2ebf d027 fbbd
00000090: b465 5fbf 9a3a 3cbf 8ee5 92bf c926 0bbf
000000a0: b39a 85be 34fb b2bf e0ed 9bbf 9a9e 97be
000000b0: 3455 89bf 515e 86be bef2 89be 440c 993f
000000c0: 2cfa 233e 8973 4fbf c208 b9bf ffc3 e63d
000000d0: 8784 273e 8159 bcbe 6a72 acbf 725d 66bf
000000e0: 26da f93d 34f2 8dbe bc41 cdbf b184 e03e
000000f0: d31f 673f f433 b8bf 19ac c33d 89b2 0b3e
00000100: 2bbe 3dbe 8561 f33e 6681 9ebf a80f c1bf
00000110: 4651 eb3c 84ac cabf dc5d 603f 50fe 1a3f
00000120: efc3 803f bd99 a2bf aa2f 91bf 4007 cbbf
00000130: fed5 2c3e e98d 4abe c0e2 6d3f e81b 19bf
00000140: 5e3c c03d 5fe4 b0bf 4bda 4abe 1ce1 bdbe
00000150: e540 77bf d55d c7bf afe7 8abe 03f2 c6bf
00000160: acea b43d 3fe2 5e3f 3c1d 23bf 3dc9 74bf
00000170: b18d 34bf b419 7cbf f256 94bf 389b d6bf
00000180: ab20 7dbf 47c6 e5be d638 78bf 6faa b5be

2.weight_mu f4 [100, 100]
-0.10835391 -0.10029894 -0.2341568 0.10755148 -0.16495904 0.0892522 -0.07350594 -0.1254952
-0.07881514 3.6331566e-38 -0.06905386 -0.10581558 -0.081567325 0.009960401 -0.045374885 -0.14930516
-0.26952097 0.06687804 -0.05799342 -0.10134591 -0.114384405 -0.35003236 -0.1639483 0.012468764
-0.074228145 -0.14986107 -0.08581018 -0.08253258 0.0514428 -0.06425042 -0.17190592 0.015444335
-0.005742238 -0.084988385 -0.068691224 -0.08371669 0.04450722 0.01662271 -0.10234219 -0.04201865
0.08898952 -0.16221522 0.099622265 0.11826235 -0.17831942 0.07497164 -0.14836258 -0.38956043
-0.079174176 -0.009176204 -0.13856721 -0.17646165 -0.1413767 -0.10998599 -0.069543816 0.059539918
-0.09969904 0.045311827 0.013524271 -0.24677746 -0.26996517 -0.32521698 -0.17023686 0.06707523
-0.013237272 -0.025475835 -0.19982564 -0.25004086 -0.08457772 -0.35450184 -0.120768405 -0.14214253
-0.18236196 -0.2258933 -0.20674989 -0.0073491554 -0.0951217 -0.045380797 -0.15806973 0.10238537
-0.12999111 0.066196695 -0.070953906 0.04075342 0.06245231 -0.6674529 -0.098424256 -0.19929534
-0.22656927 -0.19453295 -0.07215131 -0.006025503 0.049607012 -0.19536608 -0.26424938 0.018672666
0.02354883 0.070375845 -0.13866928 -0.062331814 -0.0217503 -0.114041656 -0.13159561 -0.18994565
-0.025438985 -0.16935211 -0.081601314 -0.08500637 -0.29366556 -5.846325e-38 -0.03777054 -0.08090328
0.0056968573 0.0009530421 -0.21229322 -0.052306883 -0.12767433 -0.15556787 -0.19741403 -0.19222274
-0.009986563 -0.30125222 -0.02612807 2.15464e-40 -0.17065725 -0.032017462 -0.070807114 -0.20409162
-0.28319857 -0.22028291 -0.018911462 -0.043922957 0.07081271 0.0024025363 -0.18983229 -0.16787842
-0.15025249 -0.11812467 -0.099201106 -0.08161399 -0.02891499 -0.09708906 -0.2092391 -0.15345371
-0.12640291 -0.12852979 -0.04964401 -0.37573218 -0.12758328 -3.1635008e-38 -0.041406147 -0.42057675
-0.09455339 -0.11545256 -0.16823989 -0.075217165 -0.04750733 -0.07543229 -0.20128162 -0.59053797
-0.20921105 -0.02140276 -0.048855986 -0.21118876 -0.134347 -0.15922861 0.03875411 -0.060814794
-0.01919493 -0.27890983 -0.114544086 -0.26054585 -0.2650281 -0.02483019 -0.10980216 -0.38431227
-0.08741595 -0.13613786 -0.3300934 -0.13708878 -0.050362032 -0.14518489 -0.10000089 -0.11936268
-0.14070496 -0.28477663 -0.10595413 -0.0412458 -0.09140333 -0.3651095 -0.11229076 -0.2182601
-0.13433325 0.021629987 -0.14742823 -0.10324887 -0.117975146 -0.07008903 0.009876208 -0.19299313
-0.34527475 -0.2550139 -0.62072146 0.89337695 -0.3345257 0.9794747 0.41086054 -0.36362684
1.9640749 -1.15957e-38 -0.26560292 -0.17881334 0.044447377 -0.022811724 0.3440669 -0.34545615
-0.3937903 -0.051825207 0.507889 -0.1117652 -0.33683547 -0.039251555 -0.27182025 -0.011814698
0.1982876 -0.37618846 -0.92633384 0.13982888 1.4646409 1.1510705 -0.20794554 0.37506917
0.0024167558 -0.4758557 0.92920446 0.1426346 1.0748067 0.62277114 -0.20791948 -0.10824279
0.06025655 -0.34381628 0.2954949 0.7182798 -0.31551397 0.1469761 -0.5273835 -1.0604928
-0.36486995 0.010515808 -0.10707001 -0.50219077 -0.44314456 -0.28448078 0.051436722 0.6534658
00000000: a8e8 ddbd 8869 cdbd cdc6 6fbe f343 dc3d
00000010: 06eb 28be dcc9 b63d 488a 96bd d081 00be
00000020: d569 a1bd d0ce 4501 1c6c 8dbd d7b5 d8bd
00000030: c50c a7bd f330 233c 04db 39bd 74e3 18be
00000040: a7fe 89be 5bf7 883d 828a 6dbd 728e cfbd
00000050: 5f42 eabd 7137 b3be 10e2 27be c949 4c3c
00000060: ed04 98bd 2e75 19be 3fbd afbd d706 a9bd
00000070: afb5 523d b995 83bd 1b08 30be 3c0a 7d3c
00000080: 6229 bcbb 640e aebd fcad 8cbd a873 abbd
00000090: 344d 363d 592c 883c c898 d1bd bf1b 2cbd
000000a0: 2340 b63d bf1b 26be c206 cc3d 8833 f23d
000000b0: 5e99 36be bb8a 993d 5cec 17be 7774 c7be
000000c0: 1226 a2bd ca57 16bc 90e4 0dbe 5db2 34be
000000d0: 0ec5 10be 5640 e1bd fd6c 8ebd 21e0 733d
000000e0: 032f ccbd e598 393d e794 5d3c 3bb3 7cbe
000000f0: e038 8abe d782 a6be 9252 2ebe bd5e 893d
00000100: 25e1 58bc b3b2 d0bc 189f 4cbe 5b05 80be
00000110: 1537 adbd 4481 b5be 6d55 f7bd d08d 11be
00000120: 18bd 3abe 9350 67be 3eb6 53be 2fd1 f0bb
00000130: 2acf c2bd 37e1 39bd 08dd 21be 6caf d13d
00000140: 641c 05be 2292 873d 4850 91bd 0fed 263d
00000150: fecd 7f3d 31de 2abf a892 c9bd 1414 4cbe
00000160: c601 68be a533 47be 11c4 93bd 9571 c5bb
00000170: b930 4b3d 0c0e 48be b24b 87be 6bf7 983c
00000180: 7ae9 c03c 3621 903d 52ff 0dbe a54f 7fbd
00000190: af2d b2bc ac8e e9bd 00c1 06be 1d81 42be
000001a0: 6b65 d0bc a46a 2dbe 971e a7bd d217 aebd
000001b0: 555b 96be f026 9f81 48b5 1abd 9eb0 a5bd
000001c0: b4ac ba3b 93d5 793a 6563 59be be3f 56bd
000001d0: 0fbd 02be 2f4d 1fbe e726 4abe 0ad6 44be
000001e0: ae9e 23bc bb3d 9abe 890a d6bc a058 0200
000001f0: c6c0 2ebe be24 03bd 5203 91bd 65fd 50be
00000200: 67ff 90be d891 61be 36ec 9abc 8fe8 33bd
00000210: 4106 913d df73 1d3b 6563 42be 52e8 2bbe
00000220: cadb 19be 59eb f1bd f329 cbbd 3c25 a7bd
00000230: 21df ecbc a1d6 c6bd c642 56be f822 1dbe
00000240: c46f 01be 509d 03be 8457 4bbd f85f c0be
00000250: 31a5 02be c43c 2c81 7e99 29bd d655 d7be
00000260: 35a5 c1bd 6472 ecbd 1447 2cbe 750b 9abd
00000270: 0c97 42bd 3f7c 9abd c51c 4ebe 7f2d 17bf
00000280: 6c3b 56be d754 afbc 371d 48bd de41 58be
00000290: 4392 09be d30c 23be a1bc 1e3d ef18 79bd
000002a0: b03e 9dbc 45cd 8ebe 1796 eabd 4466 85be
000002b0: c3b1 87be af68 cbbc f4df e0bd 94c4 c4be
000002c0: 2207 b3bd b967 0bbe 0102 a9be 0061 0cbe
000002d0: 6b48 4ebd 59ab 14be 44cd ccbd 6c74 f4bd
000002e0: f614 10be 3ece 91be 7bfe d8bd 5bf1 28bd
000002f0: ab31 bbbd a2ef babe b3f8 e5bd 937f 5fbe
00000300: a88e 09be 5f31 b13c 6df7 16be 2574 d3bd
00000310: f49c f1bd d68a 8fbd d2cf 213c fe9f 45be
00000320: dac7 b0be 2f91 82be 9ae7 1ebf 5ab4 643f
00000330: f446 abbe dbbe 7a3f 505c d23e 4c2d babe
00000340: ce66 fb3f 1844 7e80 1bfd 87be d81a 37be
00000350: 740e 363d a7df babc 8929 b03e a1df b0be
00000360: e29e c9be ab46 54bd 0305 023f 27e5 e4bd
00000370: b375 acbe 3dc6 20bd 062c 8bbe 6f92 41bc
00000380: e80b 4b3e c69b c0be 3724 6dbf 4d2f 0f3e
00000390: 5a79 bb3f 4756 933f adef 54be 1109 c03e
000003a0: 6f62 1e3b 5ca3 f3be 58e0 6d3f ce0e 123e
000003b0: 4493 893f ee6d 1f3f d8e8 54be 65ae ddbd
000003c0: 92cf 763d b008 b0be 1c4b 973e 2fe1 373f
000003d0: 0c8b a1be e780 163e 9b02 07bf 3abe 87bf
000003e0: 3cd0 babe 7f4a 2c3c 8547 dbbd 938f 00bf
000003f0: d8e3 e2be 77a7 91be 50af 523d 8949 273f

2.weight_log_sigma f4 [100, 100]
0.06441387 -0.13429561 -0.03703895 0.019639522 0.06478951 0.049016874 -0.08483356 -0.059042178
0.06565959 0.0 -0.09223003 -0.14185105 0.09109342 -0.050059997 0.028237067 -0.09437024
-0.014835362 -0.026085887 -0.011588062 0.05908132 0.02194641 -0.010749402 0.016891938 -0.038734447
-0.1162225 -0.18159309 -0.0001306187 -0.16804239 0.1479715 -0.1132978 0.07614385 0.037649583
0.06574887 -0.09452364 0.08030793 -0.13750882 -0.08409986 0.010691478 -0.042050127 -0.02191143
-0.012678706 -0.05666038 0.069623955 -0.003183472 0.052122436 0.002841127 -0.0007894205 -0.31245917
0.041149084 -0.02416429 -0.0020538406 -0.023411186 0.017008519 -0.15055726 -0.07367844 0.0255264
-0.10722082 0.067938656 -0.18695651 -0.0062361513 0.06276409 -0.040480122 -0.18696117 0.054417264
0.024125753 -0.057335258 -0.0788958 -0.0053351778 0.020168286 -0.08959563 -0.11418264 -0.07731356
-0.19036388 -0.03015933 0.08788042 0.07887321 0.087084524 -0.17649542 -0.019793047 -0.01560593
-0.017087478 0.03361732 0.041251164 0.05501915 -0.0020936811 0.2537764 0.029844614 -0.0071002026
0.01609147 -0.1842683 0.01701007 -0.09830444 -0.08481858 -0.14900272 -0.06114371 -0.04267623
-0.05523086 0.09341168 -0.047372945 0.1599473 -0.09078736 0.06411621 -0.06428074 -0.1119605
-0.11238332 0.019406565 0.19610292 -0.00608046 -0.1584305 0.0 -0.13888964 0.16815472
-0.055468593 -1.9071626e-08 -0.1309942 -0.058811486 0.00052394444 -0.053767934 -0.038873184 -0.032820642
-0.02753493 -0.110107526 0.07797598 0.0 0.04559501 -0.07583191 0.03756124 0.07907962
0.115794994 -0.09259664 0.02777313 -0.096068904 -0.06754069 0.064435594 0.03374294 -0.09607714
-0.11292116 0.015254713 -0.009033085 0.06120464 0.059406903 -0.15111388 -0.029241273 -0.084971726
-0.15206058 -0.12617865 -0.07266248 -0.20434444 -0.014154632 0.0 0.001993721 0.30825597
0.10150695 0.15544304 -0.04711604 -0.035513107 -0.0120381 -0.06841007 0.042707287 -0.19045424
-0.26905122 0.3159883 -0.13235308 -0.053930808 0.055180117 0.03282815 0.011989311 -0.16881928
-0.12000621 0.06763717 -0.12783788 -0.1565871 -0.08569002 -0.27619475 0.061904855 -0.089119375
0.14714646 -0.1409797 -0.25753874 0.019008413 -0.098911636 -0.1778539 -0.029269561 -0.057876125
0.040408872 -0.20610802 0.058658876 0.08193235 0.027972143 -0.14189012 -0.048542794 -0.04724977
-0.06461291 -0.1560919 0.100935236 -0.029451746 -0.22918826 0.027217157 0.0037827147 -0.050574128
-0.41992423 -0.06893381 0.01922947 -0.74989474 0.11195043 -0.59893215 -0.25737986 -0.064704075
-0.9312413 0.0 -0.2590277 -0.017520936 -0.10436634 -0.013196013 -0.76341814 -0.14631708
-0.04494037 -0.21500339 -0.5191386 -0.28305632 -0.1654272 -0.9393898 -0.14706637 -0.0034497874
0.14406405 -0.18082401 -0.5829135 -0.2690533 -0.50805455 -0.62060857 -0.20728835 -0.28656927
0.0902019 0.013087581 -0.42702943 0.0019503179 -0.6334142 -0.1268911 -0.015973475 -0.23592846
0.07189983 -0.08525267 -0.097144276 -0.17532887 0.07049775 0.024645895 0.22839856 -1.1984307
-0.33596188 -2.1143052e-07 0.022270896 -0.030772753 -0.16019218 -0.16543308 -0.14547122 0.14403258
00000000: 6beb 833d ca84 09be 27b6 17bd 10e3 a03c
00000010: 5db0 843d ebc5 483d 38bd adbd 36d6 71bd
00000020: 8978 863d 0000 0000 19e3 bcbd 6741 11be
00000030: 308f ba3d b60b 4dbd 6c51 e73c 2f45 c1bd
00000040: 0510 73bc 12b2 d5bc dbdb 3dbc 41ff 713d
00000050: f5c8 b33c 431e 30bc f660 8a3c 03a8 1ebd
00000060: 1006 eebd 8af3 39be b1f6 08b9 4e13 2cbe
00000070: d785 173e ad08 e8bd 4ff1 9b3d 7336 1a3d
00000080: 58a7 863d 9c95 c1bd 7c78 a43d 1dcf 0cbe
00000090: 8c3c acbd 4f2b 2f3c c13c 2cbd 997f b3bc
000000a0: 59ba 4fbc b714 68bd 0197 8e3d cca1 50bb
000000b0: 567e 553d 3432 3a3b 1df1 4eba a6fa 9fbe
000000c0: f18b 283d 30f4 c5bc ba99 06bb d1c8 bfbc
000000d0: 7355 8b3c af2b 1abe b9e4 96bd be1c d13c
000000e0: 9796 dbbd 6c23 8b3d 8771 3fbe a158 ccbb
000000f0: 768a 803d 7cce 25bd c072 3fbe a3e4 5e3d
00000100: 5fa3 c53c 60d8 6abd 1f94 a1bd b7d2 aebb
00000110: f637 a53c ea7d b7bd 97d8 e9bd 9256 9ebd
00000120: c0ee 42be b310 f7bc a6fa b33d 4788 a13d
00000130: 5f59 b23d 37bb 34be 0725 a2bc 04b0 7fbc
00000140: 0afb 8bbc 51b2 093d fbf6 283d c35b 613d
00000150: 2436 09bb fbee 813e b17c f43c d1a8 e8bb
00000160: 42d2 833c d4b0 3cbe b458 8b3c d753 c9bd
00000170: 5db5 adbd 2b94 18be d471 7abd 45cd 2ebd
00000180: c139 62bd 9f4e bf3d 220a 42bd 3ac9 233e
00000190: b9ee b9bd 5c4f 833d 9fa5 83bd 8c4b e5bd
000001a0: 3a29 e6bd 84fa 9e3c 34cf 483e 983e c7bb
000001b0: 9b3b 22be 0000 0000 1639 0ebe c030 2c3e
000001c0: 0933 63bd f3d2 a3b2 5823 06be 50e4 70bd
000001d0: 5159 093a c43b 5cbd 7d39 1fbd f06e 06bd
000001e0: ef90 e1bc 0e80 e1bd dfb1 9f3d 0000 0000
000001f0: d5c1 3a3d c34d 9bbd d1d9 193d 7ff4 a13d
00000200: ed25 ed3d 4fa3 bdbd 7a84 e33c c6bf c4bd
00000210: c652 8abd cff6 833d 0936 0a3d 17c4 c4bd
00000220: 3643 e7bd e7ee 793c 81ff 13bc b7b1 7a3d
00000230: a754 733d 99bd 1abe 658b efbc a805 aebd
00000240: c5b5 1bbe fa34 01be 11d0 94bd ab3f 51be
00000250: d4e8 67bc 0000 0000 16a9 023b bad3 9d3e
00000260: e0e2 cf3d 762c 1f3e c0fc 40bd 3176 11bd
00000270: 733b 45bc 941a 8cbd d6ed 2e3d 7006 43be
00000280: 15c1 89be 38c9 a13e 9187 07be 8de6 5cbd
00000290: 8c04 623d cf76 063d d16e 443c f6de 2cbe
000002a0: d1c5 f5bd 5b85 8a3d efe7 02be 5e58 20be
000002b0: 407e afbd 6669 8dbe f28f 7d3d 3884 b6bd
000002c0: 90ad 163e fc5c 10be 1edc 83be 88b7 9b3c
000002d0: 2f92 cabd 551f 36be b8c6 efbc 840f 6dbd
000002e0: c683 253d fb0d 53be 4a44 703d 26cc a73d
000002f0: d625 e53c a54b 11be cfd4 46bd fa88 41bd
00000300: c653 84bd 8ed6 1fbe 22b7 ce3d ca44 f1bc
00000310: 54b0 6abe 84f6 de3c 6ce7 773b d126 4fbd
00000320: 4f00 d7be 2b2d 8dbd 1f87 9d3c 1af9 3fbf
00000330: 4446 e53d 9e53 19bf 4bc7 83be 9283 84bd
00000340: d465 6ebf 0000 0000 479f 84be 1188 8fbc
00000350: 05be d5bd 1734 58bc 5f6f 43bf 25d4 15be
00000360: 6513 38bd d929 5cbe 44e6 04bf c2ec 90be
00000370: bf65 29be da7b 70bf 9198 16be d415 62bb
00000380: 8785 133e ee29 39be d239 15bf 5bc1 89be
00000390: dd0f 02bf 34e0 1ebf 6643 54be 35b9 92be
000003a0: c6bb b83d 4b6d 563c 9aa3 dabe cfa1 ff3a
000003b0: 6f27 22bf beef 01be ceda 82bc 3b97 71be
000003c0: 3840 933d f498 aebd 94f3 c6bd 6989 33be
000003d0: 2061 903d 30e6 c93c 50e1 693e 2d66 99bf
000003e0: 3203 acbe 9405 63b4 7471 b63c 2417 fcbc
000003f0: 6b09 24be 4a67 29be 68f6 14be 477d 133e

2.bias_mu f4 [100]
-0.08754133 -0.20241229 0.8910263 2.2135355 -0.21760209 -0.25570855 -0.32646203 0.026742376
-1.1202376 -0.29527423 -0.16705297 -0.2826303 -0.34669384 0.07025545 0.6381272 -0.27950552
-0.18057263 -0.12003359 -0.3535387 -0.2626337 -0.67203164 -0.17722635 -0.39285344 0.009272546
-0.4065604 -0.28147766 -0.30424866 -0.3736188 -0.28450683 -0.21554655 -0.41172737 -0.6340783
-0.5440587 -0.2606208 -2.343537 -0.25039524 -0.36587986 -0.19714415 0.048223622 -0.21339081
-0.16179554 -0.4457368 0.47512263 -0.34383228 -0.36472115 -0.28678945 -0.3780479 -0.21754518
-0.19507466 -0.105695374 0.74981177 -0.48485947 -0.4216626 -0.28013635 -0.2982875 -0.49135607
-0.21281229 -0.03481123 -0.36839592 -0.3656818 -0.082398705 -0.5187518 -0.22753708 -0.30376095
-0.106090724 -0.25063068 -0.2712322 -0.42124778 -0.10828818 -0.22280754 -0.20057069 -0.28504196
-0.32626015 -0.25614226 -0.500916 0.17987977 -0.51376194 -0.33852363 -0.089400515 -0.21677488
-0.40596858 0.14520423 -0.14228216 -0.29448056 -0.2698836 -0.19237754 -0.4829732 -0.22917145
-0.71893585 -3.2862728 -0.14351481 -1.1704668 -0.3268578 0.5432231 -0.4345838 -0.09126669
0.04486373 -0.41715217 -0.060403466 -0.2659854
00000000: de48 b3bd 2b45 4fbe 4d1a 643f 91aa 0d40
00000010: 15d3 5ebe 3bec 82be 0826 a7be d412 db3c
00000020: f263 8fbf 2f2e 97be ef0f 2bbe ebb4 90be
00000030: db81 b1be 17e2 8f3d 4e5c 233f 591b 8fbe
00000040: 08e8 38be 2cd4 f5bd 0603 b5be ed77 86be
00000050: 440a 2cbf d37a 35be 1624 c9be e0eb 173c
00000060: af28 d0be d71d 90be 7bc6 9bbe f74a bfbe
00000070: e1aa 91be 3cb8 5cbe eecd d2be f552 22bf
00000080: 6e47 0bbf 1770 85be 83fc 15c0 ce33 80be
00000090: 9b54 bbbe 28e0 49be 2286 453d 1f83 5abe
000000a0: bbad 25be 9d37 e4be 4643 f33e c90a b0be
000000b0: bbbc babe 11d6 92be 7f8f c1be 2ac4 5ebe
000000c0: a7c1 47be d176 d8bd aaf3 3f3f 803f f8be
000000d0: 29e4 d7be 086e 8fbe 24b9 98be 0693 fbbe
000000e0: 77eb 59be 3896 0ebd 649e bcbe a53a bbbe
000000f0: a7c0 a8bd ebcc 04bf 7bff 68be 8e86 9bbe
00000100: 1846 d9bd aa52 80be f2de 8abe caad d7be
00000110: 31c6 ddbd a927 64be 6762 4dbe 05f1 91be
00000120: 920b a7be 1425 83be 083c 00bf 6732 383e
00000130: e785 03bf f852 adbe 9e17 b7bd 3cfa 5dbe
00000140: 1ddb cfbe 6bb0 143e 6ab2 11be 28c6 96be
00000150: 2f2e 8abe 9efe 44be 4348 f7be ecab 6abe
00000160: 2e0c 38bf 4b52 52c0 8cf5 12be dbd1 95bf
00000170: e859 a7be ab10 0b3f c581 debe 08ea babd
00000180: 08c3 373d f894 d5be a069 77bd 3d2f 88be

2.bias_log_sigma f4 [100]
0.034158878 0.14028344 -1.3083544 -1.5387603 0.074529015 -0.21803382 -0.1571245 -0.32099545
-0.012950442 -0.15511101 -0.18531105 -0.0024852385 -0.0074271564 -0.3354176 -0.4461953 0.10595713
0.11003375 -0.015321264 0.20447807 -0.32270792 -0.12633047 -0.18009984 -0.52603173 -0.082336165
0.27637044 -0.11815095 -0.041616622 0.18179859 -0.044947375 0.086456224 0.0055763656 0.050500013
-0.14506248 0.032989427 -0.60282964 -0.18388188 -0.082654186 0.13607486 0.10190186 -0.07888059
0.05601994 -0.18845826 -0.3361031 0.027373359 -0.1054816 -0.057679076 -0.07721545 0.010988926
0.016281584 0.20987342 -0.587968 -0.14436029 -0.047743093 -0.11929026 0.25945374 0.11823891
-0.047263872 -0.15855041 0.21420608 0.0534251 0.1388492 -0.0452256 -0.12766527 0.14950295
-0.07304196 -0.14590256 -0.029168084 -0.13794349 -0.4354909 0.1376154 -0.24993165 -0.05458843
-0.18057711 -0.033017986 -0.05739647 0.23433845 -0.11001292 -0.17705928 -0.13568541 -0.15613504
0.5753612 -0.50085473 0.45319307 -0.20428824 -0.105058275 -0.042668063 -0.24436817 -0.14866629
-0.041188512 -1.3181983 -0.18241781 -0.15353017 -0.14348975 -0.64101255 -0.42851067 -0.17165838
-0.08201386 -0.15986532 -0.14523673 -0.038930997
00000000: 2eea 0b3d 76a6 0f3e 2878 a7bf 19f6 c4bf
00000010: aba2 983d 4244 5fbe 3fe5 20be 8459 a4be
00000020: 172e 54bc 6cd5 1ebe 2ec2 3dbe 62df 22bb
00000030: 815f f3bb dbbb abbe b673 e4be 0d00 d93d
00000040: 6059 e13d 0a06 7bbc b362 513e f939 a5be
00000050: c65c 01be 186c 38be 04aa 06bf dd9f a8bd
00000060: 6d80 8d3e 20f9 f1bd 3176 2abd 6929 3a3e
00000070: bd1a 38bd f60f b13d f2b9 b63b 1ad9 4e3d
00000080: 428b 14be ec1f 073d 0b53 1abf 884b 3cbe
00000090: 9946 a9bd 3557 0b3e ecb1 d03d 268c a1bd
000000a0: 2a75 653d 34fb 40be b515 acbe 183e e03c
000000b0: bd06 d8bd e540 6cbd 2223 9ebd e50a 343c
000000c0: f560 853c 0fe9 563e 1285 16bf 2fd3 13be
000000d0: 438e 43bd 744e f4bd 1fd7 843e 3e27 f23d
000000e0: c397 41bd 0a5b 22be d758 5b3e 47d4 5a3d
000000f0: 7c2e 0e3e 7b3e 39bd afba 02be 4d17 193e
00000100: 0697 95bd 7b67 15be e8f1 eebc 0f41 0dbe
00000110: aaf8 debe 0deb 0c3e 15ee 7fbe 1e98 5fbd
00000120: 35e9 38be de3d 07bd 9018 6bbd 6bf6 6f3e
00000130: 744e e1bd 074f 35be 1ef1 0abe dde1 1fbe
00000140: df4a 133f 0438 00bf ec08 e83e f030 51be
00000150: cb28 d7bd b5c4 2ebd a63b 7abe fa3b 18be
00000160: 49b5 28bd b9ba a8bf bccb 3abe 0337 1dbe
00000170: faee 12be 6619 24bf c065 dbbe 37c7 2fbe
00000180: e2f6 a7bd bcb3 23be f0b8 14be 1c76 1fbd

4.weight f4 [1, 100]
-0.010652823 -0.004252536 -0.08613592 0.27150965 0.013097892 -0.02328532 -0.018973116 0.0060488544
0.048168518 -0.013590517 -0.020478169 -0.020346196 -0.0027591127 -0.0146797765 -0.035072554 -0.009845134
-0.0017620904 -0.007961583 0.008113636 -0.010357234 0.005041038 -0.01637864 -0.014602392 -0.01558794
0.0074137743 -0.014667678 -0.008475309 0.0010927699 -0.015235887 -0.0086501865 -0.0035041766 0.0061683557
-0.002634215 -0.004536644 0.27149025 -0.0106055625 0.011260539 -0.01630818 -0.0119841425 0.00038587057
-0.019195102 0.007139493 0.04591964 0.026892802 0.005627341 0.006450365 0.0044464273 -0.029968027
-0.014873874 0.012371628 -0.056225605 0.004810761 -0.013462596 0.015266823 -0.017862406 0.026067922
-0.0048548356 -0.010646957 -0.012822127 0.021137763 -0.0009169598 0.018748336 -0.0096243145 -0.010656306
-0.0049137794 -0.00079000095 -0.011923876 0.008830306 -0.0045694867 -0.0073620286 -0.013532971 0.017030995
-0.0009191121 -0.0075932406 0.014926773 0.024703553 0.009335165 0.041427445 -0.017942896 0.0040006805
-0.018356213 -0.015811807 0.0055518877 -0.003609383 -0.010384121 -0.013947509 0.011587329 -0.001708708
0.02020284 0.39694688 -0.020565962 0.020509586 0.0041658115 0.060104996 -0.029303558 -0.03170332
0.01726385 -0.018700687 -0.005202144 0.008061799
00000000: 2e89 2ebc dc58 8bbb 0768 b0bd 5003 8b3e
00000010: 8a98 563c dbc0 bebc 826d 9bbc 7835 c63b
00000020: 5a4c 453d c3aa 5ebc d5c1 a7bc 11ad a6bc
00000030: 3bd2 34bb 7283 70bc 3da8 0fbd 7c4d 21bc
00000040: f1f5 e6ba 4d71 02bc 0eef 043c 63b1 29bc
00000050: 4b2f a53b 7f2c 86bc df3e 6fbc 8f64 7fbc
00000060: 3fef f23b b350 70bc 06dc 0abc 463b 8f3a
00000070: f19f 79bc 83b9 0dbc 54a6 65bb eb1f ca3b
00000080: cba2 2cbb 21a8 94bb c500 8b3e f4c2 2dbc
00000090: 207e 383c bb98 85bc 2359 44bc ac4e ca39
000000a0: 0c3f 9dbc 68f2 e93b 3c16 3c3d 4b4e dc3c
000000b0: 8f65 b83b 955d d33b 56b3 913b 827f f5bc
000000c0: 8db1 73bc 5eb2 4a3c d24c 66bd 97a3 9d3b
000000d0: 3892 5cbc b221 7a3c 2e54 92bc 658c d53c
000000e0: 5015 9fbb 9370 2ebc e613 52bc 1a29 ad3c
000000f0: 2160 70ba 1c96 993c 4daf 1dbc c997 2ebc
00000100: c503 a1bb 1118 4fba 5c5c 43bc fdac 103c
00000110: a2bb 95bb 2c3d f1bb 65b9 5dbc 9684 8b3c
00000120: 92f0 70ba b8d0 f8bb 6c8f 743c 1b5f ca3c
00000130: 85f2 183c d3af 293d fbfc 92bc 2418 833b
00000140: c55f 96bc c387 81bc 9cec b53b 668b 6cbb
00000150: 2922 2abc 1884 64bc c8d8 3d3c baf6 dfba
00000160: 6d80 a53c 9f3c cb3e f379 a8bc b803 a83c
00000170: 5c81 883b a830 763d 040e f0bc 57db 01bd
00000180: eb6c 8d3c 2f32 99bc bf76 aabb a315 043c
